results/AlsomitraProperty2/alsomitra/DL2.onnx (onnx, 10944 bytes, 5 tensors)

fc1.weight f4 [64, 6]
0	0xbdc12e8c	-0.09432706
1	0x3e7a4581	0.24440576
2	0xbc7167b9	-0.014734202
3	0xbe7fac72	-0.24968126
4	0x3d948de1	0.07253624
5	0xbdd6b4da	-0.104837134
6	0x3eebd74b	0.46062693
7	0xbe9ccae1	-0.30623534
8	0xbe1cdda1	-0.1531892
9	0xbe7472fb	-0.23871987
10	0xbee7f26f	-0.4530215
11	0x3e8a5498	0.27017665
12	0x3ebb0cb8	0.3653314
13	0x3d112aa5	0.03544106
14	0x3eb3852f	0.3506255
15	0x3e2eef35	0.17083438
16	0x3e84e9da	0.25959665
17	0x3e8eca18	0.2788856
18	0x3ebff37a	0.37490445
19	0xbe68fb2a	-0.22752061
20	0x3f1944bc	0.59870505
21	0xbd7794d0	-0.060444653
22	0xbeba19ef	-0.3634791
23	0xbe5034da	-0.20332661
24	0xbe47d1af	-0.19513582
25	0x3e4c0fc7	0.19927894
26	0xbe3f2180	-0.18665123
27	0x3eae57d0	0.3405137
28	0x3ea8cbd8	0.3296802
29	0xbec061f2	-0.37574726
30	0x3dd90d96	0.105982944
31	0xbd26ddcb	-0.040738862
32	0x3e1de575	0.15419562
33	0x3e881a60	0.26582623
34	0xbebe10be	-0.37122148
35	0x3ec708a6	0.38873786
36	0x3eae3e2b	0.34031805
37	0x3e1edd4e	0.15514109
38	0xbec1bc64	-0.37839043
39	0xbe38a469	-0.18031467
40	0xbe0033cb	-0.12519757
41	0xbdf758c3	-0.12077477
42	0x3e6ca62e	0.23110268
43	0x3e1726ff	0.1476097
44	0x3e9ba0f9	0.3039625
45	0xbe0a1e5c	-0.13488144
46	0x3e2776a8	0.16353858
47	0x3e29b9e3	0.16574816
48	0xbddff0a7	-0.10934573
49	0xbf11d74d	-0.5696915
50	0xbd900781	-0.07032681
51	0x3eaf9a65	0.3429748
52	0xbebeb6ba	-0.37248784
53	0xbea0a313	-0.31374416
54	0x3e65a1e3	0.22425036
55	0x3e2a3e5c	0.1662535
56	0x3eb2395a	0.3480938
57	0xbed33bfc	-0.41256702
58	0xbeaf6b94	-0.34261763
59	0x3dedb066	0.11605911
60	0x3eb1053f	0.34574315
61	0x3e6813f7	0.22663866
62	0x3d2c51c9	0.042070184
63	0x3e26895a	0.16263333
64	0x3ed2ba48	0.41157746
65	0xbe86b3e3	-0.26309118
66	0xbdcb9929	-0.09941322
67	0x3eac9df6	0.33714265
68	0xbede2ce2	-0.43393618
69	0xbe32ba62	-0.17453912
70	0x3ec46828	0.38360715
71	0x3e027c2b	0.12742679
72	0x3dece37f	0.11566829
73	0xbe390f6c	-0.18072289
74	0xbd095693	-0.03352983
75	0x3eba1c5e	0.36349767
76	0xbeb36b40	-0.35042763
77	0x3d39bc24	0.04534544
78	0x3e79c396	0.24391016
79	0xbe9c0a85	-0.30476776
80	0x3f198077	0.59961647
81	0xbedd222d	-0.43190137
82	0xbe1ebe27	-0.15502225
83	0xbe2f544e	-0.17122003
84	0xbe8832b3	-0.2660118
85	0xbecd145c	-0.40054595
86	0x3e6bb047	0.23016463
87	0x3dee81ad	0.116458274
88	0xbec3be27	-0.38231012
89	0xbe825439	-0.25454882
90	0x3ed1ba14	0.4096228
91	0x3dee51c7	0.116366915
92	0x3e9dd924	0.30829728
93	0xbec551c2	-0.3853894
94	0xbe39196d	-0.18076105
95	0xbe59dc41	-0.21275426
96	0xbd98e40c	-0.074653715
97	0xbe8f3812	-0.27972466
98	0x3d09bfc8	0.033630162
99	0x3d262e70	0.04057163
100	0xbd53b4d0	-0.051686108
101	0x3d67ca64	0.0565895
102	0xbe3c8514	-0.1841014
103	0x3dabc612	0.08387388
104	0x3e067f9e	0.1313462
105	0xbe732f96	-0.23748621
106	0xbed6d0d5	-0.419562
107	0x3e43e70c	0.19131106
108	0x3d612728	0.054968983
109	0xbe8a2c40	-0.26986885
110	0x3ed6b676	0.41936082
111	0xbe7ab52f	-0.24483179
112	0x3e8eb86f	0.27875087
113	0x3d4721dc	0.048616275
114	0xbeaf3ba3	-0.34225187
115	0x3e86cb3f	0.2632694
116	0xbec029e5	-0.37531963
117	0xbe679389	-0.22614874
118	0xbd8b6017	-0.06805437
119	0xbe8ce0a9	-0.27515152
120	0x3ec6f163	0.38856038
121	0xbd930285	-0.07178215
122	0x3e15e453	0.1463788
123	0xbeaf0e48	-0.34190583
124	0x3e8d086a	0.27545482
125	0xbe9143f4	-0.28372157
126	0xbe4e34d6	-0.20137343
127	0x3d1e198d	0.038598586
128	0x3e83228f	0.25612304
129	0x3ee170e9	0.44031456
130	0xbd60cc9b	-0.054882627
131	0xbe92fe15	-0.28709474
132	0x3da45fcd	0.08026085
133	0x3de74fd2	0.112945214
134	0x3e0ea078	0.13928401
135	0x3e59c41d	0.21266218
136	0xbd9ee446	-0.077583835
137	0x3e8505a1	0.25980857
138	0x3e7d5887	0.24740802
139	0xbe0d42a0	-0.13794947
140	0x3e84aa8d	0.2591137
141	0x3e479a15	0.19492371
142	0x3eb71eb4	0.35765612
143	0xbe8432f0	-0.25820112
144	0xbe5753ac	-0.21028012
145	0xbdf65ad8	-0.12029046
146	0xbd2c7e84	-0.042112842
147	0x3e072b3f	0.13200091
148	0xbeb62e2f	-0.3558211
149	0x3e9cbe92	0.30614144
150	0xbe15ce68	-0.14629519
151	0x3e7c84a6	0.24659976
152	0xbc9ec48b	-0.019380828
153	0xbeb71bd4	-0.3576342
154	0xbe660032	-0.22461012
155	0xbe974466	-0.2954437
156	0x3e4f4ecc	0.20244902
157	0xbe8c2577	-0.27372333
158	0xbd0b4f4d	-0.034011174
159	0x3db460cb	0.08807524
160	0xbe653a15	-0.22385438
161	0x3df12901	0.11775399
162	0xbe805605	-0.25065628
163	0xbd0fb813	-0.035087656
164	0xbdd1b05e	-0.102387175
165	0xbe25e331	-0.16199948
166	0xbe2ae9d9	-0.16690768
167	0x3da1881b	0.07887288
168	0xbd92f5aa	-0.07175763
169	0x3e437145	0.19086178
170	0x3eb5eef4	0.3553387
171	0x3e499cc6	0.1968871
172	0xbe01d4e2	-0.12678865
173	0xbeb4714f	-0.35242698
174	0x3e23dbbf	0.16001795
175	0xbe4384f5	-0.19093688
176	0x3e551a89	0.20810904
177	0x3ea8f442	0.32998854
178	0x3e4d1953	0.20029192
179	0x3ec92e7a	0.3929327
180	0x3ebffc40	0.3749714
181	0x3d8d6114	0.06903282
182	0xbeb1a014	-0.34692442
183	0x3ecae02f	0.39624164
184	0xbe2fbbcd	-0.17161484
185	0xbe298638	-0.16555107
186	0x3eac4c09	0.3365176
187	0x3e99dd2f	0.30051562
188	0x3de07a8e	0.109608755
189	0x3cd2932f	0.025704948
190	0xbeaf42b7	-0.34230587
191	0xbd172836	-0.036903583
192	0x3ec45139	0.38343218
193	0x3dc619f0	0.09672916
194	0x3cdff516	0.027338546
195	0xbd1eb0b8	-0.03874275
196	0xbdfffb18	-0.12499064
197	0x3e798dbd	0.24370475
198	0xba032720	-0.00050030835
199	0x3e82b16c	0.25525987
200	0xbe2bf498	-0.16792524
201	0x3e1bf6a7	0.15230809
202	0x3e495d5e	0.19664523
203	0x3df59baf	0.11992585
204	0x3e7a833b	0.24464123
205	0x3e7880c6	0.24267873
206	0x3eb6c394	0.3569609
207	0x3eb6c46b	0.3569673
208	0xbd8d4dc6	-0.068996
209	0xbeb553a1	-0.35415366
210	0x3da1eab4	0.07906094
211	0xbbbf2b4b	-0.0058340183
212	0xbe0a644c	-0.13514823
213	0xbdb0e23d	-0.086369015
214	0x3d0a5cc1	0.033779863
215	0x3ea6f349	0.32607487
216	0x3e15ee56	0.14641699
217	0xbe02df27	-0.12780438
218	0xbe370f63	-0.17876963
219	0xbddabb54	-0.10680261
220	0xbde8b139	-0.113619275
221	0x3ecb37ca	0.39691
222	0x3e3c0262	0.18360284
223	0x3eb2ad92	0.3489805
224	0xbb0e7a5d	-0.0021740415
225	0x3eb29d4e	0.3488564
226	0x3e70496d	0.2346551
227	0xbf08a252	-0.5337268
228	0xbd309706	-0.043112777
229	0xbda8b961	-0.08238483
230	0xbea49e70	-0.32152128
231	0xbeb8b39d	-0.36074534
232	0x3ecd724f	0.40126273
233	0x3e951aac	0.29121912
234	0x3e3f306f	0.1867082
235	0x3ed781c1	0.42091182
236	0xbe357b23	-0.17722754
237	0xbdf8395f	-0.12120318
238	0x3e430c63	0.19047694
239	0xbc062ebb	-0.008189852
240	0xbda06e4e	-0.07833539
241	0xbeb143ae	-0.34621948
242	0x3dcad0ef	0.09903132
243	0xbe956a42	-0.2918263
244	0x3cbe082b	0.023197254
245	0x3ec1f49e	0.3788194
246	0xbda4e3c8	-0.08051258
247	0xbdbf6797	-0.0934593
248	0x3e062e66	0.13103637
249	0xbeb30b35	-0.34969488
250	0xbea2fa5c	-0.31831634
251	0x3f00d1cb	0.5032012
252	0xbe6eae79	-0.23308744
253	0xbeb5a1b0	-0.3547492
254	0xbe932f3b	-0.2874697
255	0xbe0646eb	-0.1311299

fc1.bias f4 [64]
0	0x3ec9e28a	0.39430648
1	0xbe30f315	-0.17280228
2	0x3e601ec3	0.21886735
3	0xbeb8e83b	-0.36114678
4	0x3e8ae256	0.27125806
5	0x3e9c2ccc	0.30502927
6	0x3e96f29f	0.2948198
7	0x3e9ba335	0.30397955
8	0x3e8d2fe1	0.2757559
9	0xbd209a85	-0.03920986
10	0x3e45bf0e	0.19311163
11	0xbd859b7b	-0.06523796
12	0x3e34590e	0.17612097
13	0xbe4f1210	-0.20221734
14	0x3a9793ec	0.001156447
15	0xbef5bade	-0.4799413
16	0xbdda96ea	-0.10673316
17	0xbe729bfc	-0.23692316
18	0xbe485dfb	-0.195671
19	0xbe857733	-0.26067504
20	0xbeba1553	-0.36344394
21	0x3d901670	0.070355296
22	0x3e8bd249	0.27308872
23	0x3eb218ae	0.34784454
24	0x3e8092b6	0.25111932
25	0xbe58a95a	-0.21158352
26	0xbeceb2cd	-0.4037079
27	0x3e22090d	0.15823765
28	0x3e8182d3	0.25295123
29	0xbea72327	-0.32644007
30	0x3e27c5f3	0.16384105
31	0x3eb24987	0.34821722
32	0x3cd2f5b3	0.025751924
33	0xbe682d4a	-0.22673526
34	0x3ead3967	0.33832857
35	0x3e371498	0.1787895
36	0x3e938545	0.28812614
37	0xbe8a8429	-0.27053955
38	0x3e408095	0.1879905
39	0xbe7e40f9	-0.24829473
40	0x3ec4eb49	0.38460758
41	0xbe2bb6df	-0.16768979
42	0x3e6da7be	0.2320852
43	0x3d8f7bed	0.07006059
44	0x3e502f9b	0.2033066
45	0xbd1ac8b0	-0.037789047
46	0x3e173f17	0.1477016
47	0xbd1727e2	-0.03690327
48	0xbec4fe50	-0.38475275
49	0xbe31cbba	-0.17362872
50	0x3eab5925	0.3346645
51	0xbddc1720	-0.10746598
52	0x3e06e752	0.13174179
53	0xbe1a8c8c	-0.15092677
54	0x3ea13745	0.3148748
55	0x3e5bcbea	0.21464506
56	0x3e3bfbef	0.18357824
57	0xbdefaf4b	-0.11703356
58	0xbeaac90a	-0.33356506
59	0x3d99043f	0.07471513
60	0xbe1077d1	-0.14108206
61	0x3eb4f8c4	0.35346043
62	0xbec8d6b5	-0.39226308
63	0x3e555427	0.20832883

fc2.weight f4 [32, 64]
0	0x3e0793ff	0.1324005
1	0xbe8e6480	-0.2781105
2	0x3d456ecd	0.04820137
3	0xbf0ac79e	-0.5421084
4	0x3e47fe1e	0.19530532
5	0xbc790e7c	-0.015201207
6	0xbdc92b71	-0.09822739
7	0x3e022160	0.12708044
8	0xbc664554	-0.014054615
9	0xbcd2acd9	-0.025717186
10	0x3df99b60	0.121878386
11	0xbe953a00	-0.29145813
12	0xbda5af18	-0.08090037
13	0xbe8d302f	-0.27575824
14	0xbc2594fe	-0.010106323
15	0xbe1595f1	-0.1460798
16	0xbdd6ae5c	-0.10482475
17	0xbc88b49e	-0.016687687
18	0xbdcb250a	-0.09919174
19	0xbd7bad20	-0.0614444
20	0xbe1ec829	-0.15506043
21	0x3d864f6f	0.065581195
22	0x3d017fee	0.031616144
23	0xbdc617f7	-0.0967254
24	0x3e038f8a	0.12847725
25	0x3d1a6a88	0.037699252
26	0x3cbe00c4	0.023193724
27	0xbd902633	-0.07038536
28	0xb9fad2f3	-0.00047840885
29	0x3e00c148	0.12573731
30	0x3dd5717c	0.10422036
31	0xbdc59746	-0.09647994
32	0x3deccab7	0.11562102
33	0x3cf06ef6	0.029349785
34	0x3d703c6c	0.058651373
35	0x3de95223	0.113926195
36	0x3dfe95ec	0.12430939
37	0xbc24ce7e	-0.010058997
38	0x3e0e7c6b	0.13914649
39	0xbd8b93a7	-0.06815272
40	0x3cd23e8d	0.025664592
41	0x3dd97cda	0.10619517
42	0xbc19fe07	-0.009398944
43	0xbe0303bd	-0.12794395
44	0x3eaae346	0.3337652
45	0x3cf92401	0.030412676
46	0x3d335d90	0.0437904
47	0xbd64a93a	-0.05582545
48	0x3d94b9a8	0.072619736
49	0x3db5d88c	0.08879194
50	0x3d820feb	0.06350692
51	0x3dc629b4	0.09675923
52	0x3d008e10	0.03138548
53	0x3c22d3cc	0.009938192
54	0x3ca4ef88	0.020133749
55	0xbd36a561	-0.04459131
56	0xbb9384c3	-0.0045019104
57	0x3e6839b6	0.22678265
58	0xbd484aec	-0.048899576
59	0xbdc74b1a	-0.09731121
60	0x3eb013ec	0.343902
61	0x3ce6e0fa	0.028183449
62	0x3da68b3a	0.08132024
63	0x3c8ef2fc	0.017449848
64	0x3e04d78c	0.1297285
65	0xbec8aa17	-0.39192268
66	0xbd813bf0	-0.0631026
67	0xbf16007b	-0.58594483
68	0xbe307f33	-0.17236023
69	0xbcd25a8f	-0.025677947
70	0x3c80c239	0.015717613
71	0x3cee5df2	0.029097531
72	0x3cb9d6a7	0.022685362
73	0x3cfe9f9e	0.03108197
74	0xbd661f74	-0.05618234
75	0xbe2f1d8d	-0.17101116
76	0x3deb0e73	0.11477365
77	0xbe9dd735	-0.30828252
78	0xbda9bdb4	-0.08288136
79	0xbd997bf1	-0.07494343
80	0xbbec9058	-0.0072193556
81	0x3d9a213a	0.07525869
82	0xbcc1c9d5	-0.023655811
83	0x3deb2ac8	0.11482769
84	0xbdcf33c9	-0.10117299
85	0xbe1bd4fb	-0.15217964
86	0x3e0f00c9	0.13965143
87	0xbdb6e0b8	-0.089295805
88	0x3e0bd805	0.13656624
89	0x3dbfe516	0.093698665
90	0x3ab368fc	0.0013687904
91	0x3d4190eb	0.047257345
92	0xbdf247fc	-0.11830136
93	0xbdabe058	-0.083923995
94	0x3cb73571	0.02236435
95	0x3da86070	0.08221519
96	0xbc1cc2b4	-0.009567905
97	0xbc1f489e	-0.009721903
98	0xbdf06923	-0.11738803
99	0x3e2ae7f4	0.16690046
100	0x3e3be4c7	0.1834899
101	0xbd25a4e4	-0.040440455
102	0xbcaa691d	-0.020802075
103	0x3daf25c2	0.085521236
104	0x3d8dc457	0.069222145
105	0x3ea9be38	0.33152938
106	0x3d6b7d18	0.057492346
107	0x3e30da17	0.17270695
108	0xbe9e79a9	-0.30952194
109	0xbce6f68b	-0.028193733
110	0x3db214ce	0.086953744
111	0xbe6abf00	-0.22924423
112	0x3dce67bc	0.100783795
113	0x3cc8b452	0.024500046
114	0xbd328066	-0.04357948
115	0x3cbf52ec	0.02335497
116	0xbc04204e	-0.008064343
117	0x3dae8178	0.08520788
118	0xbc94b970	-0.01815483
119	0xbc474c22	-0.012164148
120	0xbd0506f9	-0.032477353
121	0x3e3945fd	0.18093105
122	0x3c46faa8	0.012144722
123	0xbe52a047	-0.20568953
124	0xbd287272	-0.04112477
125	0x3c942698	0.01808481
126	0xbc4420e8	-0.011970736
127	0x3d4d679e	0.050147645
128	0x3dbb823a	0.09155698
129	0xbe4e0c2d	-0.20121832
130	0x3d855bdc	0.065116614
131	0x3f01f638	0.50766325
132	0xbe5c4c18	-0.21513402
133	0xbb55d48a	-0.0032627904
134	0x3d8caa6b	0.06868442
135	0xbdc37fcf	-0.09545862
136	0xbdcef541	-0.10105372
137	0x3e0eac66	0.13932952
138	0x3dbc96fa	0.09208484
139	0x3dffee46	0.12496619
140	0x3d16e7d5	0.036842186
141	0x3eabf7e3	0.3358756
142	0xbe04f047	-0.12982284
143	0x3e6371c4	0.22211367
144	0x3d256910	0.0403834
145	0xbc8ce687	-0.017199768
146	0x3db61995	0.08891598
147	0xbddae0dc	-0.1068742
148	0x3e0a06e5	0.13479193
149	0xbda6131a	-0.08109112
150	0x3d26602c	0.04061906
151	0x3c45b87d	0.012067911
152	0xbd0ce7bd	-0.03440069
153	0xbdb936ea	-0.09043677
154	0xbcffd7c8	-0.031230822
155	0xbcfece51	-0.031104239
156	0xbd72401a	-0.059143163
157	0xbdca1cc3	-0.09868767
158	0x3d221012	0.039566107
159	0x3d8d4096	0.068970844
160	0xbe0380fc	-0.12842172
161	0xbca672de	-0.020318445
162	0x3d3b91a2	0.045793183
163	0x3d9910e9	0.074739285
164	0x3cb37fe5	0.02191157
165	0x3d038b54	0.032115296
166	0xbdb9b1ae	-0.09067093
167	0x3db52c01	0.08846284
168	0x3d8045d8	0.06263322
169	0xbedf6095	-0.43628374
170	0xbdf4cc06	-0.11952977
171	0x3e2ad6a3	0.1668344
172	0xbedc7fe6	-0.4306633
173	0xbe19d8ab	-0.15024059
174	0xbbce4e24	-0.006295936
175	0x3daa2fd2	0.08309902
176	0x3d0193d0	0.031635106
177	0xbe0188b0	-0.12649798
178	0x3d5e2edc	0.054243907
179	0x3daa3a8a	0.08311947
180	0xbe3c6881	-0.1839924
181	0x3a9eb47c	0.0012108232
182	0xbcb0c484	-0.021578081
183	0xbd9ec05b	-0.07751533
184	0x3c558b26	0.013033664
185	0xbcb04a00	-0.021519661
186	0xbce8a5d8	-0.028399393
187	0x3e0933fa	0.13398734
188	0xbf067e38	-0.52536345
189	0xbd98edb5	-0.07467214
190	0x3c0bd06c	0.008533578
191	0xbe53a2cc	-0.20667571
192	0x3ca803a1	0.020509543
193	0xbedaf67b	-0.42766175
194	0x3c93a8b7	0.018024785
195	0xbed9407e	-0.42432016
196	0x3dc67491	0.09690202
197	0xbdcd8efd	-0.100370385
198	0xbdcc5135	-0.099764265
199	0x3d78c372	0.060733266
200	0x3e15b3a7	0.14619313
201	0xbe039158	-0.12848413
202	0x3d5b01e4	0.0534686
203	0xbe9b647c	-0.303501
204	0x3c42426d	0.011856657
205	0xbe46f1b5	-0.19428141
206	0x3dcfbc9a	0.10143395
207	0xbe90b547	-0.28263304
208	0x3d9e5736	0.07731478
209	0x3d37c9dd	0.044870246
210	0xbd490b49	-0.049083028
211	0x3df7f772	0.12107743
212	0xbdccaf7e	-0.0999441
213	0xbd03fd69	-0.032224093
214	0xbd677d2d	-0.05651586
215	0x3cd77943	0.02630294
216	0x3d7aaf57	0.061202373
217	0x3c232bdc	0.009959187
218	0xbd900578	-0.07032293
219	0xbd675c20	-0.05648434
220	0x3ca4ad6e	0.020102229
221	0xbdd302f3	-0.10303297
222	0xbafb5c07	-0.0019177207
223	0xbb392947	-0.0028253363
224	0xbd498739	-0.049201224
225	0x3d86831a	0.065679744
226	0x3baa1c43	0.0051913573
227	0x3dd65f12	0.10467352
228	0x3bd87838	0.006606128
229	0x3c67c69f	0.014146476
230	0x3df4cde6	0.119533345
231	0x3d129bb1	0.03579301
232	0xbca24c7a	-0.019811857
233	0x3e0562fc	0.13026041
234	0x3d40d080	0.04707384
235	0xbe7cac39	-0.24675073
236	0x3ec691a3	0.38782987
237	0x3de9474b	0.11390551
238	0xbd968bd4	-0.07350889
239	0xbe8b5022	-0.27209574
240	0xbdb80802	-0.08985902
241	0x3e003151	0.12518813
242	0x3df49f61	0.119444616
243	0x3c00315c	0.007824268
244	0x3e1e6c45	0.15470989
245	0xbd2b2660	-0.041784644
246	0xbe06e55c	-0.13173431
247	0x3de9922b	0.114048325
248	0x3e184740	0.1487093
249	0x3eaff453	0.34366092
250	0xb817bc7c	-3.6176745e-05
251	0xbc802491	-0.015642436
252	0x3ee78ec8	0.4522612
253	0x3dc8a27c	0.097966164
254	0xbdfe0272	-0.1240281
255	0x3e29f097	0.16595684

fc2.bias f4 [32]
0	0xbcea8e57	-0.028632326
1	0x3d535a2c	0.051599666
2	0xbe003252	-0.12519196
3	0x3d80adc9	0.06283147
4	0xbbc203f8	-0.0059208833
5	0xbd9b0bf4	-0.07570639
6	0xbe133229	-0.14374603
7	0x3d62eab1	0.0553996
8	0xbd1b0d5a	-0.03785453
9	0x3dd63473	0.10459223
10	0x3cb645e4	0.022250123
11	0x3b6f5152	0.0036516977
12	0xbd0fbd69	-0.035092745
13	0xbc8dd5b4	-0.017313816
14	0xbcd64656	-0.026156586
15	0xbdc94c30	-0.09828985
16	0x3d837fff	0.06420898
17	0xbda13330	-0.07871091
18	0x3d85e5d0	0.06537974
19	0xbd2cacc8	-0.042156965
20	0x3db8c75e	0.09022401
21	0x3db62d6e	0.08895384
22	0xbd86f54b	-0.06589755
23	0x3de5bd9c	0.11217806
24	0xbc325501	-0.010884524
25	0xbdddd380	-0.10831356
26	0x3d806740	0.062696934
27	0x3d6650a2	0.05622924
28	0x3dfadbc9	0.12248952
29	0xbdf3aa04	-0.11897662
30	0x3e052622	0.13002828
31	0x3da26dff	0.07931136

fc3.weight f4 [1, 32]
0	0x3e5e6057	0.21716438
1	0x3e8387d4	0.25689566
2	0xbe1c0a5b	-0.15238325
3	0x3e544b22	0.20731786
4	0x3e256c43	0.1615458
5	0xbd586480	-0.05283022
6	0xbe04a842	-0.1295481
7	0x3e036cc2	0.12834457
8	0x3e77d73a	0.24203196
9	0x3e1af4d2	0.15132454
10	0x3e0aabc8	0.13542092
11	0xbe4c3850	-0.19943357
12	0xbc8b5048	-0.017006055
13	0xbd909fb9	-0.07061715
14	0x3ea35eba	0.31908208
15	0x3e3d23f0	0.1847074
16	0xbdfa32cf	-0.12216722
17	0xbcb5e432	-0.022203539
18	0xbe0af992	-0.13571766
19	0xbe2a58bb	-0.1663541
20	0x3e5d8442	0.21632484
21	0xbd9396f4	-0.072065264
22	0x3e0cd1d1	0.13751914
23	0xbe35c7a6	-0.17751941
24	0xbcbd787d	-0.023128742
25	0x3d86ee7c	0.06588456
26	0x3e48d3ce	0.19612047
27	0xbc41a0d3	-0.011818129
28	0x3e3f8bd4	0.18705684
29	0x3dd3cddf	0.10342001
30	0x3e6ca784	0.23110777
31	0xbe15f215	-0.14643128
