results/AlsomitraProperty2/alsomitra/LK.onnx (onnx, 10944 bytes, 5 tensors)

fc1.weight f4 [64, 6]
0	0xbdb838de	-0.089952216
1	0x3e7548fa	0.2395362
2	0xbcd8e912	-0.026478324
3	0xbe65e8a4	-0.22452027
4	0x3dcebb60	0.10094333
5	0xbdd1e81f	-0.10249352
6	0x3edd387e	0.43207163
7	0xbe9288b9	-0.28619936
8	0xbdff5a4d	-0.124683954
9	0xbe524f6c	-0.2053811
10	0xbedb8fcd	-0.4288315
11	0x3e89685c	0.26837432
12	0x3ec4a837	0.38409588
13	0x3d14681e	0.036232106
14	0x3eb64c20	0.35604954
15	0x3dfc4b4f	0.123190515
16	0x3e8612ef	0.2618632
17	0x3e99a09a	0.30005342
18	0x3eb885cc	0.3603958
19	0xbe49e752	-0.19717148
20	0x3f101cc3	0.56293887
21	0xbd76f7bc	-0.06029485
22	0xbeb4cddd	-0.3531331
23	0xbe385f03	-0.18004994
24	0xbe32f132	-0.17474821
25	0x3e71de6c	0.23620003
26	0xbe317f58	-0.17333734
27	0x3e635451	0.22200133
28	0x3e8dc5b7	0.27689907
29	0xbeacbd9d	-0.33738413
30	0x3dc151ba	0.09439416
31	0xbd7b316a	-0.06132642
32	0x3e0fa181	0.14026453
33	0x3e8f66b6	0.2800805
34	0xbec05edb	-0.3757237
35	0x3ec6ad68	0.38804173
36	0x3eb0015e	0.34376043
37	0x3e1eb37a	0.15498152
38	0xbec1dd95	-0.37864366
39	0xbe30dad7	-0.17270981
40	0xbe0c343d	-0.13691802
41	0xbdf5fe6f	-0.1201142
42	0x3e6c5e02	0.23082736
43	0x3e12b68e	0.14327452
44	0x3e9a75d6	0.30168027
45	0xbe0e4a17	-0.1389545
46	0x3e29f5d8	0.16597688
47	0x3e2ad865	0.1668411
48	0xbc00d840	-0.007864058
49	0xbf13a9b1	-0.57680804
50	0x3d0b2294	0.033968523
51	0x3eacf34d	0.33779374
52	0xbebdcc6c	-0.37070024
53	0xbea3e00d	-0.32006875
54	0x3e5cad8c	0.21550578
55	0x3e53faa2	0.20701078
56	0x3eb17c8b	0.3466533
57	0xbe96e783	-0.29473504
58	0xbeb692e4	-0.35658944
59	0x3e43dfee	0.19128391
60	0x3eb0cb14	0.34529936
61	0x3e5d04bd	0.21583839
62	0x3d0651ea	0.032792963
63	0x3e2bcd06	0.16777429
64	0x3ecf5443	0.40493974
65	0xbe803b81	-0.25045398
66	0xbd2d9b8e	-0.042384677
67	0x3e95a000	0.29223633
68	0xbed81e7f	-0.42210767
69	0xbe34c7c7	-0.17654334
70	0x3ec626c6	0.38701457
71	0x3e03a658	0.12856424
72	0x3de18797	0.1101219
73	0xbe3aa65c	-0.18227524
74	0xbcbc6f13	-0.023002183
75	0x3ecff681	0.40617755
76	0xbe964693	-0.2935072
77	0xbb057990	-0.0020366646
78	0x3e7a718b	0.24457376
79	0xbe9b8c66	-0.30380553
80	0x3f0f8335	0.5605958
81	0xbed40ac7	-0.41414472
82	0xbe03f61b	-0.1288685
83	0xbe05a331	-0.13050534
84	0xbe8832b3	-0.2660118
85	0xbecd145c	-0.40054595
86	0x3e6bb047	0.23016463
87	0x3dee3028	0.11630279
88	0xbec3be68	-0.38231206
89	0xbe82663a	-0.25468618
90	0x3ecd73e0	0.40127468
91	0x3e0beb0e	0.13663885
92	0x3e8c8ad1	0.2744966
93	0xbeced963	-0.40400228
94	0xbe1c6516	-0.15272936
95	0xbe3e4ea5	-0.18584688
96	0xbd98e40c	-0.074653715
97	0xbe8f3812	-0.27972466
98	0x3d09bfc8	0.033630162
99	0x3d262e70	0.04057163
100	0xbd53b4d0	-0.051686108
101	0x3d67ca64	0.0565895
102	0xbe25adde	-0.16179606
103	0x3d9a1401	0.07523347
104	0x3e0156fa	0.12630835
105	0xbe7bea1e	-0.24601027
106	0xbecf3c49	-0.4047568
107	0x3e3b74f7	0.18306337
108	0x3e132be9	0.14372219
109	0xbe421db9	-0.18956651
110	0x3ec80a90	0.3907056
111	0xbe685316	-0.22687945
112	0x3e8874e2	0.26651675
113	0x3e796b79	0.24357404
114	0xbeaf3ba3	-0.34225187
115	0x3e86cb3f	0.2632694
116	0xbec029e5	-0.37531963
117	0xbe679389	-0.22614874
118	0xbd8b6017	-0.06805437
119	0xbe8ce0a9	-0.27515152
120	0x3ec946a2	0.393117
121	0xbdb3bd4d	-0.08776341
122	0x3e0460d6	0.12927565
123	0xbea9ba17	-0.33149788
124	0x3e901a02	0.28144842
125	0xbe98bb32	-0.2983032
126	0xbedd78ad	-0.4325613
127	0x3ea445d1	0.32084516
128	0x3e62fef4	0.2216757
129	0x3eb3a903	0.35089883
130	0xbe50ed04	-0.20402914
131	0xbe675f72	-0.22595003
132	0x3d83c540	0.06434107
133	0x3dc1f81a	0.0947115
134	0x3de9f506	0.11423688
135	0x3e83f0af	0.25769565
136	0xbd93936c	-0.07205853
137	0x3e807187	0.25086614
138	0x3e837eff	0.25682828
139	0xbe24cae9	-0.16093029
140	0x3e6dd6ee	0.2322652
141	0x3e416819	0.18887366
142	0x3eb05b58	0.3444469
143	0xbe80ae17	-0.2513282
144	0xbe38a6be	-0.18032357
145	0xbe0c9e01	-0.13732149
146	0xbd8d3675	-0.068951525
147	0x3e54c539	0.2077836
148	0xbec46ec5	-0.3836576
149	0x3e8df86e	0.277286
150	0xbe15ce68	-0.14629519
151	0x3e7c84a6	0.24659976
152	0xbc9ec48b	-0.019380828
153	0xbeb71bd4	-0.3576342
154	0xbe660032	-0.22461012
155	0xbe974466	-0.2954437
156	0x3e4f4ecc	0.20244902
157	0xbe8c2577	-0.27372333
158	0xbd0b4f4d	-0.034011174
159	0x3db460cb	0.08807524
160	0xbe653a15	-0.22385438
161	0x3df12901	0.11775399
162	0xbea850be	-0.328741
163	0xbe6d1234	-0.23151475
164	0xbebcf87a	-0.36908323
165	0xbe104625	-0.14089258
166	0xbe28cba0	-0.16483927
167	0x3d2b3a1d	0.041803468
168	0xbd75edd7	-0.060041275
169	0x3e4185aa	0.18898645
170	0x3eb66a58	0.3562801
171	0x3e3b55a6	0.18294391
172	0xbdfc6aef	-0.123250835
173	0xbeb37d23	-0.3505641
174	0x3de35c07	0.11101537
175	0xbe615643	-0.22005562
176	0x3e40178a	0.1875898
177	0x3ea86651	0.3289056
178	0x3e106054	0.14099246
179	0x3ec9a151	0.39380887
180	0x3ebcf31c	0.36904228
181	0x3d3dac73	0.04630704
182	0xbeb2ff47	-0.34960386
183	0x3ed50540	0.41605568
184	0xbe2f5a86	-0.17124376
185	0xbe315755	-0.17318471
186	0x3eafa032	0.34301907
187	0x3e954b3e	0.29158968
188	0x3dc2d0e3	0.09512498
189	0x3cf6c479	0.030122982
190	0xbeafe197	-0.343518
191	0xbccd56ca	-0.025065798
192	0x3ec2490a	0.3794635
193	0x3db2f49d	0.087380625
194	0x3ccf80d4	0.025329985
195	0xbd73bebb	-0.059508067
196	0xbdfbbe2f	-0.12292134
197	0x3e7c86a0	0.2466073
198	0xbc8338bb	-0.016018262
199	0x3e846694	0.2585951
200	0xbe33c87c	-0.17556947
201	0x3e66fd29	0.2255751
202	0x3e5646a6	0.20925388
203	0x3df4f1e1	0.11960197
204	0x3e7be498	0.2459892
205	0x3e70cf5b	0.235166
206	0x3eb43813	0.3519903
207	0x3eaf5a4e	0.34248585
208	0xbda6f34a	-0.081518725
209	0xbeabd697	-0.33562157
210	0x3d955a5f	0.072926275
211	0xbcc0704f	-0.023491053
212	0xbe18dbd6	-0.14927611
213	0xbd37ba73	-0.044855546
214	0x3d1b9858	0.037987083
215	0x3ea3d071	0.31994966
216	0x3e187df2	0.14891794
217	0xbe0e58d2	-0.1390107
218	0xbe3a2c00	-0.18180847
219	0xbd82bf32	-0.06384124
220	0xbdc3042e	-0.095222816
221	0x3ec679a5	0.38764682
222	0x3e1eeeae	0.15520737
223	0x3ec00676	0.3750493
224	0x3d591d99	0.053006742
225	0x3ec2387a	0.37933713
226	0x3e94b53b	0.29044518
227	0xbf137934	-0.57606816
228	0xbd99c29c	-0.07507822
229	0xbdb1a713	-0.08674445
230	0xbeb6bf7a	-0.3569296
231	0xbe9e7b80	-0.30953598
232	0x3edc1b75	0.42989698
233	0x3ea30cae	0.3184561
234	0x3e3200b3	0.17383079
235	0x3edc3379	0.4300802
236	0xbe3da948	-0.18521607
237	0xbe07106e	-0.13189861
238	0x3e500331	0.20313717
239	0x3bd44d5e	0.0064789494
240	0xbd93df1c	-0.07220289
241	0xbeb15df3	-0.3464199
242	0x3db94c2e	0.09047733
243	0xbe8a2d70	-0.2698779
244	0x3cc402d5	0.023927132
245	0x3ec541a5	0.38526645
246	0xbd344d5c	-0.04401909
247	0xbdc9d2ba	-0.09854646
248	0x3de4109f	0.11135983
249	0xbe7e819c	-0.2485413
250	0xbeb687ed	-0.35650578
251	0x3eeec2ec	0.4663309
252	0xbe813d2e	-0.2524199
253	0xbec18034	-0.37793124
254	0xbe8a72ef	-0.27040812
255	0xbde4ccfe	-0.11171912

fc1.bias f4 [64]
0	0x3ed1e695	0.40996233
1	0xbe3e17e0	-0.18563795
2	0x3e641140	0.22272205
3	0xbebeffc8	-0.3730452
4	0x3e8a012e	0.26954025
5	0x3e9fb917	0.311959
6	0x3e9868fd	0.297676
7	0x3e9f1014	0.31066954
8	0x3e9053f4	0.2818905
9	0xbb542805	-0.0032372486
10	0x3e5099da	0.2037119
11	0xbdb274e7	-0.087137036
12	0x3e2f3a9d	0.17112203
13	0xbe526468	-0.20546114
14	0x3a831a5f	0.0010002366
15	0xbefb9d2c	-0.4914335
16	0xbdda96ea	-0.10673316
17	0xbe7b8f99	-0.24566497
18	0xbdd6a6c2	-0.10481025
19	0xbe857733	-0.26067504
20	0xbeb73c6b	-0.35788283
21	0x3c1162b5	0.008873631
22	0x3e90069e	0.2813005
23	0x3eb4a39f	0.35281083
24	0x3e875a2e	0.2643599
25	0xbe58a95a	-0.21158352
26	0xbeceb2cd	-0.4037079
27	0x3e0c80ed	0.13721056
28	0x3e827a00	0.25483704
29	0xbeb00f8a	-0.34386855
30	0x3e2c01c9	0.16797556
31	0x3eb87410	0.3602605
32	0x3d0bf27d	0.0341668
33	0xbe5c8755	-0.21536
34	0x3eb327b0	0.34991217
35	0x3e42980d	0.19003315
36	0x3e95ec95	0.2928206
37	0xbe8e46ce	-0.27788395
38	0x3e659812	0.22421291
39	0xbe803ff8	-0.25048804
40	0x3ec78886	0.38971347
41	0xbe32726c	-0.17426461
42	0x3e7dbf94	0.24780113
43	0x3d5d7f90	0.05407673
44	0x3e53ae02	0.20671847
45	0xbd1f7f0e	-0.03893953
46	0x3e29ba88	0.16575062
47	0xbda156b4	-0.078778654
48	0xbec4fe50	-0.38475275
49	0xbe209662	-0.15682366
50	0x3ead504f	0.33850333
51	0xbddc1720	-0.10746598
52	0x3ded7d30	0.11596143
53	0xbe1a8c8c	-0.15092677
54	0x3e95582f	0.2916884
55	0x3e5dc872	0.21658495
56	0x3e38f9d6	0.18064055
57	0xbd08b4d3	-0.033375572
58	0xbeaac90a	-0.33356506
59	0x3cbdba59	0.023160147
60	0xbe3cb401	-0.18428041
61	0x3eb5ad0f	0.35483596
62	0xbec8d6b5	-0.39226308
63	0x3e569c92	0.20958164

fc2.weight f4 [32, 64]
0	0x3e0d4ce8	0.13798869
1	0xbeb6f83d	-0.35736266
2	0x3d60404d	0.054748822
3	0xbee69d2f	-0.45041797
4	0x3e1e6b1f	0.15470551
5	0xbbcc7a0b	-0.0062401346
6	0xbdc7612c	-0.09735331
7	0x3e099774	0.13436681
8	0xbc8f530a	-0.01749565
9	0xbcaa6fac	-0.020805202
10	0x3e012c06	0.1261445
11	0xbe813c34	-0.25241244
12	0xbd8d8ff0	-0.069122195
13	0xbe4e39c6	-0.20139226
14	0xbc269ce6	-0.010169243
15	0xbe02d151	-0.1277516
16	0xbdd6ae5c	-0.10482475
17	0xbca1cb46	-0.019750249
18	0xbd987ae3	-0.07445314
19	0xbd7bad20	-0.0614444
20	0xbe10384a	-0.14083973
21	0x3cb0818b	0.021546146
22	0x3d1edddd	0.038785804
23	0xbdb7e1d0	-0.08978617
24	0x3dfe9cb3	0.12432232
25	0x3d1a6a88	0.037699252
26	0x3cbe00c4	0.023193724
27	0xbd66dd40	-0.056363344
28	0x3c601b0c	0.0136783235
29	0x3dd0b602	0.10190965
30	0x3de07127	0.10959082
31	0xbdb28e6a	-0.087185696
32	0x3dfba894	0.12288013
33	0x3ccf24a7	0.025286032
34	0x3d8c4a9c	0.06850168
35	0x3dec58ff	0.11540412
36	0x3e00e14a	0.12585941
37	0x3cf12aaa	0.02943929
38	0x3e0942e5	0.13404424
39	0xbd662abd	-0.056193102
40	0x3ce45681	0.02787328
41	0xbcaabb40	-0.02084124
42	0xbc236fc9	-0.009975382
43	0xbe25a5c9	-0.16176523
44	0x3e82577f	0.2545738
45	0x3c7f4ab2	0.015581774
46	0x3d0d35fa	0.034475304
47	0xbc391d29	-0.011298456
48	0x3d94b9a8	0.072619736
49	0x3daf49e2	0.08559014
50	0x3d8d0051	0.06884826
51	0x3dc629b4	0.09675923
52	0x3cc5b8f7	0.02413605
53	0x3c22d3cc	0.009938192
54	0x3d274e07	0.040845897
55	0xbd9d2175	-0.07672397
56	0xbc282bc2	-0.010264339
57	0x3e2bb920	0.16769838
58	0xbd484aec	-0.048899576
59	0x3d0452aa	0.032305397
60	0x3d527bc4	0.051387563
61	0x3d0f929e	0.035051934
62	0x3da68b3a	0.08132024
63	0xbc073f80	-0.008254886
64	0x3df74f1f	0.12075638
65	0xbeec68c3	-0.46173677
66	0xbd8b9105	-0.0681477
67	0xbf280656	-0.6563467
68	0xbdb669bf	-0.08906888
69	0xbd31e745	-0.043433446
70	0xbca4b954	-0.020107903
71	0x3c935d9a	0.017988969
72	0x3bbd9eb9	0.0057867435
73	0xbbee24f4	-0.0072675887
74	0xbcf3de85	-0.029769192
75	0xbe33b841	-0.17550756
76	0x3e08b723	0.13351111
77	0xbea36d9b	-0.3191956
78	0xbda9d81f	-0.08293175
79	0xbdcc2bbe	-0.09969281
80	0xbbec9058	-0.0072193556
81	0x3d93a770	0.072096705
82	0x3d91bff0	0.07116687
83	0x3deb2ac8	0.11482769
84	0xbe763c19	-0.24046363
85	0xbcbe053c	-0.023195855
86	0x3e050028	0.12988341
87	0xbd62a1c0	-0.055330038
88	0x3e0d7494	0.13814002
89	0x3dbfe516	0.093698665
90	0x3ab368fc	0.0013687904
91	0x3d9dcc89	0.077050276
92	0xbda18cd4	-0.07888189
93	0xbda13ae5	-0.07872561
94	0x3d3d05e0	0.04614818
95	0x3d80c2e2	0.06287171
96	0xbd0c666d	-0.03427737
97	0x3d695744	0.05696799
98	0xbdcd285b	-0.10017463
99	0x3e0f2451	0.13978697
100	0x3e1abcdb	0.15111105
101	0x3e4980fc	0.1967811
102	0xbd3a78be	-0.045525305
103	0x3e001258	0.12506998
104	0x3d38c82b	0.04511277
105	0x3df6ce3a	0.12051053
106	0x3d6e94be	0.05824732
107	0xbbbf5c65	-0.0058398717
108	0xbefce893	-0.4939619
109	0x3b8cf44e	0.0043015843
110	0x3d7b0a06	0.061288856
111	0xbe881ee6	-0.26586074
112	0x3dce67bc	0.100783795
113	0x3d06f492	0.032948084
114	0x3ab0d17b	0.0013490164
115	0x3cbf52ec	0.02335497
116	0xbc3b84a0	-0.0114451945
117	0x3dae8178	0.08520788
118	0x3cd186ca	0.025576968
119	0xbd9e3b9f	-0.077262156
120	0x3d040e25	0.03224005
121	0x3dc24522	0.09485842
122	0x3c46faa8	0.012144722
123	0xbcbd1582	-0.023081545
124	0xbea483ab	-0.32131705
125	0x3b2d756a	0.002646769
126	0xbc4420e8	-0.011970736
127	0x3ae3cec1	0.0017380343
128	0x3dbfed21	0.093714006
129	0x3ecf66e8	0.405082
130	0x3d827395	0.06369702
131	0x3eba4451	0.36380246
132	0xbe16e855	-0.14737065
133	0x3c4f7cd3	0.012664038
134	0x3db44d09	0.08803756
135	0xbdcc8718	-0.099867046
136	0xbdc772f8	-0.097387254
137	0x3de93248	0.113865435
138	0x3daec98e	0.08534537
139	0x3e179804	0.14804083
140	0x3d81d483	0.063393615
141	0x3e5918b2	0.21200827
142	0xbe04e454	-0.12977725
143	0x3e2a3912	0.16623333
144	0x3d256910	0.0403834
145	0xbc82c509	-0.015963094
146	0x3cd4b03e	0.025962945
147	0xbddae0dc	-0.1068742
148	0x3de03037	0.10946696
149	0x3d8f3374	0.06992236
150	0x3d51db36	0.051234446
151	0x3b8d65e4	0.004315125
152	0x3c8c8517	0.017153306
153	0xbdb936ea	-0.09043677
154	0xbcffd7c8	-0.031230822
155	0xbcee100b	-0.029060384
156	0xbda984da	-0.082772925
157	0xbd40fb6f	-0.047114786
158	0x3da2c58d	0.07947836
159	0x3d8fcea7	0.07021838
160	0xbe0053fd	-0.12532039
161	0x3b42958e	0.0029691192
162	0x3d171a72	0.036890455
163	0x3dcbcec2	0.09951545
164	0x3d5c3878	0.05376479
165	0xba420fc0	-0.00074028596
166	0xbd86d86b	-0.06584247
167	0x3d8fb3a4	0.070166856
168	0x3da5d6f7	0.08097642
169	0xbe53e2ca	-0.20691982
170	0xbdf094fc	-0.117471665
171	0x3e3df5ad	0.18550749
172	0xbe6d11c0	-0.23151302
173	0xbda365ae	-0.07978378
174	0xbb815c2c	-0.0039477553
175	0x3dd90d07	0.10598188
176	0x3d0193d0	0.031635106
177	0xbdddd72c	-0.108320564
178	0x3d61ac1f	0.055095788
179	0x3daa3a8a	0.08311947
180	0xbdceec10	-0.10103619
181	0x3a9eb47c	0.0012108232
182	0xbc7c06e8	-0.015382506
183	0x3be9a3ca	0.007130121
184	0x3d2cc1fc	0.042177185
185	0xbe219120	-0.15778017
186	0xbce8a5d8	-0.028399393
187	0x3d861c4c	0.06548366
188	0xbe0fb1b7	-0.14032637
189	0xbd649613	-0.055807184
190	0x3c0bd06c	0.008533578
191	0xbe0434e2	-0.12910798
192	0x3cd84a10	0.026402503
193	0xbf01c60b	-0.50692815
194	0x3cc9b9ff	0.024624823
195	0xbea64e9e	-0.32481855
196	0x3d57d7d4	0.052696064
197	0xbdb9aa33	-0.09065666
198	0xbdcb2101	-0.09918404
199	0x3d8b4fe0	0.06802344
200	0x3e11de7a	0.14245024
201	0xbdfe153e	-0.124063954
202	0x3d6c2187	0.05764916
203	0xbe85ed82	-0.26157767
204	0x3cdc21eb	0.026871642
205	0xbde2f177	-0.11081212
206	0x3dcf9e01	0.10137559
207	0xbe830e1b	-0.255967
208	0x3d9e5736	0.07731478
209	0x3d2af3e2	0.04173649
210	0xbca38421	-0.019960465
211	0x3df7f772	0.12107743
212	0xbda59f5a	-0.080870345
213	0xbda67947	-0.081286006
214	0xbd48547d	-0.0489087
215	0x3d09e729	0.033667717
216	0x3d6ef2a0	0.058336854
217	0x3c232bdc	0.009959187
218	0xbd900578	-0.07032293
219	0xbd20df48	-0.039275438
220	0x3d114514	0.03546627
221	0xbe051067	-0.12994538
222	0x3b915da7	0.004436213
223	0x3bde8675	0.006790931
224	0xbd2cc8b6	-0.0421836
225	0x3d79cbf3	0.060985517
226	0x3c801673	0.015635705
227	0x3dd90481	0.10596562
228	0x3c05d99b	0.008169557
229	0x3d5ec149	0.05438355
230	0x3de8672d	0.11347804
231	0x3d437080	0.04771471
232	0xbc8e52f5	-0.017373541
233	0xbc3207ae	-0.010866089
234	0x3d3f761d	0.0467435
235	0xbe8f500c	-0.27990758
236	0x3e9dbf38	0.3080995
237	0x3dc91fec	0.09820542
238	0xbdac7fda	-0.08422823
239	0xbe6765a7	-0.22597371
240	0xbdb80802	-0.08985902
241	0x3df79d0f	0.120905034
242	0x3dfffd33	0.12499466
243	0x3c00315c	0.007824268
244	0x3e17934c	0.14802283
245	0xbd2b2660	-0.041784644
246	0xbdda3601	-0.10654832
247	0x3d9e5e40	0.077328205
248	0x3e0fe1ce	0.14050981
249	0x3e8d3e5c	0.2758664
250	0xb817bc7c	-3.6176745e-05
251	0x3e074473	0.13209705
252	0x3e214735	0.1574982
253	0x3dd84411	0.10559858
254	0xbdfe0272	-0.1240281
255	0x3e0c9d58	0.13731897

fc2.bias f4 [32]
0	0xbcc171ac	-0.023613773
1	0x3d491b26	0.049098156
2	0xbde947f9	-0.11390681
3	0x3d8c3adc	0.06847164
4	0xbbc203f8	-0.0059208833
5	0xbd95ce71	-0.07314766
6	0xbe03f04c	-0.12884635
7	0x3d50fdc5	0.051023263
8	0xbceb14c0	-0.028696418
9	0x3de09d86	0.10967545
10	0x3c40e4d9	0.0117733115
11	0x3c6339fa	0.013868803
12	0xbd0f97ea	-0.035056986
13	0xbced5f4c	-0.028976105
14	0xbcd931eb	-0.02651306
15	0xbdc8c801	-0.09803773
16	0x3d849e65	0.06475524
17	0xbda13330	-0.07871091
18	0x3d85e5d3	0.06537976
19	0xbd2cacc8	-0.042156965
20	0x3dc3dbf3	0.09563436
21	0x3dbace8a	0.091214254
22	0xbd72b759	-0.059256885
23	0x3dd31863	0.10307386
24	0xbc23a95e	-0.009989111
25	0xbde2efe2	-0.1108091
26	0x3d8ba088	0.06817728
27	0x3d69970e	0.057028823
28	0x3e02b6da	0.12765065
29	0xbdf3aa04	-0.11897662
30	0x3e05f9a1	0.13083507
31	0x3da4a113	0.08038535

fc3.weight f4 [1, 32]
0	0x3e4d4d30	0.20048976
1	0x3e3965e9	0.18105282
2	0xbdbcd521	-0.092203386
3	0x3e3768fd	0.17911144
4	0x3e256c43	0.1615458
5	0xbd5e6821	-0.054298524
6	0xbd85645e	-0.06513284
7	0x3dfeda3a	0.12443967
8	0x3e5d1bfa	0.21592703
9	0x3e13047b	0.14357178
10	0x3f18ebcb	0.5973479
11	0xbddc9721	-0.10771013
12	0xbc8b3646	-0.016993653
13	0xbd76bfac	-0.060241386
14	0x3e9eea37	0.31038067
15	0x3e20cfa0	0.15704203
16	0xbdfb511b	-0.12271329
17	0xbcb5e432	-0.022203539
18	0xbe0aee31	-0.13567425
19	0xbe2a58bb	-0.1663541
20	0x3e4ca9dc	0.19986671
21	0xbd97e582	-0.07416822
22	0x3debe40b	0.11518105
23	0xbf0eb702	-0.55748
24	0xbcc3d837	-0.02390681
25	0x3d3ae51e	0.04562866
26	0x3e39e358	0.18153131
27	0xbc51bb48	-0.012800999
28	0x3e3255c0	0.17415524
29	0x3dd3cddf	0.10342001
30	0x3e257a3e	0.16159913
31	0xbe16ce48	-0.14727128
