results/AlsomitraProperty2/alsomitra/RC.onnx (onnx, 10944 bytes, 5 tensors)

fc1.weight f4 [64, 6]
00000000: 6638 b8bd 2f49 753e 41e7 d8bc 9ee8 65be
00000010: d0bb ce3d fce7 d1bd 7b38 dd3e b188 92be
00000020: 4c5a ffbd 604f 52be c88f dbbe 6168 893e
00000030: 1ca8 c43e 3367 143d 024c b63e e84a fc3d
00000040: bc12 863e 92a0 993e f685 b83e ede6 49be
00000050: e01c 103f e6f5 76bd 7bcd b4be bd5e 38be
00000060: 03f2 32be a7dd 713e 4b80 31be 1854 633e
00000070: 58c5 8d3e b2bd acbe c250 c13d 9333 7bbd
00000080: f4a0 0f3e 9f66 8f3e 215f c0be 4fad c63e
00000090: 9601 b03e e3b3 1e3e 58dd c1be cada 30be
000000a0: e733 0cbe 5bfe f5bd cb5d 6c3e 55b6 123e
000000b0: ba75 9a3e 344a 0ebe 87f5 293e 5cd8 2a3e
000000c0: 41d7 00bc aea9 13bf ce22 0b3d 4ef3 ac3e
000000d0: 6bcc bdbe 0be0 a3be 2aae 5c3e 55fb 533e
000000e0: e87c b13e 54e7 96be 7792 b6be 1ee0 433e
000000f0: ebca b03e 6a04 5d3e 9850 063d f4cc 2b3e
00000100: 1554 cf3e 883b 80be a998 2dbd 61a0 953e
00000110: 101e d8be 21c7 34be 3427 c63e 94a6 033e
00000120: 0287 e13d 9ca6 3abe 9271 bcbc 83f6 cf3e
00000130: a146 96be 2084 05bb c671 7a3e 478c 9bbe
00000140: 4983 0f3f a30a d4be e1f5 03be e0a2 05be
00000150: b332 88be 5c14 cdbe 47b0 6b3e 2830 ee3d
00000160: bfbc c3be 3a66 82be 5474 cd3e 0eec 0b3e
00000170: 488b 8c3e bad8 cebe e262 1cbe 334e 3ebe
00000180: 0ce4 98bd 1238 8fbe c8bf 093d 702e 263d
00000190: d0b4 53bd 64ca 673d dead 25be 0114 9a3d
000001a0: fa56 013e 1eea 7bbe 493c cfbe f674 3b3e
000001b0: 952c 133e f51c 42be f20a c83e 7352 68be
000001c0: 5975 883e da6b 793e a33b afbe 3fcb 863e
000001d0: e529 c0be 8993 67be 1760 8bbd a9e0 8cbe
000001e0: f446 c93e fbbb b3bd 8761 043e c9b9 a9be
000001f0: 551a 903e f2ba 98be c178 ddbe bf45 a43e
00000200: c4fe 623e 0aa9 b33e 5fed 50be 5e5f 67be
00000210: 28c4 833d e6f6 c13d cef3 e93d 8ef0 833e
00000220: c494 93bd 7571 803e 9b7e 833e c7cb 24be
00000230: 0dd6 6d3e f967 413e da5a b03e 1fae 80be
00000240: 8ea6 38be dc9d 0cbe 0836 8dbd 41c5 543e
00000250: c26e c4be 7af8 8d3e 68ce 15be a684 7c3e
00000260: 8bc4 9ebc d41b b7be 3200 66be 6644 97be
00000270: cc4e 4f3e 7725 8cbe 4d4f 0bbd cb60 b43d
00000280: 153a 65be 0129 f13d bd50 a8be 3012 6dbe
00000290: 7af8 bcbe 2546 10be a1cb 28be 1e3a 2b3d
000002a0: 31ee 75bd 9085 413e 4a6a b63e 9e55 3b3e
000002b0: 1a6b fcbd 237d b3be 695c e33d 0d56 61be
000002c0: c117 403e 6566 a83e 8760 103e 5ba1 c93e
000002d0: c7f2 bc3e 89a9 3d3d a0ff b2be 2705 d53e
000002e0: 5a5b 2fbe 7c57 31be 8ea0 af3e 994b 953e
000002f0: 6bd2 c23d 4ac5 f63c 3de1 afbe d455 cdbc
00000300: ee48 c23e 19f4 b23d c57e cf3c 4fbf 73bd
00000310: ddbe fbbd 9786 7c3e 6580 81bc 8e7c 843e
00000320: c1bb 33be 9e30 673e fd48 563e 8fe1 f43d
00000330: c1e4 7b3e 83cf 703e 2838 b43e 555a af3e
00000340: f0f2 a6bd 97d6 abbe 7559 953d 4674 c0bc
00000350: 59dc 18be 55bb 37bd 9495 1b3d 65d0 a33e
00000360: 6e7d 183e 6159 0ebe 912c 3abe 9cbf 82bd
00000370: 9805 c3bd 9679 c63e 97ed 1e3e e205 c03e
00000380: 0a19 593d 0338 c23e bab4 943e 8679 13bf
00000390: 92c4 99bd 2ca9 b1bd 06c0 b6be e17b 9ebe
000003a0: e41a dc3e 7f0c a33e 0f00 323e 2333 dc3e
000003b0: 10aa 3dbe 2211 07be 3502 503e 5b45 d43b
000003c0: 46de 93bd b85d b1be 194d b93d 6a2d 8abe
000003d0: 6f06 c43c ab41 c53e 8f4c 34bd 66d2 c9bd
000003e0: 1711 e43d 9b81 7ebe d587 b6be fec2 ee3e
000003f0: 2e3d 81be e37f c1be ee72 8abe fecc e4bd
-0.08995132 0.23953699 -0.026477458 -0.22452018 0.10094416 -0.10249326 0.43207154 -0.28619912
-0.12468395 -0.20538092 -0.42883134 0.26837447 0.38409507 0.03623123 0.35604864 0.12318975
0.26186168 0.30005318 0.36039704 -0.19716997 0.5629406 -0.0602931 -0.3531302 -0.1800489
-0.17475133 0.2361971 -0.17334096 0.22200048 0.27689624 -0.33738476 0.094392315 -0.061328482
0.14026242 0.2800798 -0.37572578 0.388041 0.3437621 0.15498309 -0.37864184 -0.17270961
-0.13691674 -0.12011405 0.23082654 0.14327367 0.30167943 -0.13895494 0.16597567 0.16684097
-0.0078638205 -0.57680786 0.03396874 0.33779377 -0.3707002 -0.3200687 0.21550813 0.20701344
0.34665608 -0.29473364 -0.3565862 0.19128463 0.34529814 0.21583715 0.032791704 0.16777402
0.40493837 -0.2504542 -0.042381916 0.29223922 -0.42210436 -0.17654087 0.38701785 0.12856513
0.11012079 -0.18227619 -0.023003373 0.4061776 -0.2935076 -0.0020372942 0.24457464 -0.3038046
0.560597 -0.41414365 -0.12886764 -0.13050413 -0.2660118 -0.40054595 0.23016463 0.11630279
-0.3822994 -0.25468618 0.40127814 0.13664266 0.27450013 -0.40399724 -0.15272096 -0.18584518
-0.074653715 -0.27972466 0.033630162 0.04057163 -0.051686108 0.0565895 -0.16179606 0.07523347
0.12630835 -0.24601027 -0.4047568 0.18306336 0.14372475 -0.18956359 0.3907085 -0.22687702
0.2665203 0.24357548 -0.34225187 0.2632694 -0.37531963 -0.22614874 -0.06805437 -0.27515152
0.39311945 -0.08776089 0.12927829 -0.33149555 0.2814509 -0.29830128 -0.4325619 0.32084462
0.22167498 0.35089904 -0.2040305 -0.22594973 0.06433898 0.0947092 0.11423455 0.25769466
-0.07206109 0.2508656 0.2568253 -0.1609336 0.23226185 0.18887319 0.34444314 -0.25132844
-0.18032286 -0.13732094 -0.06895071 0.20778371 -0.38365752 0.27728635 -0.14629519 0.24659976
-0.019380828 -0.3576342 -0.22461012 -0.2954437 0.20244902 -0.27372333 -0.034011174 0.08807524
-0.22385438 0.11775399 -0.32874098 -0.23151469 -0.36908323 -0.14089258 -0.16483928 0.04180347
-0.06004161 0.18898606 0.35627967 0.18294379 -0.123251155 -0.3505641 0.1110161 -0.22005482
0.18759061 0.3289062 0.14099322 0.39380917 0.36903974 0.04630426 -0.3496065 0.41605493
-0.17124692 -0.17318529 0.3430218 0.2915924 0.0951279 0.030123372 -0.3435153 -0.02506534
0.37946266 0.08737964 0.025329003 -0.059508618 -0.12292264 0.24660717 -0.015808294 0.25876278
-0.17552091 0.2257714 0.2092628 0.119570844 0.24598981 0.2351666 0.35199094 0.34248605
-0.081518054 -0.33562157 0.07292453 -0.023492943 -0.14927806 -0.044856388 0.037984446 0.3199493
0.14891598 -0.13901283 -0.18181063 -0.06384203 -0.09522551 0.38764638 0.15520321 0.37504488
0.053002395 0.3793336 0.29044133 -0.57607305 -0.07508196 -0.08674845 -0.35693377 -0.30953887
0.42989266 0.3184547 0.17382835 0.43007764 -0.18521905 -0.1319013 0.20313342 0.0064779944
-0.0722013 -0.34641814 0.09047908 -0.26987773 0.023928849 0.38526663 -0.044018324 -0.098545834
0.11136072 -0.24854128 -0.35650507 0.46633142 -0.2524199 -0.37792882 -0.2704081 -0.11171912

fc1.bias f4 [64]
00000000: 9ae6 d13e da17 3ebe 1d11 643e a0ff bebe
00000010: 1601 8a3e fbb8 9f3e 0469 983e 0d10 9f3e
00000020: f653 903e 8b10 54bb c699 503e 9673 b2bd
00000030: 803a 2f3e 2f64 52be 5f1a 833a b29c fbbe
00000040: ea96 dabd 9a8f 7bbe 76a5 d6bd 3377 85be
00000050: 143c b7be b962 113c 7f06 903e 91a3 b43e
00000060: 3b5a 873e 5aa9 58be cdb2 cebe ed80 0c3e
00000070: fb79 823e 7a0f b0be 8901 2c3e 1f74 b83e
00000080: 02f2 0b3d ed56 5cbe ba27 b33e db97 423e
00000090: 76ec 953e 5547 8ebe 5e97 653e 4740 80be
000000a0: 9588 c73e 4572 32be 94bf 7d3e a381 5d3d
000000b0: 09ae 533e 6181 1fbd 87ba 293e f654 a1bd
000000c0: 50fe c4be 8696 20be 3c50 ad3e 2017 dcbd
000000d0: 6e7d ed3d 8c8c 1abe 2f58 953e 9dc8 5d3e
000000e0: f9f8 383e 5db4 08bd 0ac9 aabe 1cbb bd3c
000000f0: ffb3 3cbe faac b53e b5d6 c8be af9c 563e
0.40996248 -0.18563786 0.22272153 -0.373044 0.26953954 0.31195816 0.2976762 0.31066933
0.28189057 -0.0032358493 0.2037116 -0.087134525 0.1711216 -0.2054603 0.0010002366 -0.49142987
-0.10673316 -0.24566498 -0.10480778 -0.26067504 -0.35788023 0.008873635 0.28129956 0.3528104
0.26436028 -0.21158352 -0.4037079 0.13721056 0.2548369 -0.34386808 0.1679746 0.36026093
0.034166344 -0.21517535 0.34991246 0.19003241 0.29281968 -0.27788797 0.22421023 -0.2504904
0.3897139 -0.17426403 0.24780113 0.05407871 0.20671858 -0.038941745 0.16575061 -0.07877533
-0.38475275 -0.1568242 0.33850276 -0.10746598 0.115961894 -0.15092677 0.2916884 0.21658559
0.18063726 -0.033375133 -0.33356506 0.02316051 -0.18428038 0.35483533 -0.39226308 0.20958208

fc2.weight f4 [32, 64]
00000000: cf4c 0d3e 56f8 b6be c03f 603d 329d e6be
00000010: e06a 1e3e 707b ccbb 4d61 c7bd 4a97 093e
00000020: 0553 8fbc 0f71 aabc c02b 013e 623c 81be
00000030: ee8f 8dbd c739 4ebe e59c 26bc 50d1 02be
00000040: 5cae d6bd 45cb a1bc 847b 98bd 20ad 7bbd
00000050: d338 10be b981 b03c 87dd 1e3d 1be2 b7bd
00000060: b59c fe3d 886a 1a3d c400 be3c 40dd 66bd
00000070: fe16 603c f3b5 d03d 0871 e03d a78e b2bd
00000080: 4ea8 fb3d 2522 cf3c 3d4a 8c3d e858 ec3d
00000090: 44e1 003e 3126 f13c e042 093e 6d2c 66bd
000000a0: 6156 e43c 0bbb aabc ea6f 23bc e6a5 25be
000000b0: 8757 823e f749 7f3c fb35 0d3d bf26 39bc
000000c0: a8b9 943d bd49 af3d e5ff 8c3d b429 c63d
000000d0: 13b9 c53c ccd3 223c 054e 273d 7421 9dbd
000000e0: 4130 28bc 25b9 2b3e ec4a 48bd c552 043d
000000f0: 947b 523d 7392 0f3d 3a8b a63d 6b3f 07bc
00000100: c34e f73d e168 ecbe 7a91 8bbd 5c06 28bf
00000110: 546a b6bd 92e7 31bd 21ba a4bc b75b 933c
00000120: c69e bd3b 3e2e eebb fde1 f3bc 7ab8 33be
00000130: 21b7 083e a56d a3be 1fd8 a9bd d32b ccbd
00000140: 5890 ecbb 70a7 933d 00bf 913d c82a eb3d
00000150: ae3c 76be 0605 bebc 0300 053e b6a2 62bd
00000160: 9374 0d3e 16e5 bf3d fc68 b33a 89cc 9d3d
00000170: ad8d a1bd 023b a1bd 7105 3d3d 7bc2 803d
00000180: 4867 0cbd aa55 693d 0429 cdbd 3f24 0f3e
00000190: d0bc 1a3e 6180 493e c778 3abd d911 003e
000001a0: 12c8 383d 48ce f63d bd94 6e3d fc5c bfbb
000001b0: 52e8 fcbe 71f2 8c3b 0a0a 7b3d 171f 88be
000001c0: bc67 ce3d 19f4 063d 7fa4 b03a ec52 bf3c
000001d0: 9184 3bbc 7881 ae3d bf86 d13c 9b3b 9ebd
000001e0: 320c 043d 3045 c23d a8fa 463c a915 bdbc
000001f0: b083 a4be 4a71 2d3b e820 44bc c0cf e33a
00000200: 55ed bf3d 0667 cf3e da73 823d 5044 ba3e
00000210: 18e8 16be 7e7d 4f3c 274d b43d cc86 ccbd
00000220: fa72 c7bd 9b32 e93d 15ca ae3d 6a98 173e
00000230: 83d4 813d b518 593e 54e4 04be 1239 2a3e
00000240: 1069 253d 04c5 82bc 33b3 d43c dce0 dabd
00000250: 4631 e03d 5b33 8f3d 8bdb 513d 7b6a 8d3b
00000260: 0f85 8c3c ea36 b9bd c8d7 ffbc 0b10 eebc
00000270: 5a84 a9bd 5dfb 40bd b2c5 a23d e4ce 8f3d
00000280: db53 00be 1ba9 423b 301b 173d d8ce cb3d
00000290: 8e38 5c3d 4977 41ba 65d8 86bd 92b4 8f3d
000002a0: 01d7 a53d cbe2 53be f994 f0bd c6f5 3d3e
000002b0: cc11 6dbe 9865 a3bd 295c 81bb 660e d93d
000002c0: d093 013d 08d7 ddbd f9ac 613d 8a3a aa3d
000002d0: 18ec cebd 7cb4 9e3a e906 7cbc a4a3 e93b
000002e0: 28c3 2c3d 3191 21be d8a5 e8bc 431c 863d
000002f0: b1b1 0fbe ea95 64bd 6cd0 0b3c e434 04be
00000300: 1649 d83c 11c6 01bf b9b8 c93c 9e4e a6be
00000310: c4d6 573d 49aa b9bd 2721 cbbd 884f 8b3d
00000320: 7bde 113e 9f15 febd 5920 6c3d b3ed 85be
00000330: f121 dc3c 7cf1 e2bd 019e cf3d 1b0e 83be
00000340: 3657 9e3d e2f3 2a3d 1187 a3bc 72f7 f73d
00000350: 80a0 a5bd 3379 a6bd e254 48bd 81e6 093d
00000360: a2f2 6e3d dc2b 233c 7805 90bd 49df 20bd
00000370: f143 113d 7410 05be 345b 913b 0c82 de3b
00000380: 52c9 2cbd 8eca 793d b914 803c 6704 d93d
00000390: 2cd9 053c debe 5e3d 2b67 e83d af6e 433d
000003a0: 1e53 8ebc 6407 32bc 1376 3f3d 1b50 8fbe
000003b0: 3fbf 9d3e d31f c93d d77f acbd 4866 67be
000003c0: 0208 b8bd e59c f73d b4fc ff3d 5c31 003c
000003d0: 4c93 173e 6026 2bbd 0236 dabd 425e 9e3d
000003e0: 81e1 0f3e 573e 8d3e 7cbc 17b8 7a44 073e
000003f0: 2647 213e f843 d83d 7202 febd 599d 0c3e
0.13798831 -0.3573634 0.054748297 -0.45041806 0.15470457 -0.006240301 -0.097353555 0.13436618
-0.017495641 -0.020805864 0.12614346 -0.2524138 -0.06912218 -0.20139228 -0.0101692425 -0.12775159
-0.10482475 -0.019750247 -0.07445434 -0.0614444 -0.14084177 0.021546232 0.038785484 -0.08978673
0.12432233 0.037699252 0.023193724 -0.056363344 0.013677357 0.10190954 0.10959059 -0.08718615
0.12287961 0.025284836 0.06850097 0.11540395 0.12585932 0.029437156 0.13404417 -0.05619471
0.02787322 -0.020841142 -0.009975413 -0.16176566 0.25457403 0.015581599 0.034475308 -0.011300742
0.072619736 0.08558986 0.068847455 0.09675923 0.024136102 0.009938192 0.04084589 -0.07672396
-0.010265411 0.16769846 -0.048899576 0.032305498 0.051387385 0.035051774 0.08132024 -0.008254866
0.120755695 -0.46173766 -0.06814857 -0.65634704 -0.08906999 -0.043433733 -0.020108284 0.017988069
0.0057867495 -0.007268696 -0.029770846 -0.17550841 0.13351108 -0.3191959 -0.08293175 -0.09969296
-0.0072193556 0.072096705 0.071165085 0.11482769 -0.24046585 -0.023195755 0.12988286 -0.055330954
0.13814001 0.093698665 0.0013687904 0.077050276 -0.07888351 -0.07872583 0.046147767 0.06287094
-0.034278184 0.05696646 -0.10017589 0.1397867 0.15111089 0.19677879 -0.04552534 0.12506808
0.045112677 0.12051064 0.058247317 -0.005839942 -0.49395996 0.004301362 0.06128887 -0.2658622
0.100783795 0.032947633 0.0013476758 0.02335497 -0.0114451805 0.08520788 0.025576947 -0.077262126
0.032238193 0.09485853 0.012144722 -0.023081617 -0.3213172 0.002646523 -0.011970736 0.001738064
0.09371439 0.40508288 0.06369753 0.36380243 -0.14736974 0.012664197 0.08803778 -0.09986648
-0.09738727 0.11386605 0.08534638 0.14804235 0.063393615 0.21200831 -0.12977725 0.16623333
0.0403834 -0.015963085 0.025964355 -0.1068742 0.10946898 0.06992217 0.051234763 0.004315672
0.017153291 -0.09043677 -0.031230822 -0.029060384 -0.08277197 -0.04711472 0.07947864 0.07021883
-0.12531988 0.0029702845 0.036891162 0.09951562 0.053764872 -0.00073801406 -0.06584243 0.07016863
0.08097649 -0.20691983 -0.11747164 0.18550786 -0.2315132 -0.07978362 -0.003947754 0.105984494
0.031635106 -0.108320296 0.0550966 0.08311947 -0.10103625 0.0012108232 -0.015382507 0.007130103
0.042178303 -0.15778042 -0.028399393 0.06548359 -0.14032628 -0.05580703 0.008533578 -0.12910801
0.026402038 -0.5069285 0.024624215 -0.32481855 0.05269505 -0.090656824 -0.09918433 0.06802279
0.14245026 -0.12406468 0.057648037 -0.26157913 0.026871653 -0.11081216 0.10137559 -0.255967
0.07731478 0.04173649 -0.019961866 0.12107743 -0.080872536 -0.08128586 -0.048909076 0.03366709
0.05833686 0.009959187 -0.07032293 -0.03927544 0.035465185 -0.12994558 0.004435921 0.006790405
-0.04218418 0.060984187 0.015634881 0.10596543 0.008169454 0.054381244 0.11347803 0.047712978
-0.017373618 -0.01086602 0.046743464 -0.27990803 0.30809972 0.09820523 -0.08422821 -0.22597611
-0.08985902 0.12090472 0.12499371 0.007824268 0.14802283 -0.041784644 -0.106548324 0.07732822
0.14050867 0.27586624 -3.6176745e-05 0.13209715 0.15749797 0.10559839 -0.1240281 0.13731898

fc2.bias f4 [32]
00000000: 3472 c1bc bb1a 493d d647 e9bd bc3a 8c3d
00000010: f803 c2bb 71ce 95bd 2bf0 03be c5fd 503d
00000020: ff15 ebbc 639d e03d 5aea 403c 4e3a 633c
00000030: ea97 0fbd 4c5f edbc 4735 d9bc abc8 c8bd
00000040: 659e 843d 3033 a1bd d3e5 853d c8ac 2cbd
00000050: d1db c33d 89ce ba3d acb7 72bd 381a d33d
00000060: 5ea9 23bc 31f1 e2bd 61a0 8b3d 0e97 693d
00000070: c9b6 023e 04aa f3bd 8bf9 053e 13a1 a43d
-0.023614027 0.049097758 -0.11390655 0.0684714 -0.0059208833 -0.07314766 -0.12884586 0.051023263
-0.028697012 0.10967519 0.011774624 0.013868881 -0.035056986 -0.028976105 -0.026514662 -0.098038994
0.06475524 -0.07871091 0.06537976 -0.042156965 0.09563411 0.09121425 -0.059257194 0.10307735
-0.009989111 -0.1108116 0.06817699 0.057028823 0.1276504 -0.11897662 0.13083474 0.08038535

fc3.weight f4 [1, 32]
00000000: 134d 4d3e e065 393e 49d5 bcbd e468 373e
00000010: 436c 253e 1f68 5ebd 8264 85bd 3ada fe3d
00000020: a31b 5d3e 5104 133e 00ec 183f 2697 dcbd
00000030: 4636 8bbc acbf 76bd 0cea 9e3e 79cf 203e
00000040: 1b51 fbbd 32e4 b5bc 31ee 0abe bb58 2abe
00000050: b1a9 4c3e 82e5 97bd d7e3 eb3d 1eb7 0ebf
00000060: 35d8 c3bc 6ee4 3a3d 1ce3 393e 5dbb 51bc
00000070: 9755 323e dfcd d33d 287a 253e 48ce 16be
0.20048933 0.18105268 -0.092203684 0.17911106 0.1615458 -0.054298516 -0.06513311 0.12443967
0.21592574 0.14357115 0.5973511 -0.10771017 -0.016993653 -0.060241386 0.3103794 0.15704145
-0.12271329 -0.022203539 -0.13567425 -0.1663541 0.19986607 -0.07416822 0.115180664 -0.55748165
-0.023906806 0.045628004 0.18153042 -0.012801019 0.17415462 0.10342001 0.1615988 -0.14727128
