results/AlsomitraProperty2/alsomitra/YG.onnx (onnx, 10944 bytes, 5 tensors)

fc1.weight f4 [64, 6]
00000000: 6eff c1bd f81a 6f3e d784 0fbd cafc 5cbe
00000010: 6139 cf3d ff8c d6bd 01fe db3e 9a9e 91be
00000020: 014f f2bd 0b50 54be 7862 fdbe 8e7c 8d3e
00000030: ea0c c43e c54d 063d cb9a b43e 2bfc 063e
00000040: 3474 863e e83a 983e cb04 b83e 3d79 48be
00000050: d32e 113f cdf1 69bd 568b b2be d35b 39be
00000060: c02e 3bbe 22f1 673e fcd5 38be 7ef0 5d3e
00000070: 150e 8c3e 7be8 afbe 5278 c43d 0e3f 7bbd
00000080: 4d25 0f3e 49c9 8a3e 5242 c0be 6572 c73e
00000090: f973 ae3e c8c2 1d3e 82f4 c2be 0ca2 2fbe
000000a0: b671 0bbe df80 f6bd a939 6c3e a4fd 123e
000000b0: 8b2d 9b3e 0e72 0dbe 72d1 293e c33b 2c3e
000000c0: 8b26 623a 0b98 10bf 3a7d 183d 24c6 ab3e
000000d0: 4d61 bbbe 8cb0 a4be 8a78 593e bd80 523e
000000e0: 9a71 b03e de0a 92be 6929 b6be b5e4 403e
000000f0: b9f7 b03e 0517 5c3e 1a66 023d 6860 283e
00000100: 17da cf3e 992e 80be a915 2dbd d2b1 943e
00000110: cc89 dabe 8960 2dbe 081e c73e db71 f93d
00000120: 6549 ed3d 89f7 38be b8f1 cdbc f2f0 c53e
00000130: 9734 96be 069a 07bb 18dd 7a3e d317 9abe
00000140: 9a6e 103f 055a d4be 65a5 03be e74b 07be
00000150: b332 88be 5c14 cdbe 47b0 6b3e 2830 ee3d
00000160: bfbc c3be 3a66 82be 1961 cd3e e589 0d3e
00000170: a17f 8e3e 9c91 cdbe 8616 1bbe de6b 3cbe
00000180: 0ce4 98bd 1238 8fbe c8bf 093d 702e 263d
00000190: d0b4 53bd 64ca 673d a40c 42be e6ac 8e3d
000001a0: 0dea f13d 5c03 81be 151e dbbe 7fdd 343e
000001b0: 0a23 123e 3e40 40be 33e7 c83e b286 5bbe
000001c0: 2f6e 893e bbe3 753e a33b afbe 3fcb 863e
000001d0: e529 c0be 8993 67be 1760 8bbd a9e0 8cbe
000001e0: 0f16 c83e 9c21 b1bd c396 073e 12c8 a6be
000001f0: a248 943e bd54 a9be 7ccd dfbe 93e4 a33e
00000200: e12c 693e d5e7 b43e 2d97 50be f2f3 6cbe
00000210: 818e 863d 0402 c13d 3cf4 e63d 6c50 803e
00000220: a10a 93bd 3fee 803e c37f 853e 652b 24be
00000230: 03e8 6d3e 821b 3f3e 243b b03e dd77 80be
00000240: c311 3abe 1b52 0cbe 45a4 85bd c227 433e
00000250: 6d2a bfbe 7555 8e3e 68ce 15be a684 7c3e
00000260: 8bc4 9ebc d41b b7be 3200 66be 6644 97be
00000270: cc4e 4f3e 7725 8cbe 4d4f 0bbd cb60 b43d
00000280: 153a 65be 0129 f13d e906 c1be cb21 84be
00000290: 919c bfbe bb35 10be 651a 29be 1b7f 2b3d
000002a0: f4b7 72bd 9e62 423e 3b8a b73e 2fa8 373e
000002b0: 769f fbbd 4986 b2be b3b5 e93d 59c3 5ebe
000002c0: 2a8e 403e 3e0e a13e fe8c 0f3e 9757 cb3e
000002d0: 5701 be3e ced8 393d b8fe b3be db9e d13e
000002e0: cdc5 2ebe 4a12 31be a58d ac3e 5c1d 933e
000002f0: c162 ba3d c195 153d 3c43 afbe c6e0 d6bc
00000300: 06fd c33e fbb6 ba3d 0d47 063d 898f 78bd
00000310: 6fcc f9bd 0ca3 803e 6d66 71bc bdf5 843e
00000320: c973 35be 617e 513e d0e6 523e 8add fc3d
00000330: 092d 7b3e ae0f 713e 9aa4 b43e 067e ab3e
00000340: 37b4 a3bd 2d8a abbe cc33 953d 31f5 d3bc
00000350: b43d 1cbe 144c 37bd a819 1d3d cbc6 a33e
00000360: ca42 1b3e ff0a 0ebe 68ff 39be 4d61 88bd
00000370: 746a bdbd 1cdd c63e fb44 213e 8732 bf3e
00000380: f3df 3b3d 88ac c33e 0d8f 923e 674b 12bf
00000390: 07de 97bd cefa b2bd ddf8 b7be 2450 a0be
000003a0: b8d8 d93e b681 a63e ab1f 2f3e 2a96 dc3e
000003b0: eb15 42be 9510 0ebe c879 493e c665 1c3c
000003c0: 3fd1 9abd 8e11 b2be 576a b13d d53e 8abe
000003d0: bd7e ca3c 2afb c43e 6107 57bd 2566 ccbd
000003e0: f444 f63d 7b5e 7ebe b08b adbe 6425 ef3e
000003f0: b816 74be 8f7e b5be 67c1 8abe 7d0f eabd
-0.094725475 0.23350132 -0.035038795 -0.21580806 0.10118366 -0.104761116 0.42967227 -0.28441316
-0.11831475 -0.20733659 -0.49489188 0.2763409 0.38291103 0.03278901 0.35274348 0.13182132
0.2626053 0.29732442 0.35941157 -0.19577499 0.56712073 -0.057115365 -0.3487193 -0.18101434
-0.18279552 0.22650579 -0.18050379 0.21673772 0.27354494 -0.34357056 0.09593262 -0.06133943
0.13979073 0.27106693 -0.37550598 0.38954464 0.34072855 0.15406334 -0.3807717 -0.1715166
-0.13617596 -0.12036299 0.2306887 0.14354569 0.30308184 -0.1381304 0.16583803 0.16819672
0.0008626959 -0.56482 0.0372288 0.33549607 -0.36597672 -0.32165945 0.21237388 0.20556922
0.3446167 -0.28523916 -0.35578468 0.18837245 0.34563997 0.21493156 0.031835653 0.16443026
0.40596077 -0.2503555 -0.042256985 0.29041916 -0.42683256 -0.16931356 0.388901 0.12179919
0.115862645 -0.18063177 -0.025139675 0.3866039 -0.29336998 -0.002069117 0.24498403 -0.300963
0.56418765 -0.4147493 -0.12856062 -0.13212548 -0.2660118 -0.40054595 0.23016463 0.11630279
-0.3822994 -0.25468618 0.40113142 0.13822134 0.27831748 -0.40150154 -0.15145311 -0.18400523
-0.074653715 -0.27972466 0.033630162 0.04057163 -0.051686108 0.0565895 -0.18950135 0.069665715
0.1181222 -0.25197875 -0.42796388 0.17662619 0.14271179 -0.18774506 0.3923889 -0.21438101
0.26841876 0.24012654 -0.34225187 0.2632694 -0.37531963 -0.22614874 -0.06805437 -0.27515152
0.3907933 -0.086489886 0.13241105 -0.32574517 0.28961664 -0.33072463 -0.4371146 0.32010326
0.22771026 0.35333124 -0.20370169 -0.23139933 0.06570149 0.094242126 0.11277053 0.25061357
-0.07179762 0.25181767 0.26074037 -0.16032179 0.23233037 0.18662837 0.3442012 -0.25091448
-0.18170838 -0.13703196 -0.065254726 0.19058135 -0.37337056 0.27799574 -0.14629519 0.24659976
-0.019380828 -0.3576342 -0.22461012 -0.2954437 0.20244902 -0.27372333 -0.034011174 0.08807524
-0.22385438 0.11775399 -0.37700585 -0.25807032 -0.37424138 -0.14082997 -0.16513975 0.041869264
-0.059257463 0.18982932 0.3584765 0.1793525 -0.12286274 -0.34868076 0.114116095 -0.21754207
0.18804231 0.31456178 0.14018628 0.39715263 0.37110397 0.045372777 -0.35155272 0.4094151
-0.17067643 -0.17292133 0.33701816 0.28733337 0.09100867 0.03651977 -0.34230983 -0.026230227
0.3827898 0.09116932 0.032782603 -0.06068376 -0.12197196 0.25124395 -0.014733893 0.25968733
-0.1771995 0.20458366 0.2059586 0.12346943 0.24528898 0.23541138 0.3528183 0.33494586
-0.07993358 -0.33503857 0.0728527 -0.025873752 -0.15257913 -0.044750288 0.038354546 0.31987604
0.15162197 -0.13871382 -0.18163836 -0.06659184 -0.0924882 0.38840568 0.1574897 0.37343237
0.04586787 0.38217568 0.28624764 -0.57146305 -0.07415395 -0.087392434 -0.35932055 -0.31311142
0.42548156 0.32520837 0.17101924 0.43083316 -0.18953674 -0.13873513 0.19675362 0.009545749
-0.07559442 -0.34779018 0.08662861 -0.27001062 0.024718637 0.38472873 -0.05249727 -0.0998042
0.120248705 -0.24840729 -0.33895636 0.46708214 -0.23836792 -0.3544812 -0.2710068 -0.114287354

fc1.bias f4 [64]
00000000: 7137 d13e c496 41be 406d 633e 57c1 c0be
00000010: 2114 883e 3ea6 9f3e 2e58 983e 195c 9f3e
00000020: 4613 903e 1c1b 85bb 166a 503e 2f6f b1bd
00000030: 6514 2e3e dd91 54be 5f1a 833a f8ef fcbe
00000040: ea96 dabd 97d9 80be 2cd1 d4bd 3377 85be
00000050: 2322 b5be d076 103c ceca 8f3e 88a3 b43e
00000060: 89d5 863e 5aa9 58be cdb2 cebe 5a89 0c3e
00000070: f4e3 823e 934d afbe 6cab 2b3e 3658 b83e
00000080: d210 163d 0518 5fbe 251e b33e 8fe9 413e
00000090: cefa 953e bf87 8ebe 7a89 643e 224c 80be
000000a0: 923e c73e 23ba 32be d194 7b3e 0735 593d
000000b0: 89b5 503e 63a9 23bd 6172 293e e3cf 82bd
000000c0: 50fe c4be 940c 1fbe 9945 ad3e 2017 dcbd
000000d0: ea17 ef3d 8c8c 1abe c6a2 953e ecff 5d3e
000000e0: 19b6 383e 59dc ffbc 0ac9 aabe 99c7 bd3c
000000f0: 06af 81be 36da b53e b5d6 c8be b92d 573e
0.4086261 -0.18905169 0.22209644 -0.37647507 0.26577857 0.3118152 0.29754776 0.31124952
0.28139704 -0.0040620696 0.20352969 -0.08663785 0.16999967 -0.20758767 0.0010002366 -0.49401832
-0.10673316 -0.25166008 -0.10391459 -0.26067504 -0.35377607 0.00881739 0.28084415 0.35281014
0.2633479 -0.21158352 -0.4037079 0.1372427 0.2556454 -0.34238872 0.16764611 0.360048
0.036637135 -0.21786506 0.34983936 0.18936752 0.2929291 -0.2783794 0.22318068 -0.25058085
0.38914925 -0.17453818 0.24568488 0.053029086 0.2038175 -0.03995646 0.16547538 -0.063873075
-0.38475275 -0.15532142 0.3384216 -0.10746598 0.11674483 -0.15092677 0.2922575 0.21679658
0.18038215 -0.031233 -0.33356506 0.023166465 -0.25328845 0.35518044 -0.39226308 0.21013536

fc2.weight f4 [32, 64]
00000000: 9a78 0d3e 85a7 a3be f8bc 603d b4a0 e8be
00000010: aecf 1d3e 5951 cbbb 240e c7bd e0d3 093e
00000020: 10a8 98bc 3737 a4bc 6fd9 003e 8af9 82be
00000030: 9617 8fbd 518a 4fbe e59c 26bc c8d1 04be
00000040: 5cae d6bd 6045 c1bc 5d3e 94bd 20ad 7bbd
00000050: 6a85 16be c5b3 a93c e2cd 1e3d 5d2c b8bd
00000060: 1329 fe3d 886a 1a3d c400 be3c a210 68bd
00000070: 6d18 503c 2a6f d43d c530 de3d d996 b2bd
00000080: e968 fc3d d7f8 c53c 3a64 8b3d 06fa ec3d
00000090: c133 013e bb50 df3c c0cf 093e 98a9 64bd
000000a0: d8b2 e73c 0558 9fbc d097 26bc 51c9 25be
000000b0: 5717 853e 9859 7b3c 4f94 0c3d 9e61 003b
000000c0: a8b9 943d b82b b23d 7626 8c3d b429 c63d
000000d0: 68cd b83c ccd3 223c 7c38 253d 554b 9cbd
000000e0: 6a9b 1dbc 7e0f 293e ec4a 48bd b71a 013d
000000f0: c67c 73bc 0500 103d 3a8b a63d 77c3 fcbb
00000100: c14f f83d 204a f5be 6698 8abd dd74 29bf
00000110: 9356 b8bd c4e0 30bd f7a8 a1bc d68e 993c
00000120: 1122 863b 43c8 99bb 1afe f7bc 63ee 36be
00000130: 2b73 073e da2a a5be 1fd8 a9bd 95e0 d0bd
00000140: 5890 ecbb de49 8b3d bb8e 9a3d c82a eb3d
00000150: 1ddf 80be 508e b4bc 9833 053e 2ce6 64bd
00000160: 4e36 0d3e 16e5 bf3d fc68 b33a 8ae4 9c3d
00000170: 8adc a5bd 1bed 96bd 1813 343d 514f 813d
00000180: 3ac9 06bd a475 5f3d 81dc cebd 26de 0f3e
00000190: 6e67 1b3e d9ab 433e 296a 36bd c56d 023e
000001a0: 537f 3b3d 7702 fc3d c060 6d3d 3a18 afbb
000001b0: e25d f9be 8580 773b e838 7a3d dd54 88be
000001c0: bc67 ce3d a325 183d 1223 4039 ec52 bf3c
000001d0: 8979 5fbc 7881 ae3d f0ae c93c fbd0 9cbd
000001e0: 2813 fa3c 1ba7 bc3d a8fa 463c 6c9a cdbc
000001f0: 5ee8 fdbd 29ff 463b e820 44bc 5d01 2a3b
00000200: 178b b93d e2cb b93e 4dd7 713d ffa1 bc3e
00000210: b9d5 13be 1a2c 133c 0cef b23d 905e d7bd
00000220: 66b3 c8bd 6191 cc3d f733 a83d f21e 6c3e
00000230: 948d 803d 00c4 5a3e 54e4 04be 37a1 2c3e
00000240: 1069 253d 014c 97bc 4884 283c dce0 dabd
00000250: 34a2 ec3d 8846 913d fe13 433d b00d ee3a
00000260: 8ca8 7d3c ea36 b9bd c8d7 ffbc 0a10 eebc
00000270: e020 babd c85c 70bd ae86 a83d e7d5 853d
00000280: e10f 07be 6a1e 7a3c 152d 023d f2e8 c63d
00000290: 512d 523d 8429 ba3a 2b3b 87bd 8436 993d
000002a0: f456 a03d d2a2 65be 438a f0bd 6d5a 3d3e
000002b0: e6df 7abe 7035 9ebd a255 8abb b0ec b33d
000002c0: d093 013d b29d e8bd 595b 5f3d 8a3a aa3d
000002d0: ce33 cbbd 7cb4 9e3a 6300 7dbc 6e56 d83b
000002e0: 3292 293d a1b9 40be d8a5 e8bc fc67 803d
000002f0: 615d 7bbd f754 72bd 6cd0 0b3c 53e7 04be
00000300: f9dc d93c ed58 f0be 38db ca3c f969 a8be
00000310: 6a1c 553d 7b94 b9bd 9dc1 cabd 79da 8b3d
00000320: 6d8b 103e 165b fcbd 2ab8 6a3d 9fbd 87be
00000330: 142b d53c 81c5 e5bd 019e cf3d a722 84be
00000340: 3657 9e3d 1ed6 1a3d a817 91bc 72f7 f73d
00000350: 4e9e b3bd 585c a8bd 9964 48bd b542 093d
00000360: 1dea 6d3d dc2b 233c 7805 90bd b63a 22bd
00000370: 3cd2 0c3d f409 03be 0132 513b 7410 de3b
00000380: 0515 2bbd 86c2 743d ac2c 783c 55bb d93d
00000390: 6db6 0b3c 9e2e 553d f0a5 e93d a30a 453d
000003a0: 6c7f 8abc cf16 18bc 8b91 3e3d 4d62 8fbe
000003b0: 138e a03e 8d8b c83d 07dd acbd 1519 59be
000003c0: 0208 b8bd a2d5 fa3d 5f0b ff3d 5c31 003c
000003d0: 77be 153e 6026 2bbd d563 dbbd d352 9f3d
000003e0: 149f 103e dcda 8b3e 7cbc 17b8 985a 063e
000003f0: 2234 b93d b782 d83d 7202 febd 573d 0d3e
0.13815537 -0.31963745 0.054867715 -0.45435107 0.15411255 -0.0062047658 -0.09719494 0.1345973
-0.018634826 -0.02004586 0.12582944 -0.25581008 -0.069869205 -0.20267607 -0.0101692425 -0.1297065
-0.10482475 -0.02359265 -0.07238457 -0.0614444 -0.14699331 0.020715604 0.038770564 -0.089928366
0.12410178 0.037699252 0.023193724 -0.056656487 0.012701136 0.10372765 0.10849146 -0.08720178
0.123246975 0.024166508 0.06806226 0.11571126 0.12617399 0.027260175 0.13458157 -0.0558258
0.028283522 -0.01945115 -0.010168031 -0.16190077 0.2599437 0.015341185 0.034321126 0.0019589434
0.072619736 0.08699745 0.06843273 0.09675923 0.022558883 0.009938192 0.04033707 -0.07631556
-0.009619573 0.16509816 -0.048899576 0.031519618 -0.014861291 0.03515627 0.08132024 -0.007713731
0.12124587 -0.47908115 -0.06767349 -0.66193944 -0.09000888 -0.043183103 -0.019733889 0.018744867
0.0040934165 -0.0046930625 -0.030272532 -0.17864375 0.13227527 -0.32259256 -0.08293175 -0.101990856
-0.0072193556 0.068011984 0.07546755 0.11482769 -0.25170222 -0.022040516 0.13007963 -0.05588357
0.13790247 0.093698665 0.0013687904 0.07660778 -0.08098705 -0.07369443 0.04396352 0.063139565
-0.03290675 0.05455555 -0.101006515 0.14049587 0.15176174 0.19108523 -0.044534836 0.12737186
0.045775723 0.12305158 0.057953596 -0.005343464 -0.4870444 0.0037765813 0.061089426 -0.26627246
0.100783795 0.03714527 0.00018323612 0.02335497 -0.013639816 0.08520788 0.02461955 -0.07657047
0.030526713 0.0921156 0.012144722 -0.025098048 -0.12397836 0.003036449 -0.011970736 0.0025940754
0.090597324 0.36288363 0.059043217 0.36842343 -0.14436997 0.008982683 0.08737001 -0.10516083
-0.097998425 0.09988666 0.082130365 0.2305868 0.06277004 0.2136383 -0.12977725 0.16858374
0.0403834 -0.018468859 0.010285445 -0.1068742 0.11554375 0.07093531 0.047626488 0.0018162038
0.015482079 -0.09043677 -0.031230822 -0.029060382 -0.09088302 -0.058682233 0.08228813 0.06534939
-0.13189651 0.01526604 0.031781275 0.097123995 0.05131275 0.0014203046 -0.06603082 0.07481101
0.07829085 -0.22425392 -0.11745121 0.18491526 -0.24499473 -0.07725036 -0.004221634 0.08785379
0.031635106 -0.11358203 0.054530475 0.08311947 -0.0992199 0.0012108232 -0.015441987 0.0066021
0.04139919 -0.18820812 -0.028399393 0.062698334 -0.06136835 -0.05916306 0.008533578 -0.12978868
0.026594626 -0.46942845 0.024762735 -0.3289335 0.05202905 -0.090615235 -0.0990021 0.0682878
0.14115687 -0.12322061 0.05730454 -0.26511857 0.026021518 -0.112193115 0.10137559 -0.25807688
0.07731478 0.037801854 -0.017711475 0.12107743 -0.087704286 -0.08220738 -0.048924062 0.033510882
0.058084596 0.009959187 -0.07032293 -0.039606772 0.034380183 -0.12796766 0.0031920674 0.0067768637
-0.041768093 0.059755825 0.015147369 0.10631434 0.00852738 0.05204641 0.11408603 0.048105847
-0.016906463 -0.009282782 0.04652552 -0.28004685 0.31358394 0.09792242 -0.08440595 -0.21200974
-0.08985902 0.122477785 0.12453341 0.007824268 0.14623438 -0.041784644 -0.10712401 0.07779469
0.14123183 0.27315414 -3.6176745e-05 0.13120496 0.09043147 0.10571807 -0.1240281 0.1379293

fc2.bias f4 [32]
00000000: 7af9 c0bc 36a3 493d 4043 eebd e05d 8c3d
00000010: f803 c2bb 48c7 95bd 51cc 03be c6fd 503d
00000020: 3c14 eabc cbbe e03d f304 673c c69e 613c
00000030: ea97 0fbd 4b5f edbc f84c dbbc 7dbc c7bd
00000040: 659e 843d 3033 a1bd d3e5 853d c8ac 2cbd
00000050: a3fd c33d b0dc bb3d bf6c 72bd 814b d43d
00000060: 5ea9 23bc 8287 dfbd dec4 8b3d 0e97 693d
00000070: 37c7 023e 04aa f3bd 72b9 053e 13a1 a43d
-0.02355646 0.049227916 -0.11633921 0.06853843 -0.0059208833 -0.073134005 -0.1287091 0.051023267
-0.028574102 0.10973891 0.014100301 0.013770765 -0.035056986 -0.028976103 -0.0267701 -0.09752748
0.06475524 -0.07871091 0.06537976 -0.042156965 0.09569862 0.09172952 -0.05918574 0.10365964
-0.009989111 -0.10914518 0.06824659 0.057028823 0.12771307 -0.11897662 0.13059023 0.08038535

fc3.weight f4 [1, 32]
00000000: 8fbf 4d3e dc0a 3b3e d7c5 bebd 8076 373e
00000010: 436c 253e 396e 5ebd 1ff1 86bd 30da fe3d
00000020: d5fb 5d3e 925c 133e 41d1 c93e 6e49 debd
00000030: 4636 8bbc 5472 75bd d6ff a03e 274f 233e
00000040: 1b51 fbbd 32e4 b5bc 31ee 0abe bb58 2abe
00000050: 0ecb 4c3e 7712 99bd 1671 ec3d 30a4 0ebf
00000060: 33d8 c3bc 355a 3e3d c04d 3a3e 5dbb 51bc
00000070: 415c 323e dfcd d33d 8768 253e 48ce 16be
0.20092605 0.18265861 -0.09315079 0.17916298 0.1615458 -0.054304335 -0.06588959 0.1244396
0.21678098 0.14390782 0.3941746 -0.10853849 -0.016993653 -0.059923485 0.31445187 0.15948163
-0.12271329 -0.022203539 -0.13567425 -0.1663541 0.19999334 -0.07474225 0.11545007 -0.5571928
-0.023906803 0.046472747 0.18193722 -0.012801019 0.17418005 0.10342001 0.16153155 -0.14727128
