results/AlsomitraProperty1/alsomitra/Baseline.onnx (onnx, 10944 bytes, 5 tensors)

fc1.weight f4 [64, 6]
0	0xbdc56576	-0.09638493
1	0x3e6f81c1	0.23389341
2	0xbc540892	-0.012941496
3	0xbe8c8629	-0.27446106
4	0x3da016d7	0.07816856
5	0xbdc9caea	-0.09853156
6	0x3ebed2b9	0.37270144
7	0xbeb568ab	-0.35431418
8	0xbe04096f	-0.12894224
9	0xbec9ccbc	-0.39414012
10	0xbe24a021	-0.1607671
11	0x3e03c63d	0.1286859
12	0x3ec3e81f	0.38263032
13	0x3d57fddd	0.052732337
14	0x3ecf17d2	0.4044786
15	0x3e052e7a	0.1300601
16	0x3e8965bd	0.26835433
17	0x3e842a48	0.25813508
18	0x3ecb0bae	0.39657348
19	0xbe60c107	-0.21948634
20	0x3f0f0758	0.5587058
21	0xbd25695b	-0.040383678
22	0xbe8aec79	-0.2713354
23	0xbe80a247	-0.25123808
24	0xbe6d7eef	-0.23192953
25	0x3e54036e	0.20704433
26	0xbe7de9dc	-0.24796242
27	0x3eb2c30f	0.34914443
28	0x3ebdaa85	0.3704416
29	0xbeb6453c	-0.35599697
30	0x3dc93c46	0.09825949
31	0xbd2889cc	-0.04114704
32	0x3e06b239	0.13153924
33	0x3e970074	0.29492533
34	0xbeb25d71	-0.34836915
35	0x3ec67f7a	0.38769132
36	0x3eaa4617	0.332566
37	0x3e124991	0.14285876
38	0xbec19d83	-0.37815484
39	0xbe477693	-0.19478826
40	0xbe14c2ea	-0.14527479
41	0xbde8c2d6	-0.11365287
42	0x3e699cd0	0.22813725
43	0x3e15dd29	0.14635147
44	0x3e95f1ec	0.29286134
45	0xbde4e499	-0.11176414
46	0x3e31ce14	0.17363769
47	0x3e286f80	0.16448784
48	0xbd42657b	-0.04746006
49	0xbec07fc2	-0.3759747
50	0x3b5b957a	0.0033505843
51	0x3ebed4d3	0.37271747
52	0xbdf3b977	-0.11900609
53	0xbe6dc535	-0.2321976
54	0x3e7a6f3a	0.24456492
55	0x3e5113b6	0.20417675
56	0x3ef327f0	0.47491407
57	0xbec0c419	-0.3764961
58	0xbebc5282	-0.36781698
59	0x3e0ab53c	0.13545698
60	0x3eaf2061	0.3420439
61	0x3e6a3512	0.22871807
62	0x3ce996dd	0.02851432
63	0x3e2e4520	0.17018557
64	0x3ed8e626	0.4236309
65	0xbe8ac3cc	-0.27102506
66	0xbe485bc9	-0.19566263
67	0x3e8ce5a6	0.27518958
68	0xbe8f0218	-0.27931285
69	0xbe711390	-0.23542619
70	0x3e934718	0.28765178
71	0x3df287e9	0.11842329
72	0x3dfdfb37	0.12401431
73	0xbe38a527	-0.1803175
74	0xbdaafad0	-0.0834862
75	0x3e9c94db	0.30582318
76	0xbea14780	-0.31499863
77	0x3dab3c5a	0.083611205
78	0x3e83d4b4	0.25748217
79	0xbe8b03fb	-0.27151474
80	0x3f18696c	0.5953586
81	0xbef30961	-0.47468093
82	0xbe394c73	-0.1809557
83	0xbe371e5a	-0.17882672
84	0xbe8832b3	-0.2660118
85	0xbecd145c	-0.40054595
86	0x3e6bb047	0.23016463
87	0x3dde19c6	0.1084476
88	0xbec3be68	-0.38231206
89	0xbe8684e8	-0.26273274
90	0x3ed34d87	0.41270086
91	0x3df7cfb8	0.12100166
92	0x3e97ae98	0.29625392
93	0xbee4f110	-0.44715166
94	0xbe6bf499	-0.23042525
95	0xbe3755e9	-0.17903866
96	0xbd98e40c	-0.074653715
97	0xbe8f3812	-0.27972466
98	0x3d09bfc8	0.033630162
99	0x3d262e70	0.04057163
100	0xbd53b4d0	-0.051686108
101	0x3d67ca64	0.0565895
102	0xbe25adde	-0.16179606
103	0x3dd99133	0.10623398
104	0x3e1da5fe	0.15395352
105	0xbe5c2c7f	-0.21501349
106	0xbecf3c49	-0.4047568
107	0x3e5acad6	0.21366438
108	0x3e0d6079	0.13806333
109	0xbe43ef6a	-0.19134298
110	0x3efd0d25	0.4942409
111	0xbe26b37d	-0.16279407
112	0x3e7b52cf	0.24543308
113	0x3e686a04	0.22696692
114	0xbeaf3ba3	-0.34225187
115	0x3e86cb3f	0.2632694
116	0xbec029e5	-0.37531963
117	0xbe679389	-0.22614874
118	0xbd8b6017	-0.06805437
119	0xbe8ce0a9	-0.27515152
120	0x3ed1bf3c	0.40966213
121	0xbd93b0c9	-0.072114535
122	0x3e3367d5	0.17520078
123	0xbebc13db	-0.367339
124	0x3ea03dd2	0.31297165
125	0xbea53b3d	-0.32271758
126	0xbe81f90b	-0.25385317
127	0x3d77762f	0.060415443
128	0x3e54c699	0.20778884
129	0x3ea72bbc	0.32650554
130	0x3cd18351	0.025575312
131	0xbed2be2e	-0.4116072
132	0x3d77ef8e	0.06053119
133	0x3dc695b7	0.096965246
134	0x3d8a7f59	0.06762571
135	0x3e81ddc9	0.2536452
136	0xbd4e72c1	-0.050402407
137	0x3e90d818	0.28289866
138	0x3e913553	0.28360996
139	0xbe09082e	-0.13382027
140	0x3ea30f3a	0.31847554
141	0x3e43f7e7	0.19137536
142	0x3eb1b9c3	0.34712037
143	0xbe935546	-0.28775996
144	0xbe5defef	-0.21673559
145	0xbe15afd8	-0.1461786
146	0xbdd0a62a	-0.10187943
147	0x3e29e311	0.16590525
148	0xbed87c5c	-0.4228238
149	0x3eb0a357	0.34499618
150	0xbe15ce68	-0.14629519
151	0x3e7c84a6	0.24659976
152	0xbc9ec48b	-0.019380828
153	0xbeb71bd4	-0.3576342
154	0xbe660032	-0.22461012
155	0xbe974466	-0.2954437
156	0x3e4f4ecc	0.20244902
157	0xbe8c2577	-0.27372333
158	0xbd0b4f4d	-0.034011174
159	0x3db460cb	0.08807524
160	0xbe653a15	-0.22385438
161	0x3df12901	0.11775399
162	0xbecfdf5a	-0.4060009
163	0xbe99595f	-0.29950997
164	0xbec12da7	-0.37730142
165	0xbe060be1	-0.13090469
166	0xbe1fe205	-0.15613563
167	0x3d510ae5	0.05103578
168	0xbdab1a67	-0.08354645
169	0x3e4427dc	0.1915583
170	0x3ead58fe	0.33856958
171	0x3e518391	0.20460345
172	0xbdfad391	-0.12247384
173	0xbec00772	-0.3750568
174	0x3e133a87	0.14377795
175	0xbe4bf59d	-0.19917913
176	0x3e3f73a8	0.18696463
177	0x3eb0756a	0.3446458
178	0x3e4d5e43	0.20055489
179	0x3ec2af10	0.38024187
180	0x3ebae4ad	0.3650259
181	0x3d8688a6	0.06569032
182	0xbeca602c	-0.39526498
183	0x3ecc07b6	0.39849633
184	0xbe082b7d	-0.1329784
185	0xbe282526	-0.16420421
186	0x3ea13b9b	0.31490788
187	0x3e968631	0.29399255
188	0x3d641001	0.055679325
189	0x3d4b10ed	0.04957669
190	0xbea94856	-0.33063
191	0xbc628a80	-0.013826966
192	0x3ec8adbe	0.39195055
193	0x3dd0093b	0.101580106
194	0x3d44a7aa	0.04801146
195	0xbd28db0a	-0.041224517
196	0xbe00b98e	-0.12570783
197	0x3e62e8b0	0.22159076
198	0xbb109aea	-0.0022064992
199	0x3e885ea8	0.26634717
200	0xbe5cbccd	-0.21556397
201	0x3e825c6d	0.2546114
202	0x3e87b77a	0.2650717
203	0x3deaaf21	0.114591844
204	0x3e7c4ba9	0.24638237
205	0x3e7b2f37	0.2452973
206	0x3eb453e8	0.35220265
207	0x3ec1ea99	0.37874296
208	0xbd4ba096	-0.049713694
209	0xbebb5b0d	-0.36592904
210	0x3d858f0f	0.06521427
211	0xbcabb354	-0.020959534
212	0xbe30b377	-0.1725596
213	0xbd87e727	-0.06635886
214	0x3d2ab0ae	0.0416724
215	0x3ead2d56	0.3382365
216	0x3e0403f0	0.12892127
217	0xbe1c13a4	-0.15241867
218	0xbe5fb0b2	-0.21844748
219	0xbdccdf2e	-0.10003506
220	0xbdeb3062	-0.11483838
221	0x3ecfc497	0.40579674
222	0x3e4b6269	0.19861759
223	0x3ec0aefe	0.37633508
224	0xbd0b2a79	-0.033976052
225	0x3eb8d3cc	0.36099088
226	0x3e9c58a8	0.3053639
227	0xbf14173d	-0.5784796
228	0xbc057f65	-0.008148049
229	0xbd8d1b0e	-0.06889926
230	0xbec2ffc2	-0.38085753
231	0xbe9b1b4c	-0.30294263
232	0x3ee4b8d6	0.4467227
233	0x3ea09a36	0.31367654
234	0x3e2adfbf	0.16686915
235	0x3ec6c9dd	0.38825884
236	0xbe67cfd0	-0.22637868
237	0xbbcae248	-0.0061915256
238	0x3e49ae5d	0.1969542
239	0xbd72da12	-0.05929
240	0xbdbf58be	-0.09343098
241	0xbeb8f73e	-0.3612613
242	0x3d8b9db5	0.068171896
243	0xbe984d5d	-0.29746523
244	0x3ba8a732	0.0051468844
245	0x3ed1ea97	0.4099929
246	0xbded3334	-0.11582032
247	0xbe199741	-0.14999105
248	0x3e073690	0.13204408
249	0xbef42d0c	-0.47690618
250	0xbeb37434	-0.35049593
251	0x3f039fe2	0.51415837
252	0xbe2b5fcf	-0.16735767
253	0xbe958608	-0.2920382
254	0xbe69edf4	-0.22844678
255	0xbde7c68a	-0.11317165

fc1.bias f4 [64]
0	0x3ec03ca1	0.37546256
1	0xbe96e390	-0.2947049
2	0x3e59e55d	0.21278901
3	0xbe9a95b8	-0.3019235
4	0x3eb8eca4	0.36118042
5	0x3ea32c93	0.31869945
6	0x3e9756a9	0.29558304
7	0x3ea14980	0.3150139
8	0x3ec52f22	0.38512522
9	0xbd2e6e85	-0.04258587
10	0x3e476888	0.1947347
11	0xbe20239f	-0.15638588
12	0x3e3ffbf2	0.18748453
13	0xbe34c416	-0.17652926
14	0xbbe09931	-0.0068541993
15	0xbeddc4b6	-0.4331414
16	0xbdda96ea	-0.10673316
17	0xbe5bcfcf	-0.21465991
18	0xbdf95ddb	-0.12176105
19	0xbe857733	-0.26067504
20	0xbeb79322	-0.3585444
21	0x3d3c0a10	0.045908034
22	0x3e991410	0.2989812
23	0x3eadfab8	0.33980346
24	0x3e8c7f17	0.27440712
25	0xbe58a95a	-0.21158352
26	0xbeceb2cd	-0.4037079
27	0x3e16f246	0.14740857
28	0x3e7d63ff	0.24745177
29	0xbea98092	-0.33105904
30	0x3e2e465e	0.1701903
31	0x3eb672ae	0.3563437
32	0x3ceacd92	0.028662477
33	0xbe4c3b66	-0.19944534
34	0x3eb23117	0.34803078
35	0x3e465b0a	0.19370666
36	0x3e979727	0.29607508
37	0xbe7e2658	-0.24819314
38	0x3e7e6610	0.24843621
39	0xbe89213c	-0.26783168
40	0x3ecab384	0.39590085
41	0xbe193f98	-0.14965665
42	0x3e7bdf9a	0.24597016
43	0x3de6b92b	0.11265787
44	0x3ddd8bba	0.10817666
45	0xbb833ea8	-0.004005272
46	0x3e11fe1c	0.14257091
47	0xbe2e3759	-0.17013301
48	0xbec4fe50	-0.38475275
49	0xbe110e24	-0.1416555
50	0x3eb117bb	0.34588417
51	0xbddc1720	-0.10746598
52	0x3e56c50d	0.20973606
53	0xbe1a8c8c	-0.15092677
54	0x3e97922a	0.29603702
55	0x3e99f337	0.3006837
56	0x3e4540d2	0.19263008
57	0xbde76b52	-0.112997666
58	0xbeaac90a	-0.33356506
59	0x3dbb14d0	0.09134829
60	0xbe7538fe	-0.23947522
61	0x3eb8d871	0.36102632
62	0xbec8d6b5	-0.39226308
63	0x3e8c7b16	0.27437657

fc2.weight f4 [32, 64]
0	0x3e0a4640	0.13503361
1	0x3d8032c6	0.06259684
2	0x3d2f35c0	0.04277587
3	0xbee1f130	-0.44129324
4	0x3eae2252	0.3401056
5	0xbcaef366	-0.021356296
6	0xbdaea592	-0.08527674
7	0x3df933f3	0.12168112
8	0x3d6fefda	0.05857835
9	0xbd2c41bf	-0.042054888
10	0x3dfc0a0f	0.12306606
11	0xbd9f59c3	-0.077807926
12	0xbd8167e0	-0.06318641
13	0xbe5a334b	-0.21308629
14	0xbc890d7c	-0.016730063
15	0xbdc3ba8a	-0.09557064
16	0xbdd6ae5c	-0.10482475
17	0x3b74f7b8	0.0037379097
18	0xbdb29642	-0.08720066
19	0xbd7bad20	-0.0614444
20	0xbe3069a8	-0.17227805
21	0xbc8d96bc	-0.01728379
22	0x3cf897b3	0.030345773
23	0xbdc9d2e5	-0.09854678
24	0x3e2a5ff4	0.16638166
25	0x3d1a6a88	0.037699252
26	0x3cbe00c4	0.023193724
27	0xbd88e41d	-0.06684134
28	0xba7604cf	-0.0009384872
29	0x3dd10ad7	0.10207146
30	0x3dff6a2c	0.124714226
31	0xbdce3655	-0.10068957
32	0x3ddd22e4	0.107976705
33	0x3d3eaf0f	0.046553668
34	0x3d63d691	0.05562455
35	0x3df90e59	0.1216094
36	0x3e0d1c15	0.13780244
37	0xbcafd393	-0.021463191
38	0x3e21fc6a	0.15818945
39	0xbd70413c	-0.058655962
40	0x3d03a93e	0.032143824
41	0x3e56ba1d	0.20969434
42	0xbce077a8	-0.027400807
43	0x3dbf42a9	0.09338886
44	0xbc74fc58	-0.014952742
45	0x3d993693	0.07481112
46	0x3d2ca44d	0.042148877
47	0x3dfc7ee8	0.12328893
48	0x3d94b9a8	0.072619736
49	0x3db0c45f	0.08631205
50	0x3d904602	0.07044603
51	0x3dc629b4	0.09675923
52	0x3dd90843	0.10597279
53	0x3c22d3cc	0.009938192
54	0x3d116232	0.035494037
55	0x3df54865	0.11976699
56	0xbc3bc1b5	-0.011459758
57	0x3dbf2736	0.09333651
58	0xbd484aec	-0.048899576
59	0xbd7d168f	-0.06178909
60	0xbceaf038	-0.028678998
61	0x3cdf75aa	0.027277786
62	0x3da68b3a	0.08132024
63	0x3e05547e	0.13020512
64	0x3df53b09	0.11974151
65	0x3dca19b0	0.09868181
66	0xbd9f5891	-0.077805646
67	0xbee92a02	-0.45539862
68	0xbe8ec428	-0.2788403
69	0xbc45dd69	-0.012076714
70	0x3d929ab7	0.07158416
71	0x3c1ad4a6	0.009450113
72	0x3df920b1	0.121644385
73	0xbcdca61a	-0.026934672
74	0xbd9152b4	-0.070958525
75	0xbd393310	-0.045214713
76	0x3e2b3819	0.16720618
77	0xbe560d03	-0.20903401
78	0xbdb74852	-0.08949341
79	0xbd2e2afb	-0.042521458
80	0xbbec9058	-0.0072193556
81	0x3dc3f4f8	0.095682085
82	0x3d76a916	0.060219847
83	0x3deb2ac8	0.11482769
84	0xbda4982b	-0.08036836
85	0x3c275df6	0.010215273
86	0x3e0fe778	0.14053142
87	0xbdd296d4	-0.102826744
88	0x3e5821e8	0.21106684
89	0x3dbfe516	0.093698665
90	0x3ab368fc	0.0013687904
91	0x3d88d22b	0.06680711
92	0xbe0754e4	-0.13215977
93	0xbdd33d5d	-0.103144385
94	0x3d57fbf2	0.05273051
95	0x3d84956a	0.06473811
96	0xbcf14f56	-0.029456776
97	0xbccf4c11	-0.025304826
98	0xbe0e6e31	-0.13909222
99	0x3e4fc931	0.20291592
100	0x3e7c165e	0.24617907
101	0xba172c8b	-0.000576683
102	0x3d479235	0.04872342
103	0x3d15793f	0.036492582
104	0x3e1cd07e	0.15313908
105	0x3f0279d0	0.5096712
106	0x3d2841bc	0.041078314
107	0x3eb2bb27	0.3490841
108	0xbd5c0c6c	-0.053722784
109	0x3cd273ed	0.025690043
110	0x3d8a7787	0.06761079
111	0x3c5f1ff8	0.013618462
112	0x3dce67bc	0.100783795
113	0xb89880a0	-7.271883e-05
114	0xbd3c4444	-0.04596354
115	0x3cbf52ec	0.02335497
116	0x3d21e89f	0.039528485
117	0x3dae8178	0.08520788
118	0x3cc72eb8	0.02431427
119	0x3e5bd23c	0.21466917
120	0x3cf88dbc	0.030341022
121	0x3d238dcc	0.03993015
122	0x3c46faa8	0.012144722
123	0xbd67285f	-0.056434985
124	0xbdfde85e	-0.12397836
125	0x3d1f1263	0.038835894
126	0xbc4420e8	-0.011970736
127	0x3e54783c	0.20748991
128	0x3dc01858	0.09379643
129	0xbcdf6890	-0.027271539
130	0x3d93b97a	0.07213111
131	0x3ec85af4	0.39131892
132	0xbedbc198	-0.42921138
133	0x3c042468	0.008065321
134	0x3d4ecc2d	0.050487686
135	0xbdb59c7e	-0.08867739
136	0xbdd05408	-0.10172278
137	0x3e1c56e5	0.15267523
138	0x3daf9d97	0.0857498
139	0xbda0bd3b	-0.07848593
140	0x3ccc2666	0.024920654
141	0x3e84dfd3	0.25952014
142	0xbdfc5ed6	-0.12322776
143	0x3e1f0b44	0.15531641
144	0x3d256910	0.0403834
145	0xbd1990f4	-0.037491754
146	0x3db307d6	0.08741729
147	0xbddae0dc	-0.1068742
148	0x3e213448	0.157426
149	0x3e1c9e62	0.15294793
150	0x3d370963	0.044686686
151	0x3c7015ed	0.014653665
152	0xbda7fafa	-0.08202167
153	0xbdb936ea	-0.09043677
154	0xbcffd7c8	-0.031230822
155	0xbc9743e7	-0.018464996
156	0xbd510742	-0.051032312
157	0xbda4b2fc	-0.08041951
158	0x3c59e515	0.013299246
159	0x3d9737b2	0.0738367
160	0xbdf830ad	-0.12118659
161	0xbd0c7596	-0.034291826
162	0x3d47d4cf	0.048786934
163	0x3d8a9b77	0.06767934
164	0x3b9701a1	0.0046083485
165	0x3d2a0b1c	0.0415145
166	0xbddde281	-0.10834218
167	0x3d4e6c43	0.050396215
168	0x3d85343d	0.06504104
169	0xbed77254	-0.42079413
170	0xbdcd7728	-0.10032493
171	0xbdf47a1f	-0.11937355
172	0x3d8bc59e	0.06824802
173	0xbe6105c8	-0.21974862
174	0xbb735b8a	-0.003713342
175	0xb93e447c	-0.00018145324
176	0x3d0193d0	0.031635106
177	0xbde9df15	-0.11419503
178	0x3d2dfe93	0.04247911
179	0x3daa3a8a	0.08311947
180	0xbea5816f	-0.32325312
181	0x3a9eb47c	0.0012108232
182	0xbc19ab75	-0.009379257
183	0xbea9bf3b	-0.3315371
184	0x3d01b4da	0.031666614
185	0x3c839ed4	0.016066946
186	0xbce8a5d8	-0.028399393
187	0x3e508160	0.20361853
188	0xbd42ce2c	-0.047559902
189	0xbd8bd127	-0.06827002
190	0x3c0bd06c	0.008533578
191	0xbec89fd6	-0.39184445
192	0x3cd5e8c8	0.026111975
193	0xbdadad0e	-0.08480273
194	0x3c6aef5f	0.014339297
195	0xbea50731	-0.3223205
196	0x3e79c1a0	0.24390268
197	0xbdd458a4	-0.10368469
198	0xbda66a27	-0.08125716
199	0x3d6ae987	0.057351615
200	0x3e69b5cc	0.22823256
201	0xbe13af03	-0.1442223
202	0x3d67a7f4	0.056556657
203	0xbdaa52dc	-0.083165854
204	0x3d004f10	0.0313254
205	0xbe03ead6	-0.12882552
206	0x3dc22dd6	0.09481399
207	0xbe6b96e6	-0.23006782
208	0x3d9e5736	0.07731478
209	0x3d85b310	0.06528294
210	0xbd01f425	-0.031726975
211	0x3df7f772	0.12107743
212	0xbe04d2c4	-0.12971026
213	0xbe01ae5d	-0.1266417
214	0xbd611b7f	-0.054957863
215	0x3cd57788	0.026057974
216	0x3dd6124b	0.10452708
217	0x3c232bdc	0.009959187
218	0xbd900578	-0.07032293
219	0xbd4ba6f4	-0.049719766
220	0x3caa6a50	0.020802647
221	0xbe040488	-0.12892354
222	0x3cbf4637	0.02334891
223	0xbb9de71e	-0.004818811
224	0xbd605d20	-0.05477631
225	0x3db0c720	0.0863173
226	0x3b78ccaa	0.0037963786
227	0x3def5322	0.11685778
228	0x3cd9d907	0.026592745
229	0x3bcdff5b	0.0062865443
230	0x3e12e2aa	0.14344278
231	0x3d436921	0.04770768
232	0xbc071de2	-0.008246871
233	0x3e818af2	0.2530132
234	0x3ceffca0	0.029295266
235	0x3c0a1de9	0.008429983
236	0x3d06d5f0	0.03291887
237	0x3e28468d	0.16433163
238	0xbd9e1f98	-0.0772087
239	0xbda79518	-0.08182734
240	0xbdb80802	-0.08985902
241	0x3e004f85	0.12530334
242	0x3e044f03	0.12920766
243	0x3c00315c	0.007824268
244	0x3e75b22c	0.23993748
245	0xbd2b2660	-0.041784644
246	0xbde47b94	-0.11156383
247	0x3e96db3c	0.29464138
248	0x3e14dfb2	0.14538458
249	0x3e524bf5	0.20536788
250	0xb817bc7c	-3.6176745e-05
251	0x3ce9385e	0.02846926
252	0x3d9ce7ae	0.07661377
253	0x3dce1b66	0.100638196
254	0xbdfe0272	-0.1240281
255	0x3e956599	0.29179075

fc2.bias f4 [32]
0	0xbcc6ecef	-0.0242829
1	0x3d9aa9b7	0.07551902
2	0xbdffc729	-0.12489159
3	0x3d917ec6	0.07104258
4	0xbbc203f8	-0.0059208833
5	0xbd9e4d80	-0.07729626
6	0xbe172a97	-0.1476234
7	0x3d85e448	0.06537682
8	0xbcd728f0	-0.026264638
9	0x3ddf0dba	0.1089129
10	0x3cb645e4	0.022250123
11	0x3c65ecc7	0.014033503
12	0xbd0fea67	-0.035135653
13	0xbc8dd5b4	-0.017313816
14	0xbb5a00af	-0.0033264568
15	0xbdabfe72	-0.08398141
16	0x3da0eeba	0.078580335
17	0xbda13330	-0.07871091
18	0x3d85e5fe	0.06538008
19	0xbd2cacc8	-0.042156965
20	0x3dc24c2a	0.094871834
21	0x3dbbcd1e	0.091699824
22	0xbd7835f2	-0.06059832
23	0x3dc725bf	0.09723996
24	0x3d8f5624	0.06998852
25	0xbdb6ad0d	-0.089197256
26	0x3d8a4cc2	0.06752922
27	0x3d82c7f4	0.06385794
28	0x3e020e39	0.12700738
29	0xbdf3aa04	-0.11897662
30	0x3e1dda5e	0.15415332
31	0x3da95fee	0.0827025

fc3.weight f4 [1, 32]
0	0x3e5f570a	0.21810547
1	0x3eb65986	0.35615176
2	0xbe1651e5	-0.14679678
3	0x3e6b7796	0.22994837
4	0x3e256c43	0.1615458
5	0xbd56c8e9	-0.052437697
6	0xbe026784	-0.127348
7	0x3e0da3c5	0.13832004
8	0x3e6f47f9	0.23367299
9	0x3e1ec5d0	0.15505147
10	0x3e0aabc8	0.13542092
11	0xbe3f7041	-0.18695165
12	0xbc8aa643	-0.016924983
13	0xbd909fb9	-0.07061715
14	0x3e98ef06	0.2986986
15	0x3e22c9f1	0.15897347
16	0xbe0bd0b1	-0.13653828
17	0xbcb5e432	-0.022203539
18	0xbe0aebd5	-0.13566525
19	0xbe2a58bb	-0.1663541
20	0x3e614a8a	0.2200109
21	0xbd9ad4ea	-0.075601414
22	0x3e10dcc1	0.14146711
23	0xbd09147a	-0.033466794
24	0xbf0ceccf	-0.5504884
25	0x3d0b5324	0.034014836
26	0x3e43f237	0.19135366
27	0xbc9480bd	-0.018127793
28	0x3e3e7edb	0.18603079
29	0x3dd3cddf	0.10342001
30	0x3eaf655f	0.34257028
31	0xbe1a250e	-0.15053198
