results/AlsomitraProperty1/alsomitra/DL2.onnx (onnx, 10944 bytes, 5 tensors)

fc1.weight f4 [64, 6]
00000000: 0f0c e0bd ff3c 573e aded 65bc b63b 86be
00000010: d4a6 e63d 7a9b e0bd b9d2 be3e ab68 b5be
00000020: 6f09 04be bccc c9be 21a0 24be 3dc6 033e
00000030: b9e6 bb3e 942d d43c 625b b63e 3627 e83d
00000040: ec47 8a3e 7479 a63e f005 c73e 8ece 1dbe
00000050: 3bc3 f93e 7303 bbbd fc94 5cbe 72ed 57be
00000060: 7dce 51be b3ce 5a3e 39d7 51be 402c 813e
00000070: 0cdc b63e ce6e c9be a9e0 ab3d 7a34 a9bd
00000080: 07c4 0e3e 85c6 863e 3433 c3be 3cd0 c03e
00000090: 006a a33e 34b7 fc3d 685d cdbe 881a 2dbe
000000a0: 1eac 0fbe df6f ffbd 858c 5b3e 8f78 e23d
000000b0: 6165 923e 408d 06be 5a6b 253e f1bf 273e
000000c0: 44ad 92be bf0c f6be d866 34be 9d87 883e
000000d0: 0423 b3be 1859 a8be c2da 613e 12ce 803e
000000e0: 3b6e c03e ad4c 96be 6d97 a6be 5b5b 473e
000000f0: 847c ac3e 3492 593e 0786 e43c 76d8 113e
00000100: e0a0 ce3e c49c 84be 4b5b 48be e3b7 8b3e
00000110: 1802 8fbe 1713 71be fcf3 8d3e b35e f03d
00000120: 75f1 143e 6488 33be e51a 3d3a f550 953e
00000130: 5c4b 9bbe d438 7b3b cf4b 823e 4e7e 52be
00000140: 63e4 053f 82bb febe b71a dbbd 803e 11be
00000150: 2149 82be a830 c9be 240c 603e c3e0 ed3d
00000160: 7574 c9be 92e9 8cbe 4db4 df3e b624 513e
00000170: 89fb 8b3e 662a 09bf c20f 50be 3d76 b9bd
00000180: 0ce4 98bd 1238 8fbe c8bf 093d 702e 263d
00000190: d0b4 53bd 64ca 673d 5892 0abe 11dc e73d
000001a0: ba75 033e 853f f5be 370f 47bf 3781 b33e
000001b0: 4c93 a23d 8622 5dbe 9e68 cc3e cbaa b4be
000001c0: aa86 8d3e 4cb5 333e a33b afbe 3fcb 863e
000001d0: e529 c0be 8993 67be 1760 8bbd a9e0 8cbe
000001e0: dd01 c43e 8f49 8fbd ee29 143e fbbf 85be
000001f0: 12b7 cb3e 57e5 0bbf c0f9 b8be db37 b73d
00000200: 900a b6bd ace2 1a3f 7f6f dbbe f42a fd3d
00000210: 16dc 763d 6c0c 863d 459a f03d 866e 5b3e
00000220: 9344 b0bd 8c85 7e3e 58b2 833e bd3a 2bbe
00000230: c740 663e da35 343e 1d15 b13e fa93 84be
00000240: b44a 56be 0dd4 2ebe 8dfc bfbc b05f 2b3e
00000250: 5017 c0be 6a0d 923e 68ce 15be a684 7c3e
00000260: 8bc4 9ebc d41b b7be 3200 66be 6644 97be
00000270: cc4e 4f3e 7725 8cbe 4d4f 0bbd cb60 b43d
00000280: 153a 65be 0129 f13d 805b d0be 3817 98be
00000290: abb6 bebe d90b 06be 78b8 30be 7957 003d
000002a0: 4519 b6bd 9daf 2d3e 3f9b b03e c5ba 323e
000002b0: 901b 0ebe 102d c1be cba4 223e 9664 2fbe
000002c0: 571e 5b3e ac0f b43e ece9 3d3e c886 c43e
000002d0: 662e b63e fe30 973c 4d76 c2be 43d7 af3e
000002e0: 9a4d 6dbe a6d9 3ebe 27e7 a53e efac 8c3e
000002f0: b716 b63d 1848 9b3c 3866 a7be 3714 bcbc
00000300: d127 c03e 09c7 ac3d 63d1 553c 175d 54bd
00000310: f6e5 08be 49e0 7f3e b741 ad3b 02b7 7d3e
00000320: 0483 d2bd 8fa0 513e 71e0 733e 77cb b63b
00000330: 6704 713e 9bd5 663e 77b2 af3e bba3 ae3e
00000340: 5d21 adbd d4d4 afbe 53f0 5a3d d7e5 67bd
00000350: 6c29 1dbe 879e 96bd 16fb 213d b025 a23e
00000360: 04b7 003e 3c43 33be e3e0 46be 11e9 b4bd
00000370: 730e a7bd 3048 c53e f6fd 3f3e 04ea b43e
00000380: e8cf 59bd 931c ba3e eeb9 583e 1c02 0abf
00000390: 6e4b e3bc f1e8 0fbe db79 b0be 4865 a5be
000003a0: f469 d93e 1f33 8a3e f85a 1a3e 78d9 b93e
000003b0: 358f 5fbe f825 be3d 050d 3f3e c2d9 f0bd
000003c0: 21cc d5bd 6d0c cabe 3842 733d 0f46 8ebe
000003d0: 78b7 473d 175b bf3e 9eb6 fcbd 460f 49be
000003e0: 2587 303e 052d d7be c918 65be 555e ff3e
000003f0: a69b 23be 2434 86be c42b 47be bc19 bdbd
-0.109398 0.21019362 -0.014033717 -0.2621743 0.11262289 -0.10967155 0.37270144 -0.35431418
-0.12894224 -0.39414012 -0.1607671 0.1286859 0.36699465 0.02590064 0.35616595 0.11335604
0.27007997 0.32514536 0.38871717 -0.15410826 0.48781762 -0.09131517 -0.21541208 -0.21086672
-0.20488925 0.21367912 -0.20492257 0.25229073 0.35714757 -0.3934235 0.0839246 -0.08261962
0.13941966 0.26323333 -0.38125002 0.3765887 0.3191681 0.12339631 -0.40110326 -0.16904652
-0.14030501 -0.124725096 0.21440323 0.11058151 0.2859297 -0.1313982 0.16154233 0.16381814
-0.28647816 -0.480566 -0.17617357 0.26665965 -0.34987652 -0.32880473 0.22056106 0.2515722
0.375841 -0.29355374 -0.32537404 0.19468443 0.33688748 0.21247178 0.02789594 0.1424273
0.40357113 -0.25900853 -0.19566076 0.27288732 -0.27931285 -0.23542438 0.27725208 0.117368124
0.14545234 -0.17532498 0.00072137854 0.29163328 -0.30330932 0.0038333433 0.25448462 -0.20555994
0.52301615 -0.49752432 -0.10698455 -0.14183998 -0.25446418 -0.39294934 0.21879631 0.116151355
-0.39346662 -0.2752195 0.43692246 0.2042416 0.27340344 -0.5358032 -0.20318511 -0.09055755
-0.074653715 -0.27972466 0.033630162 0.04057163 -0.051686108 0.0565895 -0.13532388 0.11321271
0.12837878 -0.47900024 -0.7775759 0.3505952 0.07938251 -0.21595201 0.39923567 -0.35286555
0.27641803 0.17549628 -0.34225187 0.2632694 -0.37531963 -0.22614874 -0.06805437 -0.27515152
0.38282672 -0.06996452 0.1446912 -0.26123032 0.3978811 -0.5464682 -0.36128044 0.089462005
-0.088887334 0.60502124 -0.42858502 0.12361708 0.060268484 0.06545338 0.117481746 0.2142888
-0.086068295 0.24855632 0.25722003 -0.16721626 0.22485648 0.17598668 0.3458642 -0.25894147
-0.20926934 -0.17073078 -0.023435855 0.1673572 -0.37517786 0.2852586 -0.14629519 0.24659976
-0.019380828 -0.3576342 -0.22461012 -0.2954437 0.20244902 -0.27372333 -0.034011174 0.08807524
-0.22385438 0.11775399 -0.4069481 -0.29705215 -0.3724874 -0.13090457 -0.17257869 0.03133342
-0.088915385 0.16961522 0.34493443 0.1745406 -0.13877702 -0.37729692 0.15883176 -0.17128214
0.21398292 0.35168207 0.18546265 0.3838408 0.35582274 0.018455978 -0.3798088 0.3434392
-0.23174134 -0.18637714 0.32402918 0.27475688 0.08891051 0.018955275 -0.32695174 -0.022958858
0.37530378 0.084364004 0.01305041 -0.05184659 -0.13368973 0.24987902 0.005287375 0.24776843
-0.102788955 0.20471404 0.23816086 0.005578454 0.23536836 0.22542422 0.34315845 0.3410929
-0.08453629 -0.34342062 0.053451847 -0.056615677 -0.15347832 -0.073544554 0.039546095 0.31669378
0.12569815 -0.17506117 -0.19421725 -0.088335164 -0.08157053 0.38531637 0.18749222 0.3533479
-0.05317679 0.36349925 0.21164677 -0.5390947 -0.027745929 -0.14053704 -0.34467968 -0.32303834
0.42463648 0.26992127 0.15073764 0.36298728 -0.21831973 0.09284586 0.1865731 -0.11760284
-0.10439325 -0.39462605 0.059389323 -0.27787825 0.048758954 0.37374184 -0.12339519 -0.19634733
0.17239054 -0.42026535 -0.22372736 0.49876657 -0.15977344 -0.26211655 -0.19450289 -0.09233424

fc1.bias f4 [64]
00000000: 496a da3e 90e3 96be 2115 7c3e 5c8f acbe
00000010: 85e6 a73e 0b1f a83e 31cb 993e 5748 a83e
00000020: cbaa 923e 8431 09bd 4c73 533e 4c00 26be
00000030: f34c 283e c9d0 5dbe 1cc8 96bc a33c e5be
00000040: ea96 dabd fde1 edbd 1b4c 27be 3377 85be
00000050: 1da1 bebe 7de8 3d3e a8ae 993e aec7 b33e
00000060: 06de 983e 5aa9 58be cdb2 cebe 741b 023e
00000070: ac70 813e 857b b2be fff9 2d3e 8c3d c03e
00000080: 4925 263d 364c 84be c81e b53e 023b 573e
00000090: 8603 a33e 5748 80be e9dc 753e 4b4c 95be
000000a0: a178 d93e 9074 00be beee 8c3e a060 173e
000000b0: b44b 953e 45c1 04bc a0bf 3e3e d622 34be
000000c0: 50fe c4be 4107 13be 5538 b53e 2017 dcbd
000000d0: 703d 5d3e 8c8c 1abe 52da ae3e 4b93 913e
000000e0: 0ea8 703e e827 12be 0ac9 aabe eb59 ab3d
000000f0: 0765 84be c1be be3e b5d6 c8be 07b7 743e
0.42659214 -0.2947049 0.24617435 -0.33703125 0.3279306 0.32836184 0.30037835 0.3286769
0.2864593 -0.033494487 0.20649451 -0.16211051 0.16435604 -0.21661676 -0.018405966 -0.44772825
-0.10673316 -0.116153695 -0.16337626 -0.26067504 -0.37232295 0.18545718 0.30016065 0.3511328
0.2985689 -0.21158352 -0.4037079 0.12705785 0.25281274 -0.34859863 0.16989897 0.37546957
0.0405629 -0.25839394 0.35375047 0.21018603 0.31838626 -0.2505519 0.24010052 -0.2915977
0.42474845 -0.12544465 0.27525896 0.14782953 0.2915932 -0.00810272 0.18627787 -0.17591414
-0.38475275 -0.14358236 0.3539454 -0.10746598 0.21605468 -0.15092677 0.3415094 0.28432688
0.23501608 -0.14273036 -0.33356506 0.0836676 -0.25858328 0.3725491 -0.39226308 0.23897944

fc2.weight f4 [32, 64]
00000000: 37d4 133e c632 803d d916 443d da0a b8be
00000010: f48a 7e3e a563 a5bb a471 abbd 60c7 043e
00000020: b7f3 29bc e484 0dbd 452b ed3d 1be1 81bd
00000030: 1e95 7cbd 40d8 27be 9dbd c83a cf8d d3bd
00000040: 5cae d6bd cbf6 e63e 4a2a afbd 20ad 7bbd
00000050: 1176 8ebe 6c73 d4bd a95d 193d 91d6 b5bd
00000060: 8b9d 163e 886a 1a3d c400 be3c ecbc 33bd
00000070: 48d0 873b 95b3 783d 43b0 023e 1834 c1bd
00000080: 2a0f e43d 2a55 193d 11ee 683d 8670 fe3d
00000090: be8e 0f3e 7f33 eabc 7d53 1a3e b1df 8ebd
000000a0: 58fe 423d 7a25 ba3c 46e1 b13b 51bd 2c3e
000000b0: b72b 053f 177a 823d d35d 593d e52a 043e
000000c0: a8b9 943d 4704 663d 77ac 8d3d b429 c63d
000000d0: 047c ae3d ccd3 223c fb50 ba3d 07f0 4bbd
000000e0: b9ea 553c a8c7 cf3c ec4a 48bd bd36 a43d
000000f0: b33e 29bc be2e 263d 3a8b a63d 4d19 aa3c
00000100: 7f08 0c3e b019 ca3d 9282 8dbd 35cb a3be
00000110: 2583 b8bd c7d5 e0bc 9dd0 ca3b 47fc a83c
00000120: ac57 453c 1dcf 19bd b46e 3fbd defa eebc
00000130: 0a78 2b3e 10e5 0dbe 24c2 91bd 4e79 b3bc
00000140: 5890 ecbb a461 113f f58f 9f3d c82a eb3d
00000150: 1f28 4fbd cb26 09be 8972 0d3e 0e01 2cbd
00000160: 8ed2 2e3e 16e5 bf3d fc68 b33a 325f b83d
00000170: fe9d 87bd 670f 11be 5d27 843d db3c 873d
00000180: 16cd 45bd fbff 3d3d 4c44 d6bd 49e2 1e3e
00000190: d7d5 333e 7b2d bb3d 84c6 b3bc 15be 343d
000001a0: 3cae a13d 6bf7 443e d834 983d aa0a 9e3e
000001b0: a65e 083f e874 243d a1f8 a53d d4ea 9e3c
000001c0: bc67 ce3d e887 75bd 1af1 28ba ec52 bf3c
000001d0: 20c4 163d 7881 ae3d 7e2d ac3d 744c 35bd
000001e0: e621 fe3d 956c 54bd a8fa 463c 3264 af3d
000001f0: 3b50 d8bd e189 983c e820 44bc de0a 173d
00000200: 284e ba3d 9068 dfbc 6452 8a3d 0e0e 933e
00000210: dd42 bebe 47c6 aab9 9661 823d 3bad bfbd
00000220: 9df5 dcbd 2627 153e d5e6 bd3d 33bc a0bd
00000230: d54e 083d 3fd8 443e f8e2 10be 9d3b 2b3e
00000240: 1069 253d 0f9c 08bf 5fdf ab3d dce0 dabd
00000250: 2307 8e3e 83bf 0abd ca7a 303d c9eb 783b
00000260: 6146 e4bc ea36 b9bd c8d7 ffbc 440d 12bd
00000270: 03c6 6ebd 6d63 6bbd 3cb0 a33b 4e83 923d
00000280: 04a5 f8bd b885 6bbb 6de3 3b3d ca2e a23d
00000290: db46 d13c e6ac 503d 788a b4bd 4476 913d
000002a0: c9e1 723d 5777 71be 9df5 00be 83d3 36be
000002b0: e1df 08bf a1ce 4ebe edd3 c0bc 7c44 3eb9
000002c0: d093 013d f48a 98bd f58f 373d 8a3a aa3d
000002d0: 8c3e 84be 7cb4 9e3a e5d9 a2bd f8c0 17bd
000002e0: fcd7 9e3a 10e5 01bc d8a5 e8bc 221c 31bd
000002f0: e6f0 86bd 26e4 8fbd 6cd0 0b3c 7588 34be
00000300: 3610 073d 0ead adbd b719 853c 9908 71be
00000310: 92f0 1d3e 4454 b8bd 5224 adbd a54f 7e3d
00000320: cde3 173e ff11 10be d676 3b3d f3a5 8cbd
00000330: 88a9 073d fbe2 9abd 45a5 e73d 021c 6fbe
00000340: 3657 9e3d a55e 053f a530 0cbd 72f7 f73d
00000350: 576e 7fbe 1aa9 5abe f347 51bd 20db 0c3d
00000360: a2be aa3d dc2b 233c 7805 90bd d06d dabc
00000370: 99eb ca3c 0ebc 35be 4f83 cf3c b7e4 eaba
00000380: bb95 64bd 3ed8 9a3d cfcb 1c3b c7e5 eb3d
00000390: d7b0 c03c cc90 8cbb 3e49 073e 9b73 083d
000003a0: 5b22 8b3b a7ec 303d c808 7f3d 7a80 a23d
000003b0: 4df8 153f 597e 1c3e 70a5 85bd 47be 9bbd
000003c0: 0208 b8bd 56da b13d bf0d 003e 5c31 003c
000003d0: 52bf 5d3e 6026 2bbd 19dd 4dbd ec72 db3d
000003e0: 6850 2d3e 0ae4 043e 7cbc 17b8 b8f1 3e3e
000003f0: 687b c23d a776 e33d 7202 febd bef1 2d3e
0.14436422 0.06259684 0.04787335 -0.3594578 0.24857694 -0.005047279 -0.083712846 0.1296668
-0.010373048 -0.034550563 0.11580519 -0.063417636 -0.061665647 -0.16391087 0.0015315298 -0.10329782
-0.10482475 0.45110163 -0.08552988 -0.0614444 -0.27824453 -0.103735775 0.037442837 -0.08878816
0.14708535 0.037699252 0.023193724 -0.04388134 0.004144702 0.060718138 0.12762551 -0.09433764
0.11135705 0.037434734 0.056867663 0.12423806 0.14019296 -0.028589008 0.15070911 -0.069762595
0.047605842 0.022722948 0.005428466 0.16869093 0.5201983 0.06370943 0.053067993 0.12906988
0.072619736 0.056156423 0.06917661 0.09675923 0.08519748 0.009938192 0.09097477 -0.049789455
0.0130564505 0.025363758 -0.048899576 0.08018253 -0.01032989 0.04057192 0.08132024 0.020764017
0.13675116 0.09868181 -0.0690967 -0.31990972 -0.09009389 -0.027445687 0.0061894194 0.020628108
0.012044828 -0.037551034 -0.046736434 -0.029172357 0.1674501 -0.13856912 -0.071171075 -0.021908429
-0.0072193556 0.5678961 0.077911295 0.11482769 -0.05057537 -0.13393705 0.13813223 -0.041993193
0.17072508 0.093698665 0.0013687904 0.09002532 -0.066219315 -0.14166032 0.064528205 0.06603404
-0.04829129 0.0463867 -0.10462245 0.15516008 0.17562042 0.09139534 -0.021945246 0.04412659
0.07894561 0.19235007 0.07431954 0.3086751 0.5326942 0.040150553 0.08104063 0.019399084
0.100783795 -0.059944063 -0.00064446183 0.02335497 0.036808133 0.08520788 0.084071144 -0.044262365
0.12408809 -0.051861364 0.012144722 0.085640326 -0.10562178 0.018620433 -0.011970736 0.036875598
0.09096938 -0.027271539 0.06753996 0.2872166 -0.37160388 -0.00032572655 0.06366269 -0.09359213
-0.107890345 0.14565715 0.09272543 -0.07848396 0.033278305 0.19223116 -0.14149082 0.1672196
0.0403834 -0.53363127 0.08392214 -0.1068742 0.2773982 -0.033874046 0.04308585 0.0037982336
-0.02786559 -0.09043677 -0.031230822 -0.035657182 -0.058294307 -0.057467867 0.004995374 0.07153951
-0.12140849 -0.0035937857 0.045871187 0.079190806 0.025546482 0.05094614 -0.08815473 0.071026355
0.059297357 -0.23580681 -0.12593694 -0.17854123 -0.5346661 -0.2019601 -0.023538554 -0.00018145324
0.031635106 -0.07448378 0.044815022 0.08311947 -0.2582897 0.0012108232 -0.07951716 -0.037049264
0.0012118812 -0.007928148 -0.028399393 -0.04323972 -0.065889165 -0.07025938 0.008533578 -0.17630179
0.032974444 -0.08480273 0.016247613 -0.23538436 0.15423802 -0.090004474 -0.08454193 0.062087674
0.14832993 -0.14069365 0.045767628 -0.0686759 0.033120662 -0.07562824 0.113108195 -0.23350528
0.07731478 0.5209754 -0.03422608 0.12107743 -0.24944435 -0.2135357 -0.051094007 0.03438866
0.083371416 0.009959187 -0.07032293 -0.02666369 0.024770545 -0.17747518 0.025331168 -0.0017920946
-0.055806857 0.07560776 0.002392519 0.11518436 0.023521824 -0.004289722 0.13211533 0.033313375
0.004246039 0.04319444 0.062264234 0.07934661 0.58582 0.15282573 -0.06525695 -0.07604652
-0.08985902 0.086842224 0.12505244 0.007824268 0.21655014 -0.041784644 -0.050259683 0.10715279
0.16925204 0.12977615 -3.6176745e-05 0.18646896 0.09496194 0.111066155 -0.1240281 0.16986749

fc2.bias f4 [32]
00000000: 12a9 4abc 2e86 973d c2db 04be d4a6 a43d
00000010: f803 c2bb 1ef2 9bbd 2f63 25be 48e4 853d
00000020: 4b11 6bbc 1728 f83d ec5e 843d 5057 433b
00000030: 01bf 0fbd b4d5 8dbc 87ea 103c edae 98bd
00000040: 03e4 853d 3033 a1bd dce5 853d a4fd 5bbd
00000050: e961 db3d ece1 a63d 5d9b 41bd 7ed6 c53d
00000060: 7446 f5bb eeca 9fbd 7140 a33d 929c 683d
00000070: cd50 0e3e 04aa f3bd 828d 1b3e 68df a53d
-0.012369411 0.073986396 -0.12974456 0.080396324 -0.0059208833 -0.076145396 -0.16151117 0.06537682
-0.014347385 0.121170215 0.064634174 0.002980668 -0.035094265 -0.017313816 0.008844978 -0.074552394
0.065376304 -0.07871091 0.06537983 -0.053708687 0.10712034 0.0814856 -0.047267307 0.09660052
-0.0074852053 -0.07802378 0.079712756 0.056789942 0.1389801 -0.11897662 0.151907 0.08099252

fc3.weight f4 [1, 32]
00000000: 4732 5d3e 6c23 5d3e 7696 11be 1619 5c3e
00000010: 436c 253e f91f 58bd 47f3 16be c5a3 0d3e
00000020: dec6 783e 88ea 243e b778 ae3e 97a7 17be
00000030: 6547 8bbc b99f 90bd d887 9c3e 5837 0e3e
00000040: 77d8 ffbd 32e4 b5bc b8f1 0abe a58a 1ebe
00000050: b615 643e fd5f 8abd e689 0a3e a992 04bd
00000060: 9c99 e2bc 7e96 b3bd 88d3 413e 6c7b 48bc
00000070: d7f1 473e dfcd d33d 4e71 713e 7073 16be
0.2160121 0.21595544 -0.14217553 0.21493945 0.1615458 -0.052764867 -0.1474124 0.13832004
0.24294612 0.16105092 0.34076473 -0.14810024 -0.017001817 -0.07061715 0.3057239 0.138883
-0.12492459 -0.022203539 -0.13568771 -0.15482576 0.22273907 -0.067565896 0.13529167 -0.03236643
-0.027661137 -0.087689385 0.18928349 -0.012236457 0.19525848 0.10342001 0.23578379 -0.14692473
