results/AlsomitraProperty1/alsomitra/GD.onnx (onnx, 10944 bytes, 5 tensors)

fc1.weight f4 [64, 6]
000000 8b 5f db bd eb b3 58 3e 21 d6 4a bc 6b 11 8e be
       -0.10711583 0.21162383 -0.012380154 -0.27747664
000010 d8 ce e6 3d 9e 97 e3 bd b9 d2 be 3e ab 68 b5 be
       0.11269921 -0.11112903 0.37270144 -0.35431418
000020 6f 09 04 be bc cc c9 be 21 a0 24 be 3d c6 03 3e
       -0.12894224 -0.39414012 -0.1607671 0.1286859
000030 1d f9 ba 3e ef 40 9d 3c 4c 1d b5 3e 45 09 98 3d
       0.36518183 0.019196002 0.35373914 0.07423643
000040 89 8e 84 3e 1a f2 a9 3e d9 56 c8 3e 46 65 20 be
       0.25889996 0.3319252 0.3912876 -0.15663633
000050 6f c2 fc 3e 32 0b d9 bd 1c bc 55 be 84 4c 4c be
       0.4936709 -0.105978385 -0.2087254 -0.19951063
000060 cb 9e 46 be 4c ba 5f 3e f4 c0 3e be e7 a7 42 3e
       -0.19396512 0.2184841 -0.18628293 0.19009362
000070 df 5d b5 3e 5b fa c0 be 12 4c aa 3d 88 eb ad bd
       0.3542318 -0.37691006 0.083152905 -0.0849219
000080 a2 b2 0f 3e 25 b9 6d 3e 97 77 c7 be 2c 13 c2 3e
       0.14032987 0.23215158 -0.38958427 0.37905252
000090 c7 f4 a4 3e e0 87 04 3e 90 d5 c9 be a8 85 30 be
       0.32218 0.12942457 -0.39420748 -0.17238486
0000a0 79 f9 11 be e5 78 00 be b2 c1 5b 3e e1 7e df 3d
       -0.14255323 -0.12546118 0.21460608 0.10912872
0000b0 95 9c 92 3e 88 90 1f be 1d c9 22 3e 27 9f 27 3e
       0.28635088 -0.15582478 0.15897031 0.16369306
0000c0 33 e9 91 be 55 ca fc be 8f 6c 12 be 05 f9 91 3e
       -0.2849823 -0.49373117 -0.14299224 0.285103
0000d0 18 c7 b2 be db 96 a7 be ac b9 56 3e 76 6d 6f 3e
       -0.3491752 -0.3273228 0.20969266 0.233816
0000e0 e1 c3 b6 3e f2 c3 8e be 09 5b a4 be 54 92 4a 3e
       0.3569632 -0.2788387 -0.32100704 0.19782382
0000f0 ae 20 ad 3e 43 e6 57 3e ca 81 ef 3c 70 5a 01 3e
       0.33813995 0.21083932 0.029236693 0.12632155
000100 b2 b1 ce 3e c5 c2 80 be 40 5b 48 be 9b 60 8c 3e
       0.40369946 -0.25148597 -0.19566059 0.27417454
000110 e0 dd 92 be 0c 13 71 be ca ba 8d 3e 95 f0 f1 3d
       -0.28684902 -0.23542422 0.2768157 0.118134655
000120 18 43 16 3e e1 ff 24 be 06 96 0f 3c cc 32 a5 3e
       0.14674032 -0.16113235 0.008763796 0.32265317
000130 7d cd 9b be d6 89 fc bb 1b a7 83 3e 3f dc 55 be
       -0.30430213 -0.007706861 0.2571343 -0.20884798
000140 1f a1 06 3f b6 13 fe be 25 57 b7 bd 17 25 08 be
       0.525896 -0.49624413 -0.089521684 -0.13295399
000150 34 2a 87 be 48 f1 c6 be 2a f1 63 3e 68 b0 ee 3d
       -0.26399386 -0.38855958 0.22259966 0.116547406
000160 9f dd c7 be 40 12 8c be fe 14 e2 3e 61 81 50 3e
       -0.3903627 -0.27357674 0.4415664 0.20361854
000170 7a d7 8f 3e fc 0c 09 bf ec 05 3f be 3c 99 a5 bd
       0.28094083 -0.5353544 -0.18654603 -0.08085868
000180 0c e4 98 bd 12 38 8f be c8 bf 09 3d 70 2e 26 3d
       -0.074653715 -0.27972466 0.033630162 0.04057163
000190 d0 b4 53 bd 64 ca 67 3d b2 5a 0e be 34 a7 f3 3d
       -0.051686108 0.0565895 -0.13901785 0.11897126
0001a0 e9 a6 fd 3d 28 55 01 bf 55 d6 4d bf dd d8 b5 3e
       0.12385351 -0.50520563 -0.8040517 0.35517016
0001b0 0b bb ac 3d 33 a3 5d be fe 77 cb 3e 0a 5f 96 be
       0.08434113 -0.21644287 0.39739984 -0.29369384
0001c0 c7 e8 92 3e 11 b2 58 3e a3 3b af be 3f cb 86 3e
       0.2869322 0.21161677 -0.34225187 0.2632694
0001d0 e5 29 c0 be 89 93 67 be 17 60 8b bd a9 e0 8c be
       -0.37531963 -0.22614874 -0.06805437 -0.27515152
0001e0 66 17 c2 3e 63 b6 94 bd 46 61 10 3e c2 ac 7b be
       0.37908477 -0.0726135 0.14099607 -0.2457762
0001f0 06 39 cd 3e 8b 94 07 bf 09 63 a4 be 0d 04 4c 3d
       0.40082568 -0.52961034 -0.32106808 0.04980855
000200 c1 3c 90 bd 42 34 1e 3f ad 3a 86 be a3 6a 81 3d
       -0.07042838 0.6179849 -0.2621664 0.063191675
000210 3a 98 80 3d a2 6f 8d 3d 05 09 f4 3d 22 ea 57 3e
       0.06279035 0.06906058 0.11915783 0.21085408
000220 1a 1d 9e bd 84 fd 7c 3e bc 41 84 3e ee 7b 30 be
       -0.077203944 0.24706084 0.258314 -0.17234775
000230 b2 ab 66 3e d2 ba 1a 3e e5 dd ad 3e 4d 38 82 be
       0.22526434 0.15110329 0.33958355 -0.2543358
000240 2f 02 4e be 76 ff 22 be 45 e8 19 bc 10 e8 15 3e
       -0.2011802 -0.15917763 -0.009393756 0.14639306
000250 e0 51 bc be a1 44 84 3e 68 ce 15 be a6 84 7c 3e
       -0.36781216 0.2583361 -0.14629519 0.24659976
000260 8b c4 9e bc d4 1b b7 be 32 00 66 be 66 44 97 be
       -0.019380828 -0.3576342 -0.22461012 -0.2954437
000270 cc 4e 4f 3e 77 25 8c be 4d 4f 0b bd cb 60 b4 3d
       0.20244902 -0.27372333 -0.034011174 0.08807524
000280 15 3a 65 be 01 29 f1 3d f1 b8 cf be 40 f9 98 be
       -0.22385438 0.11775399 -0.40570787 -0.29877663
000290 80 92 c0 be de 0b 06 be 22 8f 31 be e1 fd 09 3d
       -0.3761177 -0.13090464 -0.17339757 0.033689383
0002a0 0a ef b9 bd a3 7d 2a 3e 9f a5 b0 3e 68 bd 24 3e
       -0.09078796 0.16649489 0.3450136 0.16087878
0002b0 95 8d 0f be f1 79 bf be 8d 0a 24 3e c1 12 2d be
       -0.14018853 -0.3739772 0.1601965 -0.16901685
0002c0 ae 30 59 3e db a4 c6 3e 8e 85 44 3e 01 89 ce 3e
       0.21209976 0.3879765 0.19191572 0.403389
0002d0 63 a3 b7 3e 05 76 81 3c 11 cc c2 be 35 60 9b 3e
       0.35866842 0.015803346 -0.38046315 0.30346838
0002e0 52 d9 75 be 31 3f 3d be e9 51 a5 3e a7 32 8b 3e
       -0.24008682 -0.18481137 0.32289055 0.27187082
0002f0 0e 06 b1 3d 00 ef a3 3b 72 50 a5 be cb 99 be bc
       0.08643733 0.0050028563 -0.32287937 -0.023266694
000300 e1 0a bd 3e b6 48 8d 3d 93 10 5e 3b 9e fd a4 bd
       0.36922362 0.06898634 0.003388439 -0.08056186
000310 66 34 03 be 25 57 7f 3e 78 2a 32 3c cb 43 81 3e
       -0.12812957 0.24935587 0.010874383 0.25247034
000320 16 07 c6 bd fb f4 2f 3e 06 e9 60 3e 1e 44 ce 3b
       -0.0966932 0.17183296 0.21963891 0.0062947413
000330 a6 9f 70 3e d4 7b 61 3e f1 63 b0 3e fd ae 9f 3e
       0.23498401 0.22019893 0.3445125 0.31188193
000340 61 61 b1 bd b5 86 ae be af 62 62 3d 5a 9d 5c bd
       -0.08661152 -0.34087148 0.055269893 -0.053861
000350 3a 70 1a be 32 13 bc bd e2 a0 1b 3d 89 c9 a1 3e
       -0.15081874 -0.09183349 0.037995227 0.31599072
000360 1a 97 02 3e e6 92 2e be 3c 7b 43 be 49 22 ca bd
       0.12752953 -0.17048225 -0.19089979 -0.098698206
000370 cf c5 a8 bd 62 eb c4 3e c6 82 41 3e af 31 b4 3e
       -0.08240854 0.38460833 0.18897542 0.35194156
000380 b8 ec 56 bd 29 f9 bd 3e 87 26 6d 3e 8c 81 0f bf
       -0.052471846 0.37104157 0.23159228 -0.5605705
000390 64 3f ca bc 50 de 0e be 69 c7 ad be 33 f9 c1 be
       -0.02468843 -0.13951993 -0.339412 -0.37885436
0003a0 2f 3c d5 3e 6f a0 8e 3e 5f 4d 1b 3e cd 08 ba 3e
       0.4164748 0.27856776 0.15166233 0.3633484
0003b0 13 4d 5e be a5 c1 b6 3d ca 36 45 3e f6 c4 fb bd
       -0.21709089 0.089236535 0.19259182 -0.12293427
0003c0 d0 a9 0f be 32 03 e3 be fc 3c e9 3c ab ff db be
       -0.14029622 -0.44338375 0.028471462 -0.42968497
0003d0 33 d7 e2 bc e7 01 ba 3e 59 9b 01 be 7b d1 35 be
       -0.027690506 0.36329576 -0.12656917 -0.17755692
0003e0 bc e1 2f 3e 9a fb c8 be 32 ef 6a be ce db f6 3e
       0.17175955 -0.39254457 -0.22942808 0.48214573
0003f0 98 f8 29 be 14 47 84 be 57 e8 43 be f2 73 c7 bd
       -0.16598737 -0.25835478 -0.191316 -0.09738912

fc1.bias f4 [64]
000000 77 3d d9 3e 90 e3 96 be ad e0 7d 3e 19 83 b2 be
       0.42429706 -0.2947049 0.24792738 -0.34865645
000010 07 00 9b 3e 3d e0 a8 3e d3 ae 98 3e 60 3d a7 3e
       0.30273458 0.3298358 0.2982088 0.32664013
000020 ad 01 92 3e f8 1a bd bc 0d 01 57 3e 7c a1 23 be
       0.28516904 -0.023084149 0.20996495 -0.1597957
000030 ad 3a 21 3e e2 55 66 be 60 05 76 bc 8e d1 e7 be
       0.1574504 -0.22493699 -0.01501593 -0.45277065
000040 ea 96 da bd 89 d4 de bd b0 bb 0c be 33 77 85 be
       -0.10673316 -0.108803816 -0.13743472 -0.26067504
000050 1e c0 bf be 05 e8 37 3e 0b ec 99 3e 0d fc b4 3e
       -0.3745126 0.17959602 0.300629 0.3534855
000060 e9 2a 93 3e 5a a9 58 be cd b2 ce be c2 88 04 3e
       0.28743675 -0.21158352 -0.4037079 0.12942794
000070 1c d2 82 3e 59 23 b4 be cf cd 2d 3e d5 e5 bf 3e
       0.25550926 -0.35183218 0.16973041 0.37480035
000080 c5 f6 41 3d 93 c4 84 be 99 bb b4 3e 4f 39 54 3e
       0.04735448 -0.25931224 0.35299376 0.20724986
000090 c4 74 9f 3e 1e 05 7a be 74 af 6f 3e 89 33 95 be
       0.31143773 -0.24416015 0.23406774 -0.2914088
0000a0 e1 24 c5 3e e3 19 04 be d6 62 8a 3e 1e cd 1d 3e
       0.385047 -0.129005 0.2702853 0.15410277
0000b0 c8 4a 9a 3e 18 09 93 bc 53 ab 3e 3e 39 67 34 be
       0.3013518 -0.017948672 0.18620043 -0.17617501
0000c0 50 fe c4 be eb 6a 10 be 6b 5e b4 3e 20 17 dc bd
       -0.38475275 -0.14103286 0.35228285 -0.10746598
0000d0 ec 8e 52 3e 8c 8c 1a be d5 a1 9e 3e bd d7 83 3e
       0.20562333 -0.15092677 0.30982843 0.25750533
0000e0 41 cd 73 3e 55 d5 3b bc 0a c9 aa be 6a 2b 85 3d
       0.23808767 -0.011464437 -0.33356506 0.06502421
0000f0 bf 4e 84 be 72 59 bc 3e b5 d6 c8 be 20 4a 69 3e
       -0.25841329 0.3678699 -0.39226308 0.22782183

fc2.weight f4 [32, 64]
000000 bd fe 16 3e c6 32 80 3d e5 87 58 3d e9 11 bd be
       0.14745612 0.06259684 0.052863974 -0.36927727
000010 29 6d 68 3e a2 b0 23 bb 2d d7 af bd 61 bd 0a 3e
       0.22697891 -0.0024977108 -0.085859634 0.13548805
000020 5d 1d 71 bc b9 19 a7 bc 72 4d ee 3d 74 18 89 bd
       -0.014716473 -0.020398008 0.11635865 -0.06694117
000030 aa 53 83 bd 0b 87 2a be 18 23 56 3b a9 90 d5 bd
       -0.06412442 -0.16653077 0.0032674726 -0.10427982
000040 5c ae d6 bd 2b 7c f0 3e 7b 22 af bd 20 ad 7b bd
       -0.10482475 0.46969733 -0.085514985 -0.0614444
000050 90 3d 8a be d0 c1 9d bd 3c 14 26 3d 17 f3 b0 bd
       -0.27000093 -0.077029824 0.04054664 -0.08640116
000060 b6 7f 0a 3e 88 6a 1a 3d c4 00 be 3c 32 d8 40 bd
       0.1352528 0.037699252 0.023193724 -0.04708118
000070 22 7b fb 3b e3 ee 03 3d 6e 8b 00 3e 14 ea b2 bd
       0.0076745907 0.032210242 0.12553188 -0.08736053
000080 2a 06 f4 3d 90 53 08 3d ff 2d 77 3d 65 f8 f9 3d
       0.11915238 0.033282816 0.0603466 0.122055806
000090 a3 23 0a 3e 46 a9 b9 bc 1e 4b 12 3e 63 5c 8d bd
       0.13490157 -0.022663724 0.14286467 -0.06902387
0000a0 0b 97 2e 3d b0 5b ec bc 81 aa eb 3a 89 58 4c 3e
       0.042624515 -0.028852314 0.0017979891 0.19955648
0000b0 7b 1c 04 3f ed f8 02 3d 4d b3 6a 3d 39 6f 04 3e
       0.5160596 0.031975675 0.0572999 0.12933053
0000c0 a8 b9 94 3d 2d 40 82 3d 1a 75 90 3d b4 29 c6 3d
       0.072619736 0.06359897 0.07053585 0.09675923
0000d0 37 1c 57 3d cc d3 22 3c e6 b2 8c 3d ad 47 8a bd
       0.052517142 0.009938192 0.0687006 -0.06751952
0000e0 f4 ce ac 3c 90 31 74 3e ec 4a 48 bd 8f 86 92 3d
       0.021094777 0.23847032 -0.048899576 0.07154571
0000f0 86 bd f5 bb 9f dc 28 3d 3a 8b a6 3d bc bc a5 3a
       -0.0074993996 0.041226026 0.08132024 0.0012644748
000100 76 27 0c 3e b0 19 ca 3d 92 76 8b bd 7a de b6 be
       0.13686928 0.09868181 -0.06809725 -0.3571661
000110 15 a8 51 bc e5 58 13 bd 77 9e a1 bb c6 1c ab 3c
       -0.012796422 -0.03597345 -0.0049322206 0.020887744
000120 a7 6c d8 3b 72 1d 2f bd 56 84 ee bc 05 59 00 bd
       0.0066047492 -0.04275269 -0.029115837 -0.031334896
000130 b8 c1 1b 3e 97 64 34 be 48 28 8e bd 9d 86 43 bd
       0.15210617 -0.17616497 -0.06941277 -0.0477358
000140 58 90 ec bb 84 f9 15 3f dc b8 7a 3d c8 2a eb 3d
       -0.0072193556 0.58583856 0.061211452 0.11482769
000150 df ba 1a bf 9d b2 ec bd 08 e6 0a 3e 34 a2 f4 bc
       -0.6044139 -0.11557505 0.13564312 -0.0298625
000160 18 ba 1d 3e 16 e5 bf 3d fc 68 b3 3a f3 e0 b1 3d
       0.1540302 0.093698665 0.0013687904 0.08685484
000170 05 f6 3e bd 68 42 33 be a3 c9 b8 3d cc ce 8a 3d
       -0.04662134 -0.175058 0.09022834 0.067777246
000180 22 e8 59 bd ff 11 97 3d 79 82 b7 bd 1a 66 12 3e
       -0.053199895 0.07376479 -0.089604326 0.14296761
000190 d0 7f 22 3e f4 3d 31 3e f8 3d 1b bd 28 48 82 3d
       0.15869069 0.1730879 -0.037900895 0.06361419
0001a0 70 ed 80 3d 6d 84 dc 3d 5e b7 90 3d ab 97 a9 3e
       0.062952876 0.10767446 0.070662245 0.33123526
0001b0 2b 1b 07 3f 1c d9 b9 3c 67 22 ab 3d 7f 0c a1 3c
       0.5277583 0.022686534 0.08356171 0.019659279
0001c0 bc 67 ce 3d ec 43 6c bd 11 26 d4 3c ec 52 bf 3c
       0.100783795 -0.057681963 0.025897058 0.02335497
0001d0 55 8c e6 3c 78 81 ae 3d 44 7d 78 3d d4 ab 8f bd
       0.028143087 0.08520788 0.060666338 -0.070151955
0001e0 c1 3c 30 3e a8 09 0d 3e a8 fa 46 3c 7a 3b 95 3d
       0.17210676 0.13773215 0.012144722 0.07286735
0001f0 ef 82 d2 bd 53 ae 26 3c e8 20 44 bc 4b c7 26 3c
       -0.1027888 0.010173398 -0.011970736 0.010179351
000200 fa d2 bc 3d 90 68 df bc 16 da 89 3d ed 6a 97 3e
       0.09219928 -0.027271539 0.0673105 0.29573765
000210 46 63 9f be ad e2 a5 3b 2b 60 93 3d db 17 c2 bd
       -0.31130427 0.0050624222 0.07196077 -0.09477206
000220 63 48 da bd 05 94 0a 3e 40 08 c2 3d 11 bc a0 bd
       -0.10658338 0.13533027 0.0947423 -0.07848371
000230 2e b8 33 3d aa a9 45 3e 31 b2 12 be a4 92 2b 3e
       0.04387682 0.19303003 -0.14325787 0.16755158
000240 10 69 25 3d 88 72 09 bf 04 14 ad 3d dc e0 da bd
       0.0403834 -0.53690386 0.08451083 -0.1068742
000250 ec 16 84 3e 11 f1 4e bd 0d 0f 3f 3d 7f 22 82 3b
       0.25798738 -0.050522868 0.046645213 0.0039713974
000260 f4 b8 eb ba ea 36 b9 bd c8 d7 ff bc 02 e4 0a bd
       -0.0017984197 -0.09043677 -0.031230822 -0.03390885
000270 61 17 75 bd 4d 00 0f bd 3b eb 34 3c ab ea 8f 3d
       -0.05983675 -0.034912396 0.011042411 0.07027181
000280 fa 6a fc bd f2 c0 ef b9 33 4a 3a 3d 57 00 b8 3d
       -0.12325092 -0.00045729388 0.04548092 0.0898444
000290 02 38 27 3d e8 b2 3c 3d 56 3a 97 bd 92 75 8f 3d
       0.040824898 0.046069056 -0.073841736 0.07004847
0002a0 a0 21 91 3d 17 ad 2e be 15 45 fd bd a5 a1 45 be
       0.070864916 -0.17058216 -0.12366692 -0.19299944
0002b0 bb 95 05 bf 27 12 0d be 65 01 e0 bc 7c 44 3e b9
       -0.52181596 -0.13776456 -0.027344415 -0.00018145324
0002c0 d0 93 01 3d de b7 9a bd 60 a6 3d 3d 8a 3a aa 3d
       0.031635106 -0.07554601 0.046301246 0.08311947
0002d0 98 2a 3b be 7c b4 9e 3a c2 df 2a bd 6f ca 87 bb
       -0.18277967 0.0012108232 -0.0417173 -0.004144005
0002e0 80 0b 31 bb ef f2 3f bf d8 a5 e8 bc 3a 57 fb ba
       -0.0027014911 -0.7498006 -0.028399393 -0.0019175776
0002f0 f5 c5 8c bd ae 9a 80 bd 6c d0 0b 3c 73 02 0f be
       -0.06873695 -0.06279503 0.008533578 -0.13965778
000300 2f a1 15 3d 0e ad ad bd 50 3a b4 3c 4e 20 79 be
       0.03653067 -0.08480273 0.022000462 -0.2432873
000310 74 20 05 3e f0 2b b2 bd ff 25 b2 bd e2 c7 8c 3d
       0.13000661 -0.08699787 -0.086986534 0.06874062
000320 50 22 13 3e dd 95 ff bd 98 2f 40 3d 72 b1 93 bd
       0.14368558 -0.12479756 0.04692039 -0.072115794
000330 c9 e8 00 3d f3 8c 9c bd 18 38 eb 3d ff 13 6d be
       0.031472 -0.076440714 0.114853084 -0.23152159
000340 36 57 9e 3d d8 a4 09 3f 2d d6 08 bd 72 f7 f7 3d
       0.07731478 0.53767157 -0.03340738 0.12107743
000350 09 d2 6c be 3f d6 39 be 0d 3f 42 bd 65 06 18 3d
       -0.23126997 -0.18148135 -0.04742341 0.037115473
000360 d8 9d 8f 3d dc 2b 23 3c 78 05 90 bd ab 91 f4 bc
       0.07012528 0.009959187 -0.07032293 -0.029854616
000370 9f 8e f2 3c 6a d7 53 be b3 a1 b5 3c 15 44 ca 3b
       0.029609023 -0.20687643 0.02217183 0.006172667
000380 eb 93 40 bd c5 34 90 3d f1 f6 dc 3b a1 fa e6 3d
       -0.047016066 0.07041315 0.006743305 0.112782724
000390 49 2e 90 3c 5c 41 8a 3a d2 a5 fb 3d 6e af 0b 3d
       0.017600195 0.0010548043 0.12287487 0.03410285
0003a0 63 e5 ba ba 0d 3b 98 bc 93 2a 70 3d 79 e7 d7 3d
       -0.0014259036 -0.018582845 0.058634352 0.10542197
0003b0 68 8a 13 3f bf 52 ed 3d b6 de 7b bd b7 35 9b bd
       0.57633066 0.11588048 -0.06149169 -0.07578605
0003c0 02 08 b8 bd 2c 08 c4 3d 73 ae 01 3e 5c 31 00 3c
       -0.08985902 0.09571871 0.12664203 0.007824268
0003d0 d5 02 37 3e 60 26 2b bd 73 fc 9b bd 89 21 b2 3d
       0.17872174 -0.041784644 -0.0761651 0.086978026
0003e0 3a 5f 33 3e cc 10 b4 3e 7c bc 17 b8 d8 9e 33 3e
       0.17516795 0.35169065 -3.6176745e-05 0.17541063
0003f0 18 48 c8 3d ed 55 e5 3d 72 02 fe bd 51 0b 17 3e
       0.09779376 0.1119803 -0.1240281 0.1475041

fc2.bias f4 [32]
000000 30 9d 65 bc cf a7 89 3d 9c 27 fb bd d0 14 a1 3d
       -0.014014527 0.0672146 -0.12263414 0.07865298
000010 f8 03 c2 bb 09 d7 98 bd 9b c8 19 be 48 e4 85 3d
       -0.0059208833 -0.0746289 -0.15017931 0.06537682
000020 5c b3 7e bc 73 ce f4 3d f7 e5 63 3d 5d 1d 25 3c
       -0.015545692 0.119534396 0.055639233 0.0100778015
000030 6b 64 0f bd b4 d5 8d bc 56 5d 1c 3c bc 28 a1 bd
       -0.035007875 -0.017313816 0.009543737 -0.078690976
000040 89 fc 90 3d 30 33 a1 bd e8 e5 85 3d 71 de 72 bd
       0.07079417 -0.07871091 0.06537992 -0.059294168
000050 da fd d7 3d d7 83 aa 3d 35 01 48 bd 26 0b c6 3d
       0.10546465 0.08325928 -0.048829276 0.09670095
000060 bb 5b d1 bb a6 74 a6 bd f0 0b a0 3d d2 a4 6d 3d
       -0.006389109 -0.08127718 0.07814777 0.058018513
000070 0d a6 0c 3e 04 aa f3 bd 6f d3 14 3e 80 28 a7 3d
       0.13735218 -0.11897662 0.1453378 0.08162022

fc3.weight f4 [1, 32]
000000 d1 e1 58 3e 32 e4 45 3e a1 5a 06 be c9 2c 4b 3e
       0.21179892 0.19325331 -0.1312051 0.19841303
000010 43 6c 25 3e fe 75 58 bd c7 46 09 be c5 a3 0d 3e
       0.1615458 -0.0528469 -0.13405906 0.13832004
000020 b1 47 77 3e 13 04 20 3e d4 39 90 3e 86 aa fb bd
       0.24148442 0.15626554 0.2816912 -0.12288384
000030 8a b7 8b bc b9 9f 90 bd 8e bf 9c 3e 73 48 05 3e
       -0.017055292 -0.07061715 0.30614895 0.13015918
000040 fe d7 03 be 32 e4 b5 bc 3f ed 0a be ee ee 19 be
       -0.12875363 -0.022203539 -0.13567065 -0.1503255
000050 9b 4d 5e 3e e3 6e 8d bd 69 2a 00 3e aa 8d 08 bd
       0.21709292 -0.069059156 0.12516178 -0.033338226
000060 60 b9 d0 bc b6 58 d0 bd 17 dc 3e 3e 25 9e 7c bc
       -0.025479019 -0.1017317 0.18638645 -0.015418564
000070 08 4c 43 3e df cd d3 3d 72 85 4d 3e 31 ce 13 be
       0.19071972 0.10342001 0.20070437 -0.14434125
