results/AlsomitraProperty3/alsomitra/DL2.onnx (onnx, 10944 bytes, 5 tensors)

fc1.weight f4 [64, 6]
000000 bc 33 da bd 8a 35 ab 3e be 03 29 bb 4f 7f 75 be
       -0.10654399 0.33439285 -0.0025789584 -0.23974346
000010 b2 08 d8 3d 86 69 df bd 6d 87 b7 3e be b3 bc be
       0.105485335 -0.10908799 0.3584551 -0.36855882
000020 6f 09 04 be bc cc c9 be 21 a0 24 be c1 64 ea 3d
       -0.12894224 -0.39414012 -0.1607671 0.114449985
000030 42 c0 c4 3e f8 88 9b 3d f4 69 e2 3e b6 99 ac 3d
       0.3842793 0.07594484 0.4422146 0.084277555
000040 6f 08 8a 3e 44 d5 85 3e 0b 55 cd 3e 78 96 77 be
       0.2695956 0.2613927 0.40103945 -0.24178493
000050 24 b4 0e 3f 40 fa 8c 3e 5b 99 63 be 6b dc 84 be
       0.5574362 0.27534676 -0.22226469 -0.25949416
000060 3a 91 99 be 64 a4 25 3e d8 d9 b7 be 85 ec 4a 3e
       -0.29993612 0.16175991 -0.3590839 0.19816788
000070 19 74 0a 3d ad 35 26 be f2 8a ec 3d 7b d1 08 bc
       0.033802126 -0.16231413 0.11549939 -0.008350725
000080 a3 92 21 3e f3 f9 73 3e 70 35 cb be 7d 2f bd 3e
       0.15778594 0.23825817 -0.39689207 0.36950293
000090 c4 64 b1 3e 5a 0e 15 3e 78 fd cf be cc 6c e1 bd
       0.3464719 0.14556256 -0.4062307 -0.110070795
0000a0 e9 18 e7 bd 59 4e e7 bd 78 37 69 3e 1a 18 4c 3e
       -0.11284048 -0.112942405 0.22775066 0.19931069
0000b0 86 ee 9a 3e f0 27 14 be 68 31 22 3e fa 1c 19 3e
       0.30260104 -0.1446836 0.1583916 0.1495246
0000c0 4d a5 a2 be a6 8d f0 be 9e 54 0c bd 60 db b1 3e
       -0.3176674 -0.4698307 -0.034260385 0.34737682
0000d0 95 b3 f2 be bf a0 95 be 61 cc 4c 3e b7 29 31 3e
       -0.47402635 -0.29224202 0.1999984 0.17301069
0000e0 c3 53 c5 3e 28 49 c4 be 7e f7 c2 be ab 83 6c 3e
       0.38540468 -0.38337064 -0.38079447 0.23097102
0000f0 25 3b b4 3e 31 49 8c 3e da b4 7b 3d d4 5f 14 3e
       0.35201374 0.2739959 0.06145177 0.1448968
000100 c8 30 d1 3e 3c 39 91 be c9 d7 70 be 87 64 60 3e
       0.4085753 -0.2836398 -0.23519816 0.21913348
000110 89 58 30 be a1 10 dc be 8d 6c df 3e 20 ab 31 3e
       -0.17221273 -0.42981437 0.43637505 0.17350435
000120 b4 51 f7 3d f1 25 80 be c5 96 29 3b 6d e5 b1 3e
       0.120761305 -0.25028947 0.002587722 0.3474535
000130 da b6 a4 be 08 e6 ca 3c 4b c1 80 3e df 10 a0 be
       -0.32170755 0.02476789 0.2514747 -0.31262872
000140 3c ab 22 3f 78 68 d0 be e4 1c 40 be 82 c2 23 be
       0.6354253 -0.40704703 -0.18761021 -0.15992168
000150 b3 32 88 be 5c 1f c7 be 93 ff 79 3e 0d ee fa 3d
       -0.2660118 -0.38891113 0.244139 0.12252436
000160 68 be c3 be e3 18 7f be 85 ca c6 3e 17 3f f8 3d
       -0.38231206 -0.24911837 0.38826385 0.121214084
000170 84 9e a9 3e 86 11 84 be 2a a1 c3 bd 62 42 9f be
       0.3312875 -0.2579462 -0.09552224 -0.31105334
000180 79 fa c4 be 6c da 20 be 22 be 4c 3e bf 8a 4e 3d
       -0.38472345 -0.15708321 0.19994405 0.050425287
000190 b2 1b 3d 3d 50 a6 6f 3d 21 82 2f be ab f0 66 3d
       0.04616899 0.058508217 -0.17139484 0.056381863
0001a0 e7 2f d5 3d 25 cd 69 be 49 3c cf be 37 9f 27 3e
       0.10409527 -0.22832163 -0.4047568 0.1636933
0001b0 bd 9a d4 3d 71 a9 7f be d6 a2 d7 3e 0f a3 38 be
       0.103810765 -0.2496698 0.4211642 -0.18030952
0001c0 6a 1a 90 3e 53 5e 35 3e a3 3b af be 3f cb 86 3e
       0.28145152 0.17711763 -0.34225187 0.2632694
0001d0 e5 29 c0 be 89 93 67 be 17 60 8b bd a9 e0 8c be
       -0.37531963 -0.22614874 -0.06805437 -0.27515152
0001e0 62 32 d1 3e 0c 21 a7 bd 8f 0c 49 3e 78 86 bf be
       0.40858752 -0.081606 0.19633697 -0.3740728
0001f0 45 7d 70 3e 0b 00 00 be 40 6c d3 be 57 51 8f bc
       0.23485287 -0.12500016 -0.41293526 -0.01749484
000200 e8 20 76 3e 6e d2 bd 3e 81 2f e5 be 83 fa 2f be
       0.2403599 0.37074608 -0.44762805 -0.17185406
000210 76 54 88 3d e6 be 20 3e af 12 29 3e 4d 6f 5a 3e
       0.06656735 0.15697822 0.16511033 0.2133152
000220 21 6d ee bd 72 82 87 3e 11 0a 97 3e 4d dc 33 be
       -0.116419084 0.2646671 0.29499868 -0.17564507
000230 68 3a 90 3e 21 00 51 3e 07 b6 cc 3e 94 ad a4 be
       0.2816956 0.20410205 0.39982626 -0.3216368
000240 6b 25 5f be 26 1b ac bd 59 87 30 bd d2 14 69 3e
       -0.21791618 -0.08403616 -0.043097828 0.22761849
000250 f5 1a 93 be b7 72 8d 3e 68 ce 15 be a6 84 7c 3e
       -0.28731504 0.27626583 -0.14629519 0.24659976
000260 8b c4 9e bc d4 1b b7 be 32 00 66 be 66 44 97 be
       -0.019380828 -0.3576342 -0.22461012 -0.2954437
000270 cc 4e 4f 3e 77 25 8c be 4d 4f 0b bd cb 60 b4 3d
       0.20244902 -0.27372333 -0.034011174 0.08807524
000280 15 3a 65 be 01 29 f1 3d ef f2 1e bf d3 88 b7 bd
       -0.22385438 0.11775399 -0.6208944 -0.08961644
000290 35 d8 a4 be 54 de 34 be 3c 79 d1 bd ed ce 71 3d
       -0.32196203 -0.17662936 -0.10228202 0.05903523
0002a0 77 80 8e bd 9a c8 72 3e c1 af bb 3e dd 9b 28 3e
       -0.069580965 0.23709336 0.36657527 0.16465707
0002b0 75 84 03 be 35 d1 cb be ef da 1b 3e 4d db 2b be
       -0.12843497 -0.3980805 0.15220235 -0.16782875
0002c0 a8 90 3d 3e a0 21 8e 3e 51 68 3d 3e bc 39 c3 3e
       0.18512213 0.2776003 0.18496825 0.38129985
0002d0 b3 b2 cd 3e a2 e8 0e 3e 97 94 a9 be 4b d9 bf 3e
       0.401754 0.1395593 -0.33121178 0.3747047
0002e0 15 04 3a be b2 d8 17 be bc 6d a5 3e d2 86 bd 3e
       -0.1816562 -0.14828756 0.32310283 0.37016922
0002f0 c0 09 af 3d c2 8a ca 3c 96 f9 ac be 02 22 0a bd
       0.085467815 0.024724368 -0.3378417 -0.03372384
000300 4d 0c c1 3e 8f 88 0c 3e fd e7 28 3d e3 64 b4 bd
       0.37704697 0.13723968 0.041236866 -0.08808305
000310 4e 41 fa bd 56 2c 68 3e 81 5c c3 3b ca b6 cf 3e
       -0.12219487 0.22673163 0.005961955 0.40569144
000320 d0 98 44 be 15 fe 3e 3e 9a ed 64 3e a7 6d f5 3d
       -0.19198918 0.18651612 0.22356263 0.11983805
000330 bd 01 82 3e a3 e8 8f 3e 66 06 b9 3e f2 9c a6 3e
       0.2539195 0.28107175 0.36137694 0.32541615
000340 8c d7 a6 bd 9d 39 c4 be f9 a1 9c 3d 9e ca 70 3d
       -0.08146581 -0.38325205 0.07648081 0.05878698
000350 4e 7d 09 be 90 47 7c bd 1d ff 07 3d 47 74 a6 3e
       -0.13426706 -0.061591685 0.03320228 0.32510588
000360 34 58 04 3e 34 d5 f7 bd b6 74 4e be c8 9e c7 bd
       0.12924272 -0.12101212 -0.20161709 -0.09747082
000370 f5 77 21 be c4 ad c1 3e 2f d0 32 3e b3 1a d0 3e
       -0.15768416 0.37827885 0.17462228 0.4064537
000380 6b 8a 08 bd c5 80 bd 3e e0 57 c7 3e 16 51 23 bf
       -0.03333513 0.37012306 0.3893423 -0.637956
000390 7a 5f 7d 3a 7e af d1 3c 85 24 9c be 66 8b a2 be
       0.0009665411 0.025596377 -0.30496612 -0.31746978
0003a0 6b 79 de 3e 1e d3 8d 3e 8c b7 2a 3e e1 70 16 3f
       0.4345201 0.27700132 0.1667158 0.5876599
0003b0 2c ae 4c be 84 3f 39 be 93 c5 5a 3e 67 4b 72 bd
       -0.19988316 -0.18090636 0.21364431 -0.05915394
0003c0 89 a3 16 be 77 84 cd be 5e 26 a7 3d 55 c1 a2 be
       -0.14710821 -0.40140125 0.08161615 -0.31788126
0003d0 db 38 d0 bd 6d bb c9 3e c3 05 a4 bd c1 89 8d bd
       -0.10167094 0.39400807 -0.080089115 -0.0691104
0003e0 81 87 d3 3d 49 95 dc bd 81 82 9e be 07 3e 00 3f
       0.1032858 -0.107706614 -0.30958942 0.50094646
0003f0 cf 5f 2b be 08 86 95 be f4 ed 69 be 8a c6 e7 bd
       -0.16735767 -0.2920382 -0.22844678 -0.11317165

fc1.bias f4 [64]
000000 cd c1 b8 3e dc 2e 9e be 00 24 82 3e da 8d a0 be
       0.36085358 -0.30895126 0.2541809 -0.31358224
000010 83 d8 e7 3e 83 9e 99 3e e7 51 95 3e ae e8 95 3e
       0.45282373 0.30003747 0.2916405 0.29279083
000020 08 fc 86 3e 35 ab ea 3c 5d dc 51 3e 94 4c 86 bd
       0.2636416 0.028646091 0.20494218 -0.06557575
000030 81 6a 2e 3e 95 e2 59 be 4d 9e ec 3b b5 37 e7 be
       0.17032816 -0.2127784 0.0072210194 -0.4515969
000040 91 28 88 bd fc 6e 87 be ad f8 0e be 33 77 85 be
       -0.066483624 -0.26451862 -0.1396205 -0.26067504
000050 e1 d0 bd be 14 66 65 bc 9e 53 92 3e f4 64 bf 3e
       -0.37073424 -0.014001388 0.2857942 0.3738171
000060 3d f9 53 3e 5a a9 58 be cd b2 ce be b5 59 3a 3e
       0.20700546 -0.21158352 -0.4037079 0.18198283
000070 79 84 82 3e cf 66 b5 be 9f 2d 14 3e 52 8c b1 3e
       0.25491694 -0.3543 0.14470528 0.34677368
000080 4a 0c ec 3c 29 5a 7a be 5a 7b b3 3e d9 fc 29 3e
       0.028814454 -0.24448456 0.35055047 0.1660036
000090 71 6c 86 3e fe bd 74 be 05 fa 49 3e 35 55 80 be
       0.2625461 -0.23900601 0.19724281 -0.25065008
0000a0 5b 14 c0 3e 68 74 61 be 9a df 7b 3e 9b 90 db 3d
       0.3751553 -0.22017062 0.24597016 0.10720941
0000b0 ba 8b dd 3d 6f 15 32 bd ae e7 38 3e c5 60 a7 bd
       0.10817666 -0.043477472 0.18057129 -0.08172754
0000c0 50 fe c4 be bf b8 1d be bb f6 a6 3e 03 ac ff bd
       -0.38475275 -0.15402506 0.32610115 -0.124839805
0000d0 13 28 92 3d 8c 8c 1a be 88 c4 bb 3e 4e cb 5c 3e
       0.0713655 -0.15092677 0.3667338 0.2156193
0000e0 85 6b 1e 3e f1 b2 1b be 0a c9 aa be d3 c0 5c 3c
       0.15470703 -0.1520498 -0.33356506 0.013473707
0000f0 fe 38 75 be 63 45 b3 3e b5 d6 c8 be e9 24 3f 3e
       -0.23947522 0.35013875 -0.39226308 0.18666424

fc2.weight f4 [32, 64]
000000 d4 bc 1a 3e 2e a5 55 3d 55 41 46 3d 05 41 ba be
       0.15111095 0.05215948 0.04840215 -0.3637773
000010 32 9f 80 bd 73 d9 cf bc ba fb b5 bd cc 8f 06 3e
       -0.06280364 -0.025372243 -0.08885904 0.13140792
000020 22 b6 d9 3b b1 c5 8f bc dc c3 06 3e 14 a2 90 be
       0.0066440264 -0.017550321 0.13160652 -0.28248656
000030 50 10 e2 bd 51 c4 c2 be 80 d3 eb bc 47 24 be bd
       -0.110382676 -0.38040403 -0.028787374 -0.09284263
000040 fe 38 11 bf f1 e2 25 bd 24 31 93 bd 20 ad 7b bd
       -0.5672759 -0.04049963 -0.07187107 -0.0614444
000050 f3 3e 0b be e9 52 1a 3e b4 72 03 3d 49 e2 cd bd
       -0.13598232 0.1507069 0.03209181 -0.10052926
000060 72 bd 12 3e 88 6a 1a 3d c4 00 be 3c 05 9d 89 be
       0.1433008 0.037699252 0.023193724 -0.2687761
000070 dd ba d6 3c dd aa e5 3d 2b 42 d0 3d e2 7d b1 bd
       0.02621215 0.1121423 0.101688705 -0.08666588
000080 e4 85 f2 3d 12 4f 9b 3d 4b b7 8d 3d 55 b1 dc 3d
       0.11841944 0.07583441 0.06919726 0.10776011
000090 39 ec cd 3d 7b 18 f9 3c fa 4d 08 3e b6 1f 6f 3d
       0.100548215 0.030407181 0.13310996 0.05837985
0000a0 2c e5 d4 bc 4a 30 e7 3d a8 77 e0 bc 79 f9 03 3e
       -0.025988184 0.11288507 -0.027400807 0.12888135
0000b0 58 fc 74 bc 37 60 82 bc f0 e1 68 bd fe 6f 04 be
       -0.014952742 -0.01591502 -0.056856096 -0.12933347
0000c0 a8 b9 94 3d a4 77 06 3e a2 88 8a 3d 99 3f a5 3d
       0.072619736 0.13131577 0.06764342 0.08068771
0000d0 30 a0 85 3b cc d3 22 3c 6f 07 b7 be a9 9c 8a 3c
       0.0040779337 0.009938192 -0.3574786 0.016920405
0000e0 bd 99 83 bd 60 a4 68 3e ec 4a 48 bd c3 ed 01 3d
       -0.064258076 0.22718954 -0.048899576 0.031720888
0000f0 38 f0 ea bc ea 03 cb 3c 3a 8b a6 3d f8 66 7e 3d
       -0.028678998 0.02478214 0.08132024 0.062109917
000100 b1 f8 c0 3d 1f bd b4 3d 22 8d a1 bd 1c c3 fd be
       0.09422434 0.088251345 -0.07888247 -0.4956292
000110 0c c0 83 be 85 f2 08 bc e0 a9 b1 3b 64 fa a4 3b
       -0.25732458 -0.008358602 0.005421862 0.0050347317
000120 20 82 0d 3d a1 92 25 bb c1 c5 7c bd 8f f0 5a be
       0.034547925 -0.00252644 -0.06171203 -0.21380828
000130 00 dd 18 3e 45 92 ce be 0f f0 cf bd 23 c7 fe bd
       0.14928055 -0.4034597 -0.101532094 -0.12440326
000140 e6 96 03 bf e5 de 51 3d b3 91 6e 3d c8 2a eb 3d
       -0.5140213 0.05123796 0.05824442 0.11482769
000150 b8 e0 be be 86 bc 41 3e 94 39 16 3e 0c 3e 02 be
       -0.37280822 0.18919572 0.14670402 -0.12718982
000160 dc e6 39 3e 16 e5 bf 3d fc 68 b3 3a f9 6a 33 be
       0.18154472 0.093698665 0.0013687904 -0.17521276
000170 5c 5f 0a be e3 65 2d bd 04 0c 8a 3d 17 90 9d 3d
       -0.13512939 -0.042333495 0.06740573 0.076934986
000180 02 52 8e bc df ac 81 3e fe 17 02 be 97 05 39 3e
       -0.017373089 0.25327203 -0.12704465 0.18068539
000190 18 48 53 3e 23 61 1c bc 9c 9d 00 bd d7 d8 ac 3e
       0.2063297 -0.009544644 -0.031400308 0.33759186
0001a0 fc 8f 70 3d 6d 3d 98 3e bc 41 28 3d 3c fe 5b 3e
       0.058731064 0.29734364 0.041078314 0.21483701
0001b0 6c 0c 5c bd 3a 64 a8 3b be 87 51 bd 6a d3 7b be
       -0.053722784 0.005138901 -0.051154844 -0.24592367
0001c0 bc 67 ce 3d 16 6e 88 3d d3 71 3f bd 18 17 ee 3b
       0.100783795 0.06661622 -0.04673941 0.0072659366
0001d0 31 34 07 bc 78 81 ae 3d a6 c0 d6 be a8 41 40 3d
       -0.0082521895 0.08520788 -0.41943854 0.046937615
0001e0 7f 23 14 bd 41 48 37 3e a8 fa 46 3c 7b db ae 3c
       -0.036166664 0.17898656 0.012144722 0.02134489
0001f0 5e e8 fd bd a8 8b 1d 3d e8 20 44 bc 82 17 c8 3d
       -0.12397836 0.038463265 -0.011970736 0.09770109
000200 8f 41 ba 3d 08 80 8a bc 54 60 99 3d de 9b 94 3e
       0.090945356 -0.016906753 0.07489076 0.29025167
000210 56 b6 b3 3d 35 04 0f 3d d1 aa 9d 3d 0c 48 b7 bd
       0.08775012 0.03491612 0.07698596 -0.08949289
000220 4e 7c f7 bd 64 a2 02 3e f6 cf ab 3d fa 0b 0c 3e
       -0.12084256 0.1275726 0.08389275 0.13676444
000230 80 d6 d3 3d 50 d1 d1 3e 82 ae e3 bd 82 f1 0a 3e
       0.10343647 0.40980005 -0.11117269 0.1356869
000240 1c 54 08 3f 49 ea 92 3a d7 85 68 3d dc e0 da bd
       0.5325334 0.0011208738 0.056768265 -0.1068742
000250 31 d0 e6 3d 65 90 da 3c f3 39 80 3d ac 7c 8e 3c
       0.11270178 0.02668018 0.06261053 0.017393433
000260 2b d0 22 3c ea 36 b9 bd c8 d7 ff bc 80 06 6c 3e
       0.009937326 -0.09043677 -0.031230822 0.23049355
000270 f6 56 97 bd 49 c8 ac bd 2b 0f 8f 3d 0b 66 99 3d
       -0.07389633 -0.08436639 0.06985315 0.07490166
000280 5f 4a f4 bd 94 4d ff bc c9 20 31 3d 06 55 df 3d
       -0.11928248 -0.031164922 0.043244157 0.10904889
000290 c5 21 a2 3d 5e 52 5c bb b5 bf 83 bd c9 8d 5b bd
       0.07916597 -0.003361843 -0.064330496 -0.053602014
0002a0 2f 0b 0c 3e 63 9d a0 be 28 77 cd bd d0 cf ed bd
       0.13676141 -0.31370077 -0.10032493 -0.11611903
0002b0 9e c5 8b 3d 8a 1c 83 bd 2d d2 d7 3d 34 03 89 3e
       0.06824802 -0.06401928 0.10538135 0.26760256
0002c0 d0 93 01 3d 2a 93 03 be 4b ab 5d 3d 7e 80 c9 3d
       0.031635106 -0.12849107 0.054118436 0.09838961
0002d0 7c 42 b4 bd 7c b4 9e 3a 83 54 d3 3e 69 33 a5 bd
       -0.088017434 0.0012108232 0.41275415 -0.08066446
0002e0 0e fd a3 3d 04 5a 1d be d8 a5 e8 bc 00 70 b9 3d
       0.08007251 -0.1536637 -0.028399393 0.090545654
0002f0 2c ce 42 bd a8 6a 1f bd 6c d0 0b 3c 47 2c 45 be
       -0.047559902 -0.038920075 0.008533578 -0.19255172
000300 5b 73 21 3d aa 04 c3 bd 15 0f 94 3c 08 ac 82 be
       0.039416652 -0.09522374 0.018073598 -0.25521874
000310 00 0c 32 be b9 e5 e2 bd a0 ab b8 bd 72 82 84 3d
       -0.1738739 -0.11078972 -0.0901711 0.06470193
000320 ea c3 2a 3e 77 a6 f9 bd a6 76 82 3d f9 8b 9c be
       0.16676298 -0.12189954 0.06370287 -0.3057554
000330 5c 4b 8b bc 9b 0e 9c be 18 80 a9 3d 40 8e 69 be
       -0.017003708 -0.30479893 0.08276385 -0.2280817
000340 cd 6a cc be b6 5a ab 3c 40 3e 95 bc 72 f7 f7 3d
       -0.39925233 0.020917278 -0.01821816 0.12107743
000350 30 12 a5 bd 55 57 81 3d 3a d9 63 bd 39 75 b1 3c
       -0.080601096 0.063154854 -0.055627085 0.021662341
000360 6b 3e 9e 3d dc 2b 23 3c 78 05 90 bd 95 7f 87 be
       0.07726749 0.009959187 -0.07032293 -0.26464525
000370 63 86 3f 3d 22 15 ee bd 84 1d 15 bb c4 43 ee 3b
       0.04675902 -0.116251245 -0.0022753188 0.007271262
000380 8a a2 3d bd d9 8b f7 3d d7 1b 83 3c aa fa c9 3d
       -0.046297587 0.12087221 0.016004486 0.098622635
000390 82 d6 96 bc f9 ea 69 3d f8 93 e7 3d 03 f5 32 3e
       -0.018412832 0.057108853 0.1130752 0.17476277
0003a0 76 db 9d bd f5 36 03 3e a0 fc ef 3c 57 9f b0 3c
       -0.077078745 0.12813933 0.029295266 0.021560354
0003b0 f0 d5 06 3d c1 ba 89 3d 6d 2a 3c be 7e 15 b2 be
       0.03291887 0.067250736 -0.18375559 -0.34782022
0003c0 02 08 b8 bd 9a 20 30 3e 39 ea fd 3d 27 3d 07 bc
       -0.08985902 0.17199937 0.1239819 -0.008254326
0003d0 f6 34 01 3e 60 26 2b bd 38 90 05 bf 72 68 32 3e
       0.12617859 -0.041784644 -0.52173185 0.17422655
0003e0 ef 31 ab 3d 19 ed ae 3e 7c bc 17 b8 7e 5e 05 3e
       0.083591335 0.34165266 -3.6176745e-05 0.13024327
0003f0 ae e7 9c 3d b8 a9 c1 3d 72 02 fe bd d7 9c 57 3e
       0.07661377 0.094561994 -0.1240281 0.21055923

fc2.bias f4 [32]
000000 17 b4 04 bd 68 42 0a 3d 13 fe cc bd da 3c 6e 3d
       -0.03239831 0.033754736 -0.10009398 0.0581635
000010 f8 03 c2 bb 50 5d 9e bd 81 f6 de bd 78 5f 4e 3d
       -0.0059208833 -0.07732642 -0.10886861 0.050384015
000020 11 ae 23 bd 62 15 ce 3d ea cd 59 3c 46 19 5a 3c
       -0.039960925 0.10062672 0.013293723 0.01331169
000030 9f 38 d8 3b b4 d5 8d bc 93 ac 1a bd 7f 78 e4 bd
       0.0065985466 -0.017313816 -0.037762236 -0.11155795
000040 79 80 ce 3d 30 33 a1 bd 9f 2c ad 3d 44 81 19 3c
       0.10083098 -0.07871091 0.084557764 0.009369198
000050 79 d0 b0 3d aa c2 bb 3d 88 23 90 bd c4 25 c7 3d
       0.08633513 0.091679886 -0.07038027 0.09724
000060 da 75 33 3d 4d 31 d3 bd ea 53 6e 3d 81 c7 82 3d
       0.043813564 -0.10312138 0.058185495 0.063857086
000070 5b 4d f2 3d 04 aa f3 bd 03 bd d3 3d 5c 5c a9 3d
       0.11831161 -0.11897662 0.103387855 0.08269569

fc3.weight f4 [1, 32]
000000 d7 69 5f 3e bc 16 b0 3e 3d 11 f1 bd fc 0b 59 3e
       0.21817718 0.34392345 -0.11770866 0.21195978
000010 43 6c 25 3e 28 ba 56 bd b5 6f dd bd f9 b0 fc 3d
       0.1615458 -0.052423626 -0.10812322 0.12338442
000020 bf da 89 3e b9 d5 19 3e 4a 80 01 3e 0e cd 8f bd
       0.26924703 0.15022935 0.12646595 -0.07021533
000030 d5 f4 27 be b9 9f 90 bd 8e be 81 3e db f0 64 3e
       -0.1640199 -0.07061715 0.25340694 0.22357504
000040 8c 2b df be 32 e4 b5 bc 76 27 fd bd e4 90 4c bf
       -0.4358791 -0.022203539 -0.12361042 -0.79908586
000050 a3 62 5c 3e f6 cc 9a bd ae c9 18 3e 9a 14 09 bd
       0.21522002 -0.075586244 0.14920685 -0.033466913
000060 ba 6b 7d be 30 f2 43 3d b4 b3 5a 3e 15 80 94 bc
       -0.24748126 0.04783839 0.21357614 -0.01812748
000070 5b ce 4a 3e df cd d3 3d 7b 28 87 3e e2 23 1a be
       0.19805281 0.10342001 0.26398072 -0.1505275
