results/AlsomitraProperty3/alsomitra/GD.onnx (onnx, 10944 bytes, 5 tensors)

fc1.weight f4 [64, 6]
000000 f4 4d 00 be 57 51 a6 3e 9a a4 08 bc 92 2a 79 be
       -0.12529737 0.32483932 -0.008340025 -0.24332646
000010 88 c3 06 3e b7 59 eb bd 21 cd b8 3e 0e 6e bb be
       0.13160527 -0.11491721 0.36094 -0.36607403
000020 6f 09 04 be bc cc c9 be 21 a0 24 be 07 76 ef 3d
       -0.12894224 -0.39414012 -0.1607671 0.11692434
000030 a4 e8 c0 3e 83 46 ab 3d 81 96 dd 3e cd a3 92 3d
       0.3767749 0.083630584 0.43278888 0.07160149
000040 37 57 8a 3e 6d 33 88 3e 73 45 cb 3e 14 4e 7e be
       0.27019665 0.26601735 0.39701423 -0.24834472
000050 e8 30 08 3f 7f 5f 8b 3e 5c 72 84 be 0b 5b 65 be
       0.53199625 0.27221295 -0.258685 -0.22398011
000060 ee e4 94 be 89 86 1f 3e 9b b2 b8 be 5b 15 48 3e
       -0.2908091 0.15578665 -0.36073765 0.19539396
000070 df 81 58 3d 9e 34 2e be f0 a2 0f 3e b2 f0 10 bc
       0.05285823 -0.1701226 0.14027 -0.008846449
000080 6d c0 22 3e 14 f4 80 3e 78 f3 d0 be 39 29 be 3e
       0.15893717 0.25186217 -0.40810752 0.37140825
000090 18 ea ba 3e 9a a2 14 3e e0 be cb be ad 38 e6 bd
       0.36506724 0.14515153 -0.39794064 -0.11241279
0000a0 1f d3 12 be ab 3a de bd ae 57 6c 3e dd 51 4b 3e
       -0.14338349 -0.10851034 0.23080322 0.19855447
0000b0 cd 3b 99 3e 9d 86 10 be ce a9 23 3e 7d b6 17 3e
       0.29928437 -0.14113851 0.15982744 0.14815708
0000c0 0e 1a a7 be e2 88 f2 be 6d 68 37 bd ae 68 b0 3e
       -0.32637066 -0.47370058 -0.044777323 0.34454864
0000d0 1b 78 09 bf ea d7 95 be dd 14 59 3e 63 41 27 3e
       -0.5369889 -0.29266292 0.21199365 0.16333537
0000e0 66 4d b8 3e 4f bd ba be b0 5c bf be ad c3 66 3e
       0.3599655 -0.36472556 -0.37375402 0.22535582
0000f0 8f 67 b2 3e 77 4d 8f 3e 93 db 78 3d a6 c9 11 3e
       0.34844634 0.27988788 0.060756277 0.14237079
000100 1c 32 d1 3e 2e f9 8e be cd 52 35 be 34 4f 87 3e
       0.40858543 -0.27924484 -0.17707367 0.26427615
000110 6b f1 2b be b3 1e 99 be 68 9b eb 3e 24 cc d4 3d
       -0.16791312 -0.29906234 0.46017003 0.10390499
000120 1a 84 01 3e 82 83 7a be 7f 79 77 3a 60 29 b4 3e
       0.12648049 -0.24464229 0.00094404066 0.35187817
000130 f8 63 9f be 16 82 7d 3c a7 a3 7c 3e 07 98 9c be
       -0.31130958 0.015472909 0.24671803 -0.30584738
000140 5c 9f 1c 3f 44 1a c8 be e2 7c 3b be d3 4b 0b be
       0.61180663 -0.3908254 -0.18309358 -0.13603143
000150 b3 32 88 be 68 10 c9 be 7a e4 7a 3e 61 82 fc 3d
       -0.2660118 -0.3927033 0.2450122 0.12329555
000160 68 be c3 be 21 8e 7d be 5a 30 c2 3e 7f 09 fb 3d
       -0.38231206 -0.24761249 0.37927514 0.122576706
000170 38 3f 91 3e 61 99 76 be b5 b3 c4 bd 1a a9 91 be
       0.28368545 -0.24081947 -0.09604589 -0.28449327
000180 05 4b ba be b3 3b 13 be 43 f0 4b 3e f3 67 3a 3d
       -0.3638536 -0.14378242 0.19915871 0.04550929
000190 3f 6c a3 3d 77 fb 6d 3d de ad 25 be 38 a8 62 3d
       0.07979631 0.058101144 -0.16179606 0.055336207
0001a0 b3 0b d3 3d ac 9e 6b be 49 3c cf be b8 d8 26 3e
       0.10304966 -0.23009747 -0.4047568 0.16293609
0001b0 75 03 9a 3d 73 d8 7c be 97 19 eb 3e d9 f4 49 be
       0.075201906 -0.24691944 0.4591796 -0.19722308
0001c0 d0 a7 7f 3e d1 ec 01 3e a3 3b af be 3f cb 86 3e
       0.24966359 0.12687995 -0.34225187 0.2632694
0001d0 e5 29 c0 be 89 93 67 be 17 60 8b bd a9 e0 8c be
       -0.37531963 -0.22614874 -0.06805437 -0.27515152
0001e0 b1 a3 d0 3e df 0c ac bd ab f0 46 3e 13 56 c3 be
       0.40749887 -0.084008925 0.19427745 -0.38151607
0001f0 6f 79 6b 3e 34 08 fd bd 5a 93 e2 be 8c f4 64 bc
       0.22995542 -0.1235508 -0.44253045 -0.01397432
000200 48 08 83 3e 1d 19 be 3e d6 a9 f8 be f8 e3 2b be
       0.25592256 0.37128535 -0.48567075 -0.16786182
000210 a3 cf 78 3d 57 50 1b 3e 0e 4f 16 3e f8 14 64 3e
       0.060744893 0.15167366 0.14678594 0.22273624
000220 9f 4a c8 bd 85 4c 7b 3e 00 01 9d 3e 0a b4 23 be
       -0.09779858 0.24540909 0.30664825 -0.15986648
000230 f4 60 9c 3e f1 1a 45 3e f4 84 af 3e 0b 85 9a be
       0.3054272 0.19248559 0.34281123 -0.3017963
000240 88 8c 67 be 94 27 c5 bd e6 cd 51 bd f4 3d 64 3e
       -0.22612202 -0.096266896 -0.05122175 0.22289258
000250 28 b7 96 be ae 16 91 3e 68 ce 15 be a6 84 7c 3e
       -0.29436612 0.28337616 -0.14629519 0.24659976
000260 8b c4 9e bc d4 1b b7 be 32 00 66 be 66 44 97 be
       -0.019380828 -0.3576342 -0.22461012 -0.2954437
000270 cc 4e 4f 3e 77 25 8c be 4d 4f 0b bd cb 60 b4 3d
       0.20244902 -0.27372333 -0.034011174 0.08807524
000280 15 3a 65 be 01 29 f1 3d 9a b8 d6 be e6 75 a0 be
       -0.22385438 0.11775399 -0.41937715 -0.3133995
000290 82 0b b0 be a2 21 20 be 62 bf 14 be d7 dd 69 3d
       -0.3438378 -0.1563783 -0.14526132 0.05709633
0002a0 22 d3 7c bd 70 72 70 3e 77 1b be 3e 23 1b 2c 3e
       -0.06172479 0.23481154 0.3713033 0.16807227
0002b0 7b 84 07 be 8e 02 ce be 45 7b 2d 3e 2f 7e 2b be
       -0.13234131 -0.40236324 0.16941555 -0.16747354
0002c0 d9 48 39 3e 76 d8 92 3e 17 8c 38 3e 0b ab c4 3e
       0.18094195 0.28680772 0.1802219 0.38411745
0002d0 69 ec d6 3e 1f b5 19 3e ae aa a8 be 7e 87 c6 3e
       0.41977242 0.15010498 -0.32942718 0.38775247
0002e0 25 59 45 be f9 8a 05 be f3 bd ab 3e b0 9a ba 3e
       -0.19272287 -0.13041295 0.33543357 0.36446142
0002f0 76 25 9c 3d 26 49 3c 3d e5 1e a5 be eb 0a 4f bd
       0.076243326 0.045968197 -0.32250133 -0.05054752
000300 3f 4b c1 3e ed 88 0d 3e d7 0d c9 3c 4f 2f af bd
       0.3775272 0.13821764 0.024542732 -0.08553945
000310 7c 7c e8 bd 00 91 60 3e 0e 88 bd 3c 3a 28 d1 3e
       -0.113518685 0.21930313 0.023136165 0.40851003
000320 ac d1 24 be c0 03 49 3e e7 a3 4e 3e b5 d6 f5 3d
       -0.16095608 0.19630337 0.20179711 0.12003843
000330 c1 3c 87 3e e8 9f 92 3e 6e 35 b9 3e 24 23 a8 3e
       0.2641354 0.28637624 0.36173576 0.3283931
000340 96 51 b8 bd 3b 94 c1 be cf df 9f 3d 62 af 6e 3d
       -0.08999936 -0.37808403 0.0780636 0.058272727
000350 43 48 0b be 22 87 61 bd 46 25 1c 3d 31 cb a6 3e
       -0.13601784 -0.055060513 0.038121484 0.32576898
000360 64 d4 12 3e b2 12 fd bd 40 5a 4f be dc ff ac bd
       0.14338833 -0.123570815 -0.20249271 -0.08447239
000370 b5 a8 35 be a2 ee c5 3e f9 24 3b 3e 14 80 d5 3e
       -0.17740138 0.38658625 0.18275823 0.41699278
000380 99 ad 9e bc 08 12 bc 3e 2c 05 c7 3e 8a 01 20 bf
       -0.019369887 0.36732507 0.38871133 -0.6250235
000390 40 4f 12 bd 10 5d 90 3c 99 15 99 be 8f d1 a9 be
       -0.03572011 0.0176225 -0.2989929 -0.33167693
0003a0 cc 7d e9 3e 79 47 8d 3e e6 71 2f 3e 85 80 15 3f
       0.45603788 0.27593592 0.17133293 0.5839923
0003b0 21 51 47 be f3 1c 35 be b8 72 5e 3e a3 84 83 bd
       -0.19464542 -0.17686825 0.21723449 -0.06421783
0003c0 00 45 2f be 60 4d cf be 0c ef a4 3d ef f6 a5 be
       -0.17116165 -0.4048872 0.08053407 -0.32414958
0003d0 8a 76 8c bd 94 fd c0 3e 44 7b bf bd 76 94 9c bd
       -0.06858547 0.37693465 -0.09349683 -0.07645504
0003e0 1b e0 df 3d 66 ca f4 bd 6d 1e a6 be f4 3e 04 3f
       0.109314166 -0.11952667 -0.32445088 0.5165856
0003f0 cf 5f 2b be 08 86 95 be f4 ed 69 be 8a c6 e7 bd
       -0.16735767 -0.2920382 -0.22844678 -0.11317165

fc1.bias f4 [64]
000000 ea ab be 3e 28 e9 9c be a0 21 82 3e 0a 0e 9d be
       0.37240535 -0.30646634 0.2541628 -0.30674773
000010 56 d1 e8 3e ae 88 93 3e 37 33 91 3e 90 2e 95 3e
       0.4547221 0.28815216 0.28359386 0.29137087
000020 14 52 86 3e a3 a3 c9 3c 5b 7c 52 3e 1e 12 e2 bd
       0.26234496 0.02461416 0.2055525 -0.11038612
000030 44 b9 2c 3e 28 0c 4b be b1 f1 02 3c c3 88 df be
       0.16867548 -0.19828856 0.007992194 -0.43659028
000040 31 87 87 bd 08 f8 87 be c4 a4 39 be 33 77 85 be
       -0.066175826 -0.2655642 -0.1812926 -0.26067504
000050 24 8e be be db e2 2a bc 95 a8 92 3e d0 b2 bc 3e
       -0.3721782 -0.010430063 0.28644243 0.36855173
000060 ea 9e 51 3e 5a a9 58 be cd b2 ce be 48 8a 36 3e
       0.20470777 -0.21158352 -0.4037079 0.17826188
000070 60 ed 7f 3e 4f 6c b8 be fe e0 12 3e 3f f4 af 3e
       0.24992895 -0.36020133 0.1434364 0.34366032
000080 51 ac dc 3c ad a1 85 be 04 fb af 3e 8a 58 2b 3e
       0.026937636 -0.2609991 0.34371197 0.16732994
000090 66 ff 81 3e 52 a0 72 be d0 96 63 3e 8a fb 81 be
       0.25390166 -0.2369397 0.22225499 -0.25387222
0000a0 84 07 c4 3e bd cf 58 be 9a df 7b 3e 5f df c4 3d
       0.38286984 -0.21172996 0.24597016 0.09612917
0000b0 ba 8b dd 3d 57 b6 3f bd df 9e 3c 3e 59 6c ab bd
       0.10817666 -0.046804752 0.1841998 -0.08370275
0000c0 50 fe c4 be 62 91 29 be fa 0c a7 3e d1 8e 02 be
       -0.38475275 -0.16559365 0.32627088 -0.12749793
0000d0 57 b0 c3 3d 8c 8c 1a be c8 f0 ba 3e 58 9a 5c 3e
       0.095551185 -0.15092677 0.36511827 0.21543252
0000e0 03 bd 2d 3e 0e 89 24 be 0a c9 aa be 59 be ad 3c
       0.16966633 -0.16067907 -0.33356506 0.021208929
0000f0 fe 38 75 be dd 7b b2 3e b5 d6 c8 be 92 e8 47 3e
       -0.23947522 0.34860125 -0.39226308 0.19522312

fc2.weight f4 [32, 64]
000000 73 85 17 3e 0a 60 55 3d 13 e1 4b 3d d4 79 a7 be
       0.14797 0.052093543 0.049775194 -0.32710135
000010 3c a1 6f bd a3 e8 bd bc 71 75 b4 bd 78 39 07 3e
       -0.058503374 -0.023182219 -0.08811463 0.13205516
000020 cf f7 23 3b 87 60 58 bc 2b 2f 08 3e 90 5c 40 be
       0.0025019532 -0.013206608 0.13299243 -0.1878531
000030 f6 12 d4 bd 6b 2d a5 be 51 e8 07 bd 8a 92 7b bd
       -0.10355179 -0.32261214 -0.03318054 -0.061419047
000040 3d 24 03 bf 34 fa 23 bd 1d 96 ab bd 20 ad 7b bd
       -0.5122717 -0.040033534 -0.08378241 -0.0614444
000050 6a 14 02 be d9 3a 18 3e b5 df 08 3d 1f a2 cc bd
       -0.127031 0.14866199 0.03341647 -0.0999186
000060 1b 43 10 3e 88 6a 1a 3d c4 00 be 3c cd ff 90 be
       0.14088099 0.037699252 0.023193724 -0.2832016
000070 44 53 db 3c 1e 64 ec 3d be bf da 3d c6 2a ad bd
       0.026773103 0.11542533 0.10681103 -0.08455424
000080 d4 ad f9 3d eb 7a 9e 3d 52 94 91 3d 74 93 dd 3d
       0.12191358 0.077382885 0.07108368 0.1081914
000090 ea 50 d0 3d f0 9a 83 3c a8 a2 04 3e 55 9a 7d 3d
       0.10171683 0.01606509 0.12952673 0.06191476
0000a0 6b dc f7 bc 09 d8 9c 3d a8 77 e0 bc bf 80 10 3e
       -0.03025647 0.07658393 -0.027400807 0.14111613
0000b0 58 fc 74 bc 67 70 64 bc 28 96 11 bd 66 28 e7 bd
       -0.014952742 -0.013942814 -0.03554359 -0.11287002
0000c0 a8 b9 94 3d ed 15 04 3e c1 95 8d 3d b9 f1 9d 3d
       0.072619736 0.12898989 0.06913329 0.077121206
0000d0 80 9c 75 3c cc d3 22 3c 8c 71 bb be f9 6a fa bb
       0.014990926 0.009938192 -0.36610067 -0.0076421467
0000e0 2c bc 90 bd 52 80 6f 3e ec 4a 48 bd e0 0a 91 3c
       -0.07067141 0.23388794 -0.048899576 0.01770538
0000f0 38 f0 ea bc 07 29 c9 3c 3a 8b a6 3d 4d f3 30 3d
       -0.028678998 0.024555696 0.08132024 0.04320078
000100 f1 86 a9 3d 16 98 b4 3d 44 e6 9c bd 0b 3a d4 be
       0.08277691 0.088180706 -0.07661107 -0.41450533
000110 2f 01 7e be 4c 0e 49 bc 70 61 34 3c b4 6f 44 3b
       -0.24805139 -0.012271475 0.011009559 0.0029973807
000120 ad e2 f1 3c 19 c5 96 bc 65 11 3f bd a4 c6 24 be
       0.029527033 -0.01840453 -0.046647448 -0.160914
000130 5a d8 20 3e 82 ab c3 be 99 f4 d8 bd b0 f0 d0 bd
       0.15707532 -0.38216788 -0.10593528 -0.102021575
000140 80 f0 ed be 02 bd 52 3d 6b 59 dc 3b c8 2a eb 3d
       -0.4647255 0.051449783 0.0067245266 0.11482769
000150 fc 1c c1 be a8 7c 40 3e 30 5b 15 3e 6c 21 dd bd
       -0.37717426 0.18797553 0.14585567 -0.1079739
000160 f9 4f 31 3e 16 e5 bf 3d fc 68 b3 3a 8d 59 43 be
       0.17315663 0.093698665 0.0013687904 -0.1907713
000170 f3 df f8 bd 86 d1 e9 bc 51 3f ba 3d 84 c5 98 3d
       -0.1215209 -0.028542291 0.09094108 0.07459548
000180 41 e6 a5 bc c2 ec 7f 3e 68 74 ee bd 9e f4 34 3e
       -0.020251395 0.2499266 -0.116432965 0.17671439
000190 33 49 4c 3e 10 a0 dc 3d cf 05 1d bd d0 26 ab 3e
       0.19949798 0.10772717 -0.038335618 0.3342805
0001a0 23 c9 f8 3c 39 24 81 3e bc 41 28 3d 2b 14 5c 3e
       0.030369347 0.25222948 0.041078314 0.21492068
0001b0 6c 0c 5c bd ab 00 08 3d 5c 1a 95 bc d7 14 91 be
       -0.053722784 0.033203762 -0.018201046 -0.28336212
0001c0 bc 67 ce 3d 7a 54 6d 3d 07 a5 ba bc a0 a2 73 3b
       0.100783795 0.05794189 -0.02278377 0.003717579
0001d0 7d 4e 15 3c 78 81 ae 3d 48 cf dd be b2 83 7f 3c
       0.009112951 0.08520788 -0.43322206 0.015595363
0001e0 ab b7 f8 bc fa dc 3e 3e a8 fa 46 3c b4 c6 6b 3b
       -0.030361017 0.18638983 0.012144722 0.003597659
0001f0 5e e8 fd bd 5a fa f3 3c e8 20 44 bc 11 75 a1 3d
       -0.12397836 0.029782463 -0.011970736 0.07883657
000200 44 57 c0 3d 2c 06 8a bc 4b 6a 96 3d c0 af 7a 3e
       0.093916446 -0.016848646 0.073444925 0.24481106
000210 0a d1 b8 3d ea 5e 06 3d d8 b1 9c 3d 5c b2 b8 bd
       0.09024246 0.03280536 0.076511085 -0.09018394
000220 fe 98 ee bd c9 e3 fc 3d 83 ad a8 3d 12 d1 0c 3d
       -0.11650275 0.12348134 0.0823622 0.034379072
000230 a5 af c3 3d 4d 5d ad 3e c8 b1 da bd b2 77 c6 3d
       0.09554986 0.33860245 -0.1067844 0.09690799
000240 b6 29 f0 3e 39 cc 2b 3c 9e 7a 8d 3d dc e0 da bd
       0.46906823 0.010485702 0.06908153 -0.1068742
000250 bf ce cb 3d 05 e4 ee 3c 13 7f 7b 3d 31 1f 84 3c
       0.09951543 0.029161463 0.061400484 0.016128154
000260 d2 45 52 3c ea 36 b9 bd c8 d7 ff bc 9f 92 67 3e
       0.012834029 -0.09043677 -0.031230822 0.22614525
000270 cc bb 9a bd ad 79 b3 bd b2 4a 84 3d 34 43 95 3d
       -0.07555351 -0.08763442 0.064595595 0.072882086
000280 e9 c1 fa bd 93 62 f7 bc e2 af 27 3d d3 ad df 3d
       -0.12244017 -0.030198371 0.04093922 0.10921826
000290 67 d1 a0 3d 0f 39 3c 3c c4 9d 75 bd 14 16 5a bd
       0.0785244 0.011488213 -0.05996491 -0.05324371
0002a0 2e 65 0f 3e d5 6e 8b be 28 77 cd bd 40 61 02 be
       0.1400344 -0.27232996 -0.10032493 -0.1273241
0002b0 9e c5 8b 3d cd dd 86 bd 05 e3 9f 3d d7 e1 7a 3e
       0.06824802 -0.06585274 0.078069724 0.24500214
0002c0 d0 93 01 3d 3c 42 fe bd a3 58 56 3d 29 20 d2 3d
       0.031635106 -0.12414977 0.052330624 0.1026004
0002d0 a6 22 cd bd 7c b4 9e 3a f1 d6 d4 3e e8 0c 59 bd
       -0.10016374 0.0012108232 0.41570237 -0.052990824
0002e0 88 16 b2 3d 5c 9d 26 be d8 a5 e8 bc 68 ea d5 3d
       0.08695704 -0.16270965 -0.028399393 0.104451
0002f0 2c ce 42 bd 44 32 1d bd 6c d0 0b 3c e0 c8 2e be
       -0.047559902 -0.038378015 0.008533578 -0.17068815
000300 4b 44 13 3d b4 27 c3 bd e1 b8 a0 3c 76 b6 5a be
       0.0359538 -0.09529057 0.019619407 -0.21358666
000310 0e 2b 2d be e5 ef dd bd af cf b6 bd 95 06 86 3d
       -0.16910955 -0.10836772 -0.08926331 0.06544224
000320 5c 03 26 3e 50 a7 ef bd da c5 85 3d 0d 06 50 be
       0.16212219 -0.11701834 0.06531878 -0.20314808
000330 d3 77 15 bc ed 55 77 be 2b 80 a0 3d c9 93 44 be
       -0.009122807 -0.24153872 0.07836946 -0.19197
000340 70 ce b0 be 0d dc ad 3c bd fc 02 bd 72 f7 f7 3d
       -0.345325 0.021223092 -0.03197931 0.12107743
000350 1b a0 8d bd fc 70 77 3d 12 e7 5d bd 91 5e b8 3c
       -0.06915303 0.060410485 -0.054175444 0.02250603
000360 60 99 98 3d dc 2b 23 3c 78 05 90 bd 1f 44 8e be
       0.07451129 0.009959187 -0.07032293 -0.27786347
000370 31 73 43 3d 34 54 e6 bd ed 09 68 3b 60 4b 1e 3c
       0.047717277 -0.11246529 0.0035406307 0.0096615255
000380 f3 cf 2d bd cc 5d f9 3d 97 75 95 3c c3 c3 ca 3d
       -0.042434644 0.121760935 0.018244548 0.0990062
000390 44 eb 8c bc bf 07 27 3d 50 f2 de 3d 56 23 36 3e
       -0.017202027 0.04077887 0.10886061 0.17786917
0003a0 bf 9b a7 bd d1 4b b6 3d a0 fc ef 3c 16 75 0a 3d
       -0.08184003 0.089011796 0.029295266 0.033803068
0003b0 f0 d5 06 3d 96 7d 8e 3d a5 7a 23 be 5a 96 a8 be
       0.03291887 0.06957547 -0.15964754 -0.3292721
0003c0 02 08 b8 bd 71 07 2d 3e c1 c7 00 3e 8a a0 41 bc
       -0.08985902 0.1689737 0.125762 -0.011818061
0003d0 b1 ed 0d 3e 60 26 2b bd 2e 5e 07 bf 3a bc 17 3e
       0.13860203 -0.041784644 -0.5287808 0.14817896
0003e0 f6 fe 9b 3d ae 3a b2 3e 7c bc 17 b8 c4 c1 eb 3d
       0.07616989 0.34810394 -3.6176745e-05 0.11511567
0003f0 ae e7 9c 3d df 04 c1 3d 72 02 fe bd 21 ce 42 3e
       0.07661377 0.09424757 -0.1240281 0.19023944

fc2.bias f4 [32]
000000 ad c8 08 bd be 62 06 3d 2a 8d cb bd 7f e7 69 3d
       -0.033394504 0.03280901 -0.09939034 0.057105538
000010 f8 03 c2 bb 21 5d 9e bd 9c e7 e6 bd 7e 05 4f 3d
       -0.0059208833 -0.07732607 -0.11274645 0.050542347
000020 9f 4a 29 bd 4a 2b cc 3d 7e 00 1f 3c 69 7a 59 3c
       -0.04133093 0.09969194 0.009704707 0.013273814
000030 c9 60 7e 3b b4 d5 8d bc 4d d9 2b bd 7a 18 e9 bd
       0.0038815013 -0.017313816 -0.04195528 -0.11381622
000040 4f ac 98 3d 30 33 a1 bd 5f e6 85 3d 2d 9c 81 3c
       0.0745474 -0.07871091 0.065380804 0.01582154
000050 d4 cc ae 3d aa c2 bb 3d 7c 83 92 bd c4 25 c7 3d
       0.085351616 0.091679886 -0.07153985 0.09724
000060 c7 60 25 3d 93 05 d2 bd c1 e6 69 3d 81 c7 82 3d
       0.040375497 -0.102549694 0.05710483 0.063857086
000070 2c 35 f0 3d 04 aa f3 bd 22 aa ca 3d 5c 5c a9 3d
       0.11728892 -0.11897662 0.098957315 0.08269569

fc3.weight f4 [1, 32]
000000 be 12 5b 3e 8b a3 a7 3e df c2 d8 bd 25 b5 4f 3e
       0.21393868 0.3274196 -0.10584044 0.20283945
000010 43 6c 25 3e 28 ba 56 bd fd 17 ab bd 62 ef fc 3d
       0.1615458 -0.052423626 -0.08354185 0.12350346
000020 b6 a5 82 3e e8 08 15 3e b1 74 fd 3d 76 a7 90 bd
       0.25517052 0.14554179 0.12375773 -0.07063191
000030 3d 53 19 be b9 9f 90 bd 0e 5f 71 3e 5d 78 4f 3e
       -0.14973159 -0.07061715 0.23571417 0.20260759
000040 b8 ce 33 bf 32 e4 b5 bc de eb 0a be fe ef 45 bf
       -0.702373 -0.022203539 -0.13566539 -0.77319324
000050 e7 19 55 3e f6 cc 9a bd b6 81 11 3e 9a 14 09 bd
       0.20810662 -0.075586244 0.14209637 -0.033466913
000060 96 fc 96 be c1 2e 26 3d c3 4d 52 3e 15 80 94 bc
       -0.29489583 0.04057193 0.20537476 -0.01812748
000070 c1 9a 44 3e df cd d3 3d 58 4b 83 3e e2 23 1a be
       0.19199659 0.10342001 0.2564342 -0.1505275
