results/LipschitzRobustness/alsomitra/DL2.onnx (onnx, 10944 bytes, 5 tensors)

fc1.weight f4 [64, 6]
000000 5c dd ba bd 67 89 80 3e 26 b1 2b 3c 86 b2 5b be
       -0.09124252 0.2510483 0.010479247 -0.2145482
000010 1b c9 b7 3d 46 50 c0 bd b9 d2 be 3e ab 68 b5 be
       0.08973905 -0.09390311 0.37270144 -0.35431418
000020 6f 09 04 be bc cc c9 be 21 a0 24 be 3d c6 03 3e
       -0.12894224 -0.39414012 -0.1607671 0.1286859
000030 ee 16 cd 3e 38 94 9a 3d 20 e2 cd 3e 8d d0 bc 3d
       0.40056556 0.07547802 0.40211582 0.092194654
000040 67 90 8d 3e 53 18 9b 3e e5 9b bd 3e 62 1c 3c be
       0.27649233 0.30291995 0.37033 -0.18370202
000050 60 29 c4 3e 0c ac 82 3e 66 d6 40 be ba 2d f5 bd
       0.38312817 0.25521886 -0.18831787 -0.11971612
000060 f5 99 72 be 8d 9b 3d 3e d3 cc 20 be 9e 7f fd 3d
       -0.23691542 0.18516369 -0.15703134 0.12377857
000070 73 fd 68 3e c4 80 f4 be 88 2f ca 3d 3a ad 5b bd
       0.22752933 -0.4775449 0.09872347 -0.053632
000080 3d 9e 34 3e dc e8 7a 3e 34 e5 c1 be 04 b9 9f 3e
       0.17638488 0.24502891 -0.3787018 0.31195843
000090 ad 27 a9 3e ea 9e 15 3e 6e 23 c6 be 8d 82 2c be
       0.33038083 0.14611402 -0.38698906 -0.16846676
0000a0 27 8c 11 be 8f 8a fc bd e7 45 6f 3e e0 68 17 3e
       -0.1421362 -0.123311155 0.2336651 0.147861
0000b0 7c 27 a2 3e 20 8b 03 be bb f6 22 3e 93 5d 0f 3e
       0.3167075 -0.1284604 0.15914433 0.1400054
0000c0 75 59 8b be 1f 4d d2 be 39 71 09 be b6 5b 92 3e
       -0.27216688 -0.41074464 -0.13422097 0.28585595
0000d0 3f c3 60 be 2b 09 b3 be 49 02 64 3e e1 e9 6b 3e
       -0.2194948 -0.34967932 0.22266497 0.23038436
0000e0 da b6 ae 3e 45 dd a7 be 3c d6 9c be 05 5b 5d 3e
       0.3412388 -0.32786003 -0.30632198 0.21616752
0000f0 13 77 b0 3e c3 2c 6e 3e 63 01 8b 3d 81 ca 02 3e
       0.34465846 0.23259263 0.06787374 0.12772562
000100 bb f5 d0 3e e1 cb a5 be 12 a1 16 be f3 fc 85 3e
       0.40812477 -0.3238211 -0.14709881 0.26169547
000110 7d ba 57 be a1 7d 23 be 7b d3 f5 3e 13 e6 1e bd
       -0.21067233 -0.15965892 0.4801291 -0.038793635
000120 87 85 05 3e 06 3f 43 be e1 b5 e2 bc 98 6c ba 3e
       0.13039218 -0.1906701 -0.027674617 0.36410975
000130 b8 e4 8e be 32 53 38 3d 33 b7 8c 3e b8 7b 38 be
       -0.27908874 0.045001216 0.2748352 -0.18015945
000140 5b f8 ee 3e a1 bb 21 be cd 16 f4 bd d1 bf 5a 3d
       0.46673855 -0.15794231 -0.119184114 0.053405587
000150 b3 32 88 be 5c 14 cd be 47 b0 6b 3e c6 19 de 3d
       -0.2660118 -0.40054595 0.23016463 0.1084476
000160 68 be c3 be e8 84 86 be bd b2 db 3e 96 99 43 3e
       -0.38231206 -0.26273274 0.42909804 0.19101557
000170 84 88 52 3e c7 2c 4e be 1d 31 2f be f3 ce ee 3c
       0.20559889 -0.20134269 -0.17108579 0.029151415
000180 0c e4 98 bd 12 38 8f be c8 bf 09 3d 70 2e 26 3d
       -0.074653715 -0.27972466 0.033630162 0.04057163
000190 d0 b4 53 bd 64 ca 67 3d de a4 ae bd 85 ab 03 3e
       -0.051686108 0.0565895 -0.0852754 0.12858398
0001a0 25 87 e2 3d 5c f5 66 be dc 9d ac be 18 b8 a9 3e
       0.11060933 -0.22554535 -0.33714187 0.33148265
0001b0 6e 9f c7 3d 44 e9 40 be 4c a6 c7 3e 03 1e d9 bd
       0.09747206 -0.18838984 0.38994062 -0.106014274
0001c0 b3 a9 98 3e a3 54 87 3e a3 3b af be 3f cb 86 3e
       0.2981697 0.2643176 -0.34225187 0.2632694
0001d0 e5 29 c0 be 89 93 67 be 17 60 8b bd a9 e0 8c be
       -0.37531963 -0.22614874 -0.06805437 -0.27515152
0001e0 60 fa c2 3e 52 15 a8 bd c4 9b 18 3e dd 43 5e be
       0.38081646 -0.082071915 0.1490317 -0.21705575
0001f0 5e 78 9f 3e 34 79 e8 be f5 52 ee be b6 43 b2 3d
       0.3114652 -0.4540497 -0.46547666 0.08704321
000200 64 13 0e bd 7e f6 c2 3e 6e 3b b4 be d2 38 24 be
       -0.03468646 0.38078684 -0.3520159 -0.160373
000210 d2 b5 76 3d 20 ca a2 3d e3 b7 05 3e 4a 3e 86 3e
       0.06023199 0.079487085 0.13058428 0.26219398
000220 94 f0 a7 bd 89 18 67 3e 0f 4f 84 3e 7b 34 10 be
       -0.082001835 0.22567953 0.25841567 -0.1408252
000230 08 81 93 3e 3e c6 fa 3d e0 48 a7 3e e5 95 a9 be
       0.2880938 0.12244843 0.32672787 -0.33122173
000240 33 2e 5b be ce 88 0d be 69 ca 1d bd 8c 41 9a 3e
       -0.21404342 -0.13821718 -0.03852311 0.30128133
000250 c9 11 b4 be 73 fe a8 3e 68 ce 15 be a6 84 7c 3e
       -0.3516982 0.3300663 -0.14629519 0.24659976
000260 8b c4 9e bc d4 1b b7 be 32 00 66 be 66 44 97 be
       -0.019380828 -0.3576342 -0.22461012 -0.2954437
000270 cc 4e 4f 3e 77 25 8c be 4d 4f 0b bd cb 60 b4 3d
       0.20244902 -0.27372333 -0.034011174 0.08807524
000280 15 3a 65 be 01 29 f1 3d 8e fe d2 be f4 ae 9f be
       -0.22385438 0.11775399 -0.41209835 -0.31188166
000290 09 81 ca be eb 57 0a be 04 96 39 be 6a 03 1e 3d
       -0.3955157 -0.135101 -0.18123633 0.038577475
0002a0 79 1a ae bd 30 29 36 3e 1d 43 bf 3e d1 37 11 3e
       -0.08501143 0.1778915 0.3735589 0.14181449
0002b0 4c 80 13 be fb 3f e2 be 68 29 1d 3e af fc 48 be
       -0.1440441 -0.44189438 0.15347826 -0.19627641
0002c0 14 4c 4c 3e c2 3e ac 3e d7 0c 56 3e c8 bb cf 3e
       0.19950897 0.3364163 0.20903336 0.40572953
0002d0 90 cf c0 3e 10 72 81 3d 29 14 a0 be 87 76 bc 3e
       0.37658358 0.06320584 -0.3126538 0.3680918
0002e0 03 0a 2e be 0b 6f 6f be 7e ec ab 3e 8f da 96 3e
       -0.16996007 -0.23382203 0.33578867 0.29463622
0002f0 ad 4b a8 3d 06 53 ed 3d 9c 6b a4 be e0 7c 1a 3d
       0.08217559 0.11588101 -0.3211335 0.037716746
000300 c1 df c3 3e 15 4c d0 3d 68 bc fa 3c db 1c 66 bd
       0.38256648 0.101707615 0.030607417 -0.056179862
000310 16 4a f3 bd d9 f7 66 3e 3e 6b 20 bd 59 1f 43 3e
       -0.11879365 0.22555484 -0.039164774 0.19054927
000320 97 38 b6 bd 61 b9 b0 3e 5b d1 8e 3e ce f9 6e bd
       -0.088975124 0.34516433 0.278941 -0.0583437
000330 ac 68 73 3e 46 67 72 3e 50 cc c5 3e 53 bd 93 3e
       0.23770398 0.23672208 0.3863244 0.2885538
000340 75 74 aa bd 55 3b ee be 52 45 a8 3d 89 16 50 bb
       -0.08322994 -0.46529642 0.08216347 -0.0031751713
000350 b4 53 ff bd 1e 9e aa bc 8e 0b 48 3d a1 50 b1 3e
       -0.12467137 -0.02082735 0.048839144 0.34631827
000360 4a 9c 0f 3e 23 de 0a be 31 9a 34 be a3 2b 5d bd
       0.14024463 -0.13561301 -0.17636944 -0.053996693
000370 72 db dd bd a9 90 d2 3e 8c 4e 5f 3e c4 51 b2 3e
       -0.108328715 0.41125992 0.21807307 0.34828007
000380 d1 50 a3 3d 5e 3f f1 bd 8e ef 0f 3e 04 17 38 bf
       0.07974399 -0.117796645 0.14056227 -0.7191012
000390 95 70 6f bc b6 de b8 bd 3f b7 8a be 46 39 a6 be
       -0.014614244 -0.09026854 -0.2709293 -0.3246557
0003a0 07 9d c4 3e f1 0d 5a 3e b6 28 1a 3e 2a 5e bd 3e
       0.38401052 0.2129438 0.15054592 0.36985904
0003b0 21 f7 4b be c8 0f d6 bd 6c 21 2c 3e 9f 68 15 be
       -0.19918491 -0.10452229 0.16809624 -0.14590691
0003c0 cd c5 b4 bd 7c 85 b5 be 74 e4 b5 3d 66 6a 69 be
       -0.0882679 -0.35453403 0.088814646 -0.22794494
0003d0 e8 19 59 3c c4 07 cb 3e 82 0e a5 bd 70 a8 0f be
       0.013250805 0.39654362 -0.08059408 -0.14029098
0003e0 dd 64 c3 3d 4d c4 7c 3d 52 30 0c bd 85 9c 06 3f
       0.095407225 0.061710645 -0.03422577 0.5258258
0003f0 cf 5f 2b be 08 86 95 be d7 ac 71 be be 5e f7 bd
       -0.16735767 -0.2920382 -0.2360109 -0.120786175

fc1.bias f4 [64]
000000 18 50 c0 3e 90 e3 96 be 99 05 67 3e a2 fd 9e be
       0.37561107 -0.2947049 0.22560729 -0.3105288
000010 6c 1c d4 3e fa 4d aa 3e bd 02 97 3e 91 90 9f 3e
       0.41427934 0.33262616 0.29494277 0.31164983
000020 87 54 8c 3e 33 16 0f bd f7 16 63 3e 40 47 2c be
       0.2740824 -0.03493328 0.22176729 -0.16824055
000030 ab 12 31 3e bd 41 c9 bd 31 99 e0 bb 26 c3 a6 be
       0.17292278 -0.09826992 -0.0068541993 -0.3257076
000040 ea 96 da bd e2 93 55 be e9 4a 18 be 33 77 85 be
       -0.10673316 -0.20857194 -0.14872326 -0.26067504
000050 b3 a2 c4 be 40 51 17 bd 37 65 9a 3e 6e f1 ba 3e
       -0.3840538 -0.03694272 0.30155346 0.3651232
000060 2c 17 6a 3e 5a a9 58 be cd b2 ce be 8b 3a 09 3e
       0.22860402 -0.21158352 -0.4037079 0.13401239
000070 88 a7 85 3e 01 41 b1 be 97 2e 3a 3e 85 dd b4 3e
       0.2610438 -0.34619907 0.18181835 0.35325256
000080 0a 10 28 3d 38 97 8e be 0c 07 c4 3e 98 d9 36 3e
       0.04103092 -0.27849746 0.38286626 0.17856443
000090 ac 27 8f 3e 97 f1 1f be 52 22 83 3e 89 b9 8d be
       0.27959955 -0.15619503 0.25612122 -0.27680615
0000a0 64 91 c7 3e 41 80 51 be d0 4b 73 3e c1 32 25 3e
       0.38978112 -0.20459081 0.23759389 0.16132642
0000b0 ba 8b dd 3d ff e7 f4 bc 46 11 38 3e 3b c2 bd bd
       0.10817666 -0.02989578 0.1797534 -0.09265562
0000c0 50 fe c4 be 28 6e 15 be 9c be ba 3e 0d c0 00 be
       -0.38475275 -0.14592803 0.36473548 -0.12573262
0000d0 12 10 17 3e 8c 8c 1a be f2 7b c9 3e 2c cb 5c 3e
       0.14752224 -0.15092677 0.39352375 0.21561879
0000e0 b1 0e 6e 3e 13 4d bc bd 0a c9 aa be ba c0 b2 3d
       0.23247792 -0.09194388 -0.33356506 0.08728166
0000f0 fe 38 75 be 93 4c b7 3e b5 d6 c8 be 0f e4 48 3e
       -0.23947522 0.3580061 -0.39226308 0.19618247

fc2.weight f4 [32, 64]
000000 0c fc 13 3e c6 32 80 3d f3 ec 48 3d 1a 06 4c be
       0.14451617 0.06259684 0.049054097 -0.19924203
000010 ea 27 b0 3e 8b 50 98 bc fc 91 ac bd 41 0f 07 3e
       0.34405452 -0.018593093 -0.08426282 0.13189413
000020 cb a4 05 bd a8 c3 8d bc 98 e6 05 3e 19 0a 73 be
       -0.032627862 -0.01730521 0.13076246 -0.2373432
000030 28 25 62 bd 7e 1d 15 bd 7c 0d 89 bc 72 65 40 bb
       -0.055211216 -0.03640508 -0.016730063 -0.002935734
000040 5c ae d6 bd f4 63 b8 3d db 9d 85 bd 20 ad 7b bd
       -0.10482475 0.090034395 -0.06524249 -0.0614444
000050 f7 db 24 be c9 b4 c0 3a 6f de fe 3c 8c ed aa bd
       -0.16099535 0.0014702316 0.031111924 -0.0834609
000060 a5 3c 26 3e 88 6a 1a 3d c4 00 be 3c 92 86 35 bd
       0.16234072 0.037699252 0.023193724 -0.04431779
000070 b4 2b 19 3d a8 e5 72 3d f2 56 df 3d 68 74 b8 bd
       0.037395194 0.05930105 0.109052554 -0.09006578
000080 7b 23 e5 3d 28 35 06 bd 7a f8 98 3d 6b 07 d1 3d
       0.11188408 -0.032765538 0.07469268 0.10206493
000090 b5 e8 e5 3d 0c 65 c2 3a 98 17 07 3e b9 a9 a3 bd
       0.11226026 0.001483114 0.13192594 -0.079913564
0000a0 13 a7 e5 3c d2 dc e8 3d de 30 9b bc ab 21 9d 3d
       0.028033769 0.11370243 -0.0189442 0.07672437
0000b0 58 fc 74 bc c3 ee a2 3c 70 28 41 3d 78 24 bc 3d
       -0.014952742 0.019889241 0.047157705 0.09186643
0000c0 a8 b9 94 3d da 16 56 3d 64 f4 9a 3d 07 cf ea 3d
       0.072619736 0.052267887 0.07566145 0.114652686
0000d0 5f bd 5e 3d cc d3 22 3c 75 35 3e 3e 38 7f ae bc
       0.054379817 0.009938192 0.1857508 -0.021300897
0000e0 29 09 59 3c 47 78 43 3d ec 4a 48 bd 9d 92 7e 3d
       0.013246813 0.047722127 -0.048899576 0.06215154
0000f0 38 f0 ea bc ca 04 ca 3c 3a 8b a6 3d 81 d4 82 3d
       -0.028678998 0.024660487 0.08132024 0.06388188
000100 07 f7 7f 3d b0 19 ca 3d b3 60 97 bd bf 7e 3b be
       0.062491443 0.09868181 -0.07391491 -0.18310069
000110 69 d6 4c be da 43 66 bc d7 be cd bc e5 94 31 bb
       -0.20003666 -0.014054263 -0.025115414 -0.0027096805
000120 b0 9f 9b bc b9 b2 16 bd 15 cd 91 bd 5d 72 34 3e
       -0.018997043 -0.036791537 -0.071191944 0.17621751
000130 c4 c4 33 3e 66 4b ce bd 52 48 b7 bd 2b a7 a1 3d
       0.17555529 -0.10072975 -0.08949341 0.07893213
000140 58 90 ec bb 11 ae 61 3e 4b ba b7 3d c8 2a eb 3d
       -0.0072193556 0.22039057 0.089710794 0.11482769
000150 e0 a0 a0 bd a1 ba 0b bd 51 3d 11 3e 1a 0b e6 bd
       -0.078431845 -0.03411353 0.14183547 -0.11232586
000160 d3 ce 4a 3e 16 e5 bf 3d fc 68 b3 3a 17 38 b8 3d
       0.1980546 0.093698665 0.0013687904 0.08995073
000170 24 41 12 be 73 14 91 3d 09 34 63 3d 16 2e 51 3d
       -0.14282662 0.070839785 0.055469546 0.05106934
000180 f4 ff 0c bd d7 b2 08 3d f3 9f 0f be ab 25 39 3e
       -0.034423783 0.03337368 -0.1402586 0.18080775
000190 3e 5e 55 3e 04 67 40 bd fe 1c 04 bd 91 21 73 3c
       0.20836732 -0.046973243 -0.03225421 0.014839546
0001a0 a6 d4 a0 3d f2 9b b7 3e 9a e0 4a 3d 76 04 c9 bd
       0.078530595 0.35861164 0.049530603 -0.09815304
0001b0 6c 0c 5c bd e8 8e bb 3d 75 93 ac 3d 00 5b 3e bd
       -0.053722784 0.091581166 0.08426563 -0.046473503
0001c0 bc 67 ce 3d 17 cb d5 3c 16 7e 6f bd d5 40 29 3d
       0.100783795 0.026097817 -0.058469854 0.041321594
0001d0 5a 8f 8f 3d 78 81 ae 3d fd 64 8f be 77 01 a1 3b
       0.07009764 0.08520788 -0.28006735 0.0049135047
0001e0 da 9a 16 be ae e5 e3 bc a8 fa 46 3c e9 87 39 bc
       -0.14707509 -0.02781948 0.012144722 -0.011323907
0001f0 5e e8 fd bd 8f 4d fd 3c e8 20 44 bc 5a c6 ce 3d
       -0.12397836 0.030920772 -0.011970736 0.10096426
000200 d0 3b d0 3d 90 68 df bc 0d 06 a5 3d f5 4f e7 3d
       0.10167658 -0.027271539 0.08057795 0.112945475
000210 51 76 aa be 42 22 f0 3c ba 1a 92 3d 06 9b a9 bd
       -0.33293393 0.02931321 0.07134004 -0.082815215
000220 ff c9 d6 bd 21 c8 07 3e a2 0b be 3d 4e 8f 0e 3e
       -0.104877464 0.13259937 0.092795625 0.13921854
000230 04 ed 38 3d be cc 52 3d d6 5e fc bd 9f 3d 16 3d
       0.04514791 0.05146479 -0.12322776 0.03667986
000240 10 69 25 3d a7 ab 15 be 92 ee 8a 3d dc e0 da bd
       0.0403834 -0.14616261 0.06783785 -0.1068742
000250 7a 26 08 3e 9f 3e 94 3d 63 84 86 3d fc 9d 4f 3c
       0.13295928 0.072385065 0.065682195 0.012671944
000260 36 2e 0d bd ea 36 b9 bd c8 d7 ff bc f3 44 97 bc
       -0.0344679 -0.09043677 -0.031230822 -0.018465495
000270 78 a2 96 bd 61 dc ec bc 23 5a 6d 3d 32 b9 a4 3d
       -0.07355207 -0.028913679 0.05794729 0.08043136
000280 16 2e e2 bd 82 7b 92 3d b6 76 3c 3d c0 b8 e7 3d
       -0.110439464 0.071524635 0.04601165 0.11314535
000290 a4 04 86 3d 66 27 c7 3c 1a 09 72 bd 04 64 a7 3d
       0.06543854 0.024310779 -0.05909071 0.08173373
0002a0 60 0d c5 3d 00 4a c1 be 28 77 cd bd d0 01 90 bd
       0.09621692 -0.3775177 -0.10032493 -0.07031596
0002b0 9e c5 8b 3d 4e 74 e0 bd 4c 9b 31 3c 6a f8 39 3b
       0.06824802 -0.10959683 0.010840248 0.0028376826
0002c0 d0 93 01 3d c7 34 77 bd 51 f1 61 3d 8a 3a aa 3d
       0.031635106 -0.060353067 0.055161778 0.08311947
0002d0 32 c1 42 be 7c b4 9e 3a 74 28 e5 bd 40 85 b6 bd
       -0.1901901 0.0012108232 -0.111893564 -0.08912134
0002e0 3c 48 10 3c 86 7a e4 bd d8 a5 e8 bc df 0b 88 3d
       0.0088062845 -0.11156182 -0.028399393 0.06642889
0002f0 2c ce 42 bd 54 57 1f bd 6c d0 0b 3c a7 35 7b be
       -0.047559902 -0.038901642 0.008533578 -0.24532185
000300 14 81 0b 3d 0e ad ad bd eb 5d 93 3c b3 51 8e bd
       0.034058645 -0.08480273 0.01798912 -0.06949177
000310 7f f0 7d 3e 11 8f d6 bd a9 9d ab bd 90 89 85 3d
       0.24798773 -0.104765065 -0.08379681 0.065203786
000320 7f ac fc 3d d7 de f7 bd a5 a6 80 3d cb 3e 7b be
       0.123375885 -0.1210305 0.06281785 -0.24535672
000330 03 24 26 3d 8c 0a 74 3d d6 2d c2 3d 49 3d 00 be
       0.040561687 0.05958037 0.09481399 -0.12523378
000340 36 57 9e 3d 4d a4 1b 3e f9 f5 47 bc 72 f7 f7 3d
       0.07731478 0.15199395 -0.012204641 0.12107743
000350 cf 97 e8 bd 19 bd d8 bd bc c2 6c bd d5 6e 28 3d
       -0.1135708 -0.105829425 -0.0578029 0.041121323
000360 34 65 c9 3d dc 2b 23 3c 78 05 90 bd 1b 88 dd bc
       0.09833756 0.009959187 -0.07032293 -0.02704244
000370 d3 20 80 3d d0 65 38 be 21 a3 87 3b 0f 06 73 3b
       0.06256261 -0.18007588 0.0041393195 0.0037082469
000380 54 67 60 bd 22 f5 f7 bb 8d da bb 3c 75 83 b8 3d
       -0.05478604 -0.007567064 0.022931362 0.090094484
000390 e7 e3 07 bc 60 2a 05 3d b3 57 e1 3d 91 dc a9 3c
       -0.008294082 0.032511115 0.110030554 0.020735057
0003a0 74 64 96 bc f6 7d 0a 3e fd 9f 1a 3d 98 79 c0 bc
       -0.018358447 0.13524613 0.037750233 -0.02349548
0003b0 f0 d5 06 3d ee bd ce 3d 59 5c 8d bd ab 0f e8 bd
       0.03291887 0.1009482 -0.069023795 -0.113311134
0003c0 02 08 b8 bd 3f 88 a8 3d c4 3c 08 3e 60 84 d2 3c
       -0.08985902 0.08229112 0.1330443 0.025697887
0003d0 93 4e 38 3e 60 26 2b bd 25 d5 27 3d d2 cd 09 3e
       0.17998724 -0.041784644 0.040974755 0.1345742
0003e0 5a 86 31 3e 53 7c 1d 3e 7c bc 17 b8 3b 65 27 3e
       0.17336407 0.15379457 -3.6176745e-05 0.1634721
0003f0 ae e7 9c 3d a5 25 bf 3d 72 02 fe bd 70 07 5a 3e
       0.07661377 0.09333352 -0.1240281 0.212919

fc2.bias f4 [32]
000000 31 c3 8c bc ba bf 07 3d c7 69 df bd a8 ce 9a 3d
       -0.017182918 0.03314183 -0.10908847 0.07558948
000010 f8 03 c2 bb a7 58 9e bd fc 16 02 be 48 e4 85 3d
       -0.0059208833 -0.07731753 -0.1270408 0.06537682
000020 5d ed a4 bc 69 11 ee 3d 52 7a b6 3b d1 5e 45 3c
       -0.020132715 0.116244145 0.005568781 0.012046532
000030 43 f7 0f bd b4 d5 8d bc 53 0b 0a bc f2 43 ab bd
       -0.035147917 -0.017313816 -0.0084255515 -0.08362569
000040 ba ee a0 3d 30 33 a1 bd 5f e6 85 3d c8 ac 2c bd
       0.078580335 -0.07871091 0.065380804 -0.042156965
000050 b6 99 d1 3d a5 f9 bc 3d 86 c9 55 bd 6e d2 c5 3d
       0.10234396 0.092273034 -0.05219414 0.09659277
000060 03 2f 2a 3d 05 08 a5 bd c7 68 99 3d 81 c7 82 3d
       0.04154874 -0.0805817 0.07490688 0.063857086
000070 0d 61 09 3e 04 aa f3 bd 13 a4 18 3e 62 cd aa 3d
       0.13415928 -0.11897662 0.1490634 0.08339955

fc3.weight f4 [1, 32]
000000 f8 82 40 3e 64 98 84 3e 64 e5 c0 bd 81 cc 3e 3e
       0.1879996 0.25897515 -0.09418753 0.186327
000010 43 6c 25 3e 28 ba 56 bd 2b ab 4c bd c5 a3 0d 3e
       0.1615458 -0.052423626 -0.049967926 0.13832004
000020 37 a6 47 3e e4 a9 16 3e 4b 34 c9 3e 46 08 05 be
       0.19497 0.14713246 0.3929771 -0.12991437
000030 ec 90 8a bc b9 9f 90 bd b2 fe 56 3e 0f 52 99 3d
       -0.016914807 -0.07061715 0.20995596 0.074863546
000040 b1 d0 0b be 32 e4 b5 bc de eb 0a be bb 58 2a be
       -0.13653828 -0.022203539 -0.13566539 -0.1663541
000050 1d 50 49 3e de bf 9a bd d5 e4 d5 3d dd df 08 bd
       0.19659467 -0.07556127 0.10444037 -0.033416618
000060 75 90 d1 be bd e4 93 3b f3 88 2c 3e 15 80 94 bc
       -0.40930524 0.0045133517 0.16849117 -0.01812748
000070 cf b4 2e 3e df cd d3 3d bb 90 82 3e 76 da 1a be
       0.1706116 0.10342001 0.25501046 -0.15122399
