results/LipschitzRobustness/alsomitra/GD.onnx (onnx, 10944 bytes, 5 tensors)

fc1.weight f4 [64, 6]
00000000: d23c c3bd a058 693e 08c6 933c 7634 7cbe
00000010: 9c5a 943d e356 e6bd b9d2 be3e ab68 b5be
00000020: 6f09 04be bccc c9be 21a0 24be 3dc6 033e
00000030: 8ffe c63e e974 653d 4b1a cb3e bb5a b03d
00000040: 4a91 803e ce62 893e 614e be3e 9fe1 33be
00000050: 3455 c03e c116 493e fa6d 46be 7049 04be
00000060: 8070 78be 882b 3e3e 90c0 18be 2183 a23d
00000070: 392b 733e 96fa e6be 5348 d33d 74ab 56bd
00000080: 7d56 3b3e f348 763e 41d3 c0be ef77 a83e
00000090: e0aa a83e 9090 163e d548 c4be 63f7 33be
000000a0: ebf6 19be 1175 febd a335 693e 4274 0c3e
000000b0: 4ca8 a73e 46d1 1cbe 85eb 1c3e ece1 eb3d
000000c0: ae44 8cbe 4674 bebe 1260 26be 9666 943e
000000d0: c6ae 62be 3fdf b2be 5cf6 663e 41e2 633e
000000e0: c9d3 a13e cf14 a2be 8abf a9be c632 6f3e
000000f0: 3648 b33e d371 6c3e 52a6 8c3d 3e05 053e
00000100: f63e ce3e 9a60 9bbe 2f53 16be 5e0d 973e
00000110: d6c0 81be 4eb8 1bbe a08c c73e 7fc9 f23d
00000120: 33a8 f93d e326 52be 7a10 00bd fa0b a83e
00000130: 33d9 94be 230b 193d d7a0 973e 4153 29be
00000140: 282a e53e f76f 14be 1758 bdbd f04a 013d
00000150: b332 88be 5c14 cdbe 47b0 6b3e c619 de3d
00000160: 68be c3be e884 86be 7aa9 d63e f2bc 3c3e
00000170: 1709 2b3e 3941 3dbe 77e1 40be 2691 863d
00000180: 0ce4 98bd 1238 8fbe c8bf 093d 702e 263d
00000190: d0b4 53bd 64ca 673d 953a 02be 7c73 da3d
000001a0: 2292 023e 48c9 74be 806d c7be d5c5 8b3e
000001b0: 5c7b c43d 0da2 57be 9ede bc3e 2e88 cfbd
000001c0: 716b 8b3e 2097 943e a33b afbe 3fcb 863e
000001d0: e529 c0be 8993 67be 1760 8bbd a9e0 8cbe
000001e0: c400 c13e ed9a bbbd 6838 143e 9f59 a9be
000001f0: 67fc 8f3e 57fc 9abe 8bf5 c6be 3153 183d
00000200: 4d95 f23d 8c05 bd3e 1ed2 c0be 9b64 13be
00000210: a820 8c3d c167 b73d a11b 153e a0c0 773e
00000220: e6dd 84bd ced3 763e dc6b 883e ba46 16be
00000230: 83f4 8d3e 8719 103e 61f2 9d3e 5d20 a1be
00000240: 7e05 59be 0793 1cbe 9735 e5bc f8d9 8b3e
00000250: 7709 a3be b97d b23e 68ce 15be a684 7c3e
00000260: 8bc4 9ebc d41b b7be 3200 66be 6644 97be
00000270: cc4e 4f3e 7725 8cbe 4d4f 0bbd cb60 b43d
00000280: 153a 65be 0129 f13d 8956 d3be fb3a a1be
00000290: 0459 cabe 92bc 0ebe 281d 34be 82ed 133d
000002a0: f627 9abd 8d1c 403e 223f c23e 9c3d 1f3e
000002b0: e60b 11be a9f0 d5be 620f 113e 00b8 4bbe
000002c0: d178 473e 1251 a33e 14f8 523e 5293 c83e
000002d0: 386a c23e c438 823d 09b2 9ebe 3f5a c23e
000002e0: 356f 2cbe 2986 53be b668 a63e 76da 973e
000002f0: 91cf d63d ca8b 673d ec0a 9abe 4230 00bd
00000300: 158e c53e 3ce4 d83d 72ba 133d 36fd 9ebd
00000310: 1195 fdbd dc6b 663e 4dcf 913c a8b9 883e
00000320: f7cd cdbd 2c49 8a3e 34a4 733e 83ac e83d
00000330: b078 7b3e dc3b 703e d043 c53e c7dd 983e
00000340: d0ea b2bd 7e29 ddbe 6490 9e3d 4982 86bc
00000350: 6c11 e7bd 792c 6cbd a817 0b3d 73b4 a83e
00000360: 8801 133e 0557 13be f006 28be 0db2 afbd
00000370: 06ed ffbd 3028 d23e 772f 513e 9097 af3e
00000380: 1380 b13d f6fa a2bd 3d9d 0e3e f6d2 41bf
00000390: 55c8 10bc d223 b3bd a449 77be 882b b8be
000003a0: abd5 c63e 1c57 4d3e a78a 153e 0aee b83e
000003b0: 804c 49be 4946 e9bd c3d3 233e fc41 1bbe
000003c0: e6dc b1bd 5994 babe 7e97 dd3d 6b8f 94be
000003d0: 703b 183c 2f3e bb3e 1146 ccbd 926e 21be
000003e0: c22d f13d 6982 b73c 8ec6 85bd ebc5 063f
000003f0: cf5f 2bbe 0886 95be f4ed 69be 8ac6 e7bd
-0.09533085 0.22787714 0.018038765 -0.24629387 0.07243845 -0.11247041 0.37270144 -0.35431418
-0.12894224 -0.39414012 -0.1607671 0.1286859 0.38866088 0.056019697 0.39668497 0.086110555
0.25110847 0.26833194 0.37169173 -0.17566536 0.37565005 0.19637586 -0.1937789 -0.12918639
-0.24261665 0.18571293 -0.14917207 0.07935167 0.23746957 -0.45113057 0.10316529 -0.052409604
0.18294711 0.24051265 -0.37661174 0.32904002 0.32942867 0.14703584 -0.38336816 -0.1757484
-0.15035598 -0.124246724 0.22774367 0.13716224 0.32745588 -0.15314206 0.15324219 0.115177006
-0.27396148 -0.37198085 -0.16247585 0.28984517 -0.22136983 -0.34935948 0.22554916 0.22254278
0.31606892 -0.316565 -0.33153945 0.23359212 0.3501603 0.23090295 0.068676606 0.12990281
0.4028241 -0.3034714 -0.1468017 0.29502386 -0.25342435 -0.15207025 0.38974476 0.118548386
0.121902846 -0.20522647 -0.031265713 0.32821637 -0.2907196 0.037364136 0.296149 -0.16535665
0.44758725 -0.14495836 -0.092453174 0.031565607 -0.2660118 -0.40054595 0.23016463 0.1084476
-0.38231206 -0.26273274 0.41926175 0.18431452 0.16702686 -0.18481912 -0.18836008 0.065706536
-0.074653715 -0.27972466 0.033630162 0.04057163 -0.051686108 0.0565895 -0.1271766 0.10666558
0.12751058 -0.23904908 -0.3895073 0.2729937 0.095938414 -0.21057911 0.36888593 -0.10133396
0.2723041 0.2902155 -0.34225187 0.2632694 -0.37531963 -0.22614874 -0.06805437 -0.27515152
0.37695897 -0.09160409 0.14474642 -0.33076188 0.28122255 -0.30270645 -0.3885921 0.037188713
0.11844883 0.36918294 -0.37660307 -0.14393847 0.06842166 0.08955336 0.14561321 0.24194574
-0.06487636 0.24104235 0.2664479 -0.14675418 0.2772561 0.14072238 0.30848983 -0.31470004
-0.21193501 -0.15290461 -0.027979655 0.27314734 -0.3184316 0.34861544 -0.14629519 0.24659976
-0.019380828 -0.3576342 -0.22461012 -0.2954437 0.20244902 -0.27372333 -0.034011174 0.08807524
-0.22385438 0.11775399 -0.4127696 -0.3149031 -0.3952104 -0.13939121 -0.17589247 0.036115177
-0.07527153 0.18760891 0.37938792 0.15550846 -0.14164695 -0.41785172 0.14166024 -0.19894409
0.19479682 0.3189779 0.20602447 0.39174896 0.37971663 0.063584834 -0.30995205 0.37959477
-0.16839297 -0.20656647 0.32501763 0.2965886 0.10488809 0.056529798 -0.30086458 -0.031296022
0.38584962 0.10590407 0.03606648 -0.0776314 -0.12381948 0.22502083 0.017799044 0.26704144
-0.1004905 0.2700895 0.23793107 0.11361029 0.24557757 0.23460335 0.385283 0.29856703
-0.08736193 -0.4319572 0.07742384 -0.016419547 -0.1128262 -0.0576596 0.033958107 0.32950172
0.14356053 -0.14388664 -0.16408896 -0.08578882 -0.124963805 0.41046286 0.20428263 0.3429532
0.08667006 -0.07958023 0.13927169 -0.75712526 -0.008836825 -0.087470666 -0.24149185 -0.35970712
0.3883489 0.20052761 0.14603673 0.3611911 -0.19658089 -0.11390359 0.1599875 -0.1516189
-0.08684711 -0.36441305 0.108199105 -0.2901567 0.009291515 0.3657088 -0.099743016 -0.15764835
0.11776306 0.022401052 -0.06532012 0.5264575 -0.16735767 -0.2920382 -0.22844678 -0.11317165

fc1.bias f4 [64]
00000000: 126c cc3e 90e3 96be c66e 843e 7c9c a4be
00000010: 9af5 c33e d650 a83e 4923 9a3e 43ce a43e
00000020: 5864 8e3e aa67 c4bc 983a 5f3e 1ee7 09be
00000030: 14ae 163e 7ba8 adbd 3199 e0bb 94da bdbe
00000040: ea96 dabd 3bbf 59be f17d 0abe 3377 85be
00000050: dd6d c4be 83c0 953c 770f 923e 8cff ba3e
00000060: ee6f 7a3e 5aa9 58be cdb2 cebe 29ea 063e
00000070: 1e3b 863e bedb afbe 309b 3a3e 840b b13e
00000080: 962b 1b3d 5e84 5cbe 0bdc bf3e 7497 483e
00000090: f80b 9a3e f603 28be 880f 873e 8139 94be
000000a0: b309 d13e a7c4 2dbe 9adf 7b3e 51a8 f53d
000000b0: ba8b dd3d a8ac c4bc 2bb6 443e 72eb f7bd
000000c0: 50fe c4be 8582 0fbe 1354 b63e 2017 dcbd
000000d0: 607d 253e 8c8c 1abe adc9 8f3e 70b8 673e
000000e0: 8a60 653e e231 bfbd 0ac9 aabe 11b7 3c3d
000000f0: fe38 75be f85c bb3e b5d6 c8be f189 553e
0.399262 -0.2947049 0.25865763 -0.32150638 0.38273317 0.32874173 0.30105045 0.32188615
0.2781093 -0.023975212 0.21799695 -0.1346707 0.14714843 -0.08479401 -0.0068541993 -0.37080824
-0.10673316 -0.21264355 -0.13524605 -0.26067504 -0.3836507 0.018280273 0.28527424 0.36523092
0.2445676 -0.21158352 -0.4037079 0.13175263 0.26216978 -0.34347337 0.18223262 0.34579098
0.037883364 -0.21534869 0.37472567 0.19589025 0.30087256 -0.16407761 0.26379037 -0.28950122
0.40827712 -0.16969548 0.24597016 0.119949944 0.10817666 -0.02400811 0.19210117 -0.121054545
-0.38475275 -0.14014633 0.3561102 -0.10746598 0.16161108 -0.15092677 0.28083554 0.22628951
0.22400108 -0.09335686 -0.33356506 0.046073023 -0.23947522 0.36594367 -0.39226308 0.20853402

fc2.weight f4 [32, 64]
00000000: a653 173e c632 803d 2f20 4b3d 6acd 43be
00000010: 5a83 873e fe71 8ebc c6ec b3bd ece0 083e
00000020: fc2f 01bd 4740 6ebc fd78 043e 7560 dfbd
00000030: a331 56bd 1d71 b6bc 7c0d 89bc 8f36 adbb
00000040: 5cae d6bd e545 843d 6230 77bd 20ad 7bbd
00000050: 37bd ffbd 99f4 393c 5199 fb3c 382c a6bd
00000060: 9a9b 283e 886a 1a3d c400 be3c 56d6 32bd
00000070: 50c1 323d 08f2 573d 56fb cd3d 52e0 b5bd
00000080: 0194 e23d 1766 f3bc 2eb1 9b3d df8d cf3d
00000090: d845 ea3d 2f3b 613c 93b8 063e 80b2 bdbd
000000a0: d582 2d3d 3381 bc3d a877 e0bc 229f 0c3d
000000b0: 58fc 74bc ce95 093b a4c2 863d 9162 ab3d
000000c0: a8b9 943d aff2 2a3d ccee 973d b429 c63d
000000d0: 2593 0d3d ccd3 223c 971a 653d e3ad b4bc
000000e0: 6088 fb3c ece3 943c ec4a 48bd f232 eb3c
000000f0: 38f0 eabc 4b0a d73c 3a8b a63d e5ac 973d
00000100: 309f 883d b019 ca3d 93e6 91bd f121 2ebe
00000110: c456 79be 6060 0dbc a136 e4bc 4ebc 2c3b
00000120: 322a 68bc fa47 ccbc ba26 97bd c9b5 013e
00000130: 9a8b 2e3e cfce 7cbd 5248 b7bd 270f b23d
00000140: 5890 ecbb 0902 323e ea79 e23d c82a eb3d
00000150: dc29 a8bd 95f0 73bc c6d8 123e ee25 d6bd
00000160: 0076 523e 16e5 bf3d fc68 b33a 8f8e b93d
00000170: 0e1c 0fbe 223c 783d 079a 0e3d 4e53 4c3d
00000180: d591 04bd 093b fe3d a97e 10be 4bd4 3d3e
00000190: b1f4 623e fe9f 2cbd 6e7d 8dbc 33e0 e4bb
000001a0: 6780 e43d b09c a43e bc41 283d 8ea3 d9bd
000001b0: 6c0c 5cbd 99ec 903d 4264 cb3d 9227 0dba
000001c0: bc67 ce3d ffb2 8a3c ac77 76bd ec52 bf3c
000001d0: 172c 0c3d 7881 ae3d 341f 283d 2bb5 e93b
000001e0: e775 0fbe d7eb 6ebd a8fa 463c d819 ad3b
000001f0: 5ee8 fdbd 3bec 1a3d e820 44bc ae07 ec3d
00000200: f9af c93d 9068 dfbc 50f6 9e3d fccb cb3d
00000210: fe3e 80be 2dd7 c53c cfcc a43d 67c3 b0bd
00000220: 0e89 d5bd c625 033e b558 be3d 4ddc cfbc
00000230: 6226 143d 8177 1b3d d65e fcbd 88f4 1c3d
00000240: 1069 253d cd86 c0bd 9ab9 693d dce0 dabd
00000250: 5a1a c63d 5aa5 9c3d 3c4e 803d a352 0a3c
00000260: 8a56 25bd ea36 b9bd c8d7 ffbc f344 97bc
00000270: 6bbc aabd 54ae 0dbd 7c35 8a3d 4f2e a03d
00000280: 752a e1bd 5b50 793d 3f97 2b3d f863 e73d
00000290: f57f 823d 4178 583c 895f 61bd 061d bf3d
000002a0: 02cf a63d b7aa adbe 2877 cdbd 4755 9abc
000002b0: 9ec5 8b3d b024 b4bd 9b63 1b3d 8329 473d
000002c0: d093 013d 3a0e 55bd 2190 673d 8a3a aa3d
000002d0: 6b7f 16be 7cb4 9e3a 3de5 283d 397b 51bd
000002e0: 3a66 eabb 7d52 aebd d8a5 e8bc 03d5 523d
000002f0: 2cce 42bd d869 37bd 6cd0 0b3c dc65 6ebe
00000300: df51 1b3d 0ead adbd 2446 983c caa9 78bd
00000310: 9390 293e 76d5 d3bd e07f b4bd dac7 893d
00000320: 6095 003e c655 f1bd 41b6 7a3d f28f e8bd
00000330: 6ee6 333d 6944 983d d62d c23d 3612 03be
00000340: 3657 9e3d e937 013e 398f d4bb 72f7 f73d
00000350: a868 8fbd e795 c0bd e800 6fbd b2fb 333d
00000360: b01b cf3d dc2b 233c 7805 90bd 6f19 d8bc
00000370: 707e 8f3d e3b4 3fbe b34d bcbb 6965 aa3b
00000380: 879e 66bd 8554 e5ba 4082 c93c ef4a b63d
00000390: 8465 c3bb af73 413d f089 df3d 0631 b23b
000003a0: 86cd dfba 33bb e03d a0fc ef3c 4e79 95bd
000003b0: f0d5 063d b660 a53d d086 4dbd 94b6 f8bd
000003c0: 0208 b8bd 890e 8f3d 987e 063e 5c31 003c
000003d0: 9c61 213e 6026 2bbd 1712 bdbd 4e1e 093e
000003e0: 61d2 463e b321 fd3d 7cbc 17b8 29a5 ff3d
000003f0: aee7 9c3d 10a7 c23d 7202 febd 2f3f 653e
0.14778003 0.06259684 0.04959124 -0.19121328 0.264674 -0.01738834 -0.08785395 0.13367051
-0.031539902 -0.014541692 0.12936778 -0.109070696 -0.05229343 -0.022270733 -0.016730063 -0.005286045
-0.10482475 0.06458644 -0.060348876 -0.0614444 -0.12487262 0.0113498205 0.030712755 -0.08113903
0.16465607 0.037699252 0.023193724 -0.043661438 0.04364139 0.052721053 0.10057704 -0.08880676
0.11063386 -0.029711766 0.07602154 0.10134482 0.11439103 0.013747021 0.13156347 -0.09262562
0.0423611 0.0920433 -0.027400807 0.03433145 -0.014952742 0.0020993832 0.065800935 0.083684094
0.072619736 0.041735347 0.07418594 0.09675923 0.034564156 0.009938192 0.05593356 -0.022055572
0.030704677 0.018175088 -0.048899576 0.028710816 -0.028678998 0.026250025 0.08132024 0.07406024
0.066709876 0.09868181 -0.07124057 -0.17005135 -0.24349505 -0.008628935 -0.02785808 0.0026357356
-0.014170216 -0.024936665 -0.073804334 0.12667002 0.17045441 -0.061720666 -0.08949341 0.08694296
-0.0072193556 0.17383589 0.110584095 0.11482769 -0.08211109 -0.014888902 0.14340505 -0.10456453
0.20552826 0.093698665 0.0013687904 0.09060394 -0.13975546 0.060604222 0.03481486 0.049884133
-0.03236564 0.12413604 -0.14110817 0.18538015 0.22163655 -0.042144768 -0.017271724 -0.0069847344
0.11157303 0.32150793 0.041078314 -0.10626899 -0.053722784 0.070763774 0.09931232 -0.00053846196
0.100783795 0.016931055 -0.06017272 0.02335497 0.034221735 0.08520788 0.041045383 0.0071321926
-0.1400982 -0.058330383 0.012144722 0.005282622 -0.12397836 0.037822943 -0.011970736 0.11524902
0.09848017 -0.027271539 0.07761824 0.09951016 -0.2504806 0.024150455 0.08046877 -0.0863102
-0.10426532 0.12807378 0.09294263 -0.025373602 0.036169417 0.037955765 -0.12322776 0.03831914
0.0403834 -0.09400711 0.05706177 -0.1068742 0.09672995 0.07648726 0.06264922 0.008442554
-0.040365733 -0.09043677 -0.031230822 -0.018465495 -0.08336719 -0.03459008 0.067484826 0.07821333
-0.10994426 0.06086765 0.041892286 0.112983644 0.06372062 0.0132122645 -0.05502275 0.09331708
0.08144952 -0.33919308 -0.10032493 -0.018839492 0.06824802 -0.0879606 0.037936788 0.048623573
0.031635106 -0.05201552 0.056533936 0.08311947 -0.14697044 0.0012108232 0.041234244 -0.051142905
-0.0071532996 -0.08511827 -0.028399393 0.051472675 -0.047559902 -0.044778675 0.008533578 -0.23281044
0.037919875 -0.08480273 0.018588133 -0.0607088 0.16559057 -0.10343449 -0.08813453 0.06727572
0.12556982 -0.11783938 0.061208967 -0.113555804 0.043920927 0.07434923 0.09481399 -0.12799916
0.07731478 0.12618984 -0.0064868 0.12107743 -0.070023835 -0.094035916 -0.058350474 0.043941207
0.10112703 0.009959187 -0.07032293 -0.026379315 0.07006538 -0.18721347 -0.005746567 0.0052000773
-0.056303527 -0.0017496502 0.02459824 0.08901011 -0.0059630293 0.047229465 0.10914981 0.005437973
-0.00170748 0.109732054 0.029295266 -0.07298528 0.03291887 0.08075087 -0.050177395 -0.12144199
-0.08985902 0.06985194 0.13134229 0.007824268 0.15759891 -0.041784644 -0.09231966 0.13390467
0.1941619 0.12359943 -3.6176745e-05 0.12482674 0.07661377 0.09504521 -0.1240281 0.22387384

fc2.bias f4 [32]
00000000: 5597 61bc e1ca 333d 9ac6 e9bd ecf3 a23d
00000010: f803 c2bb a758 9ebd 4bbd 06be 48e4 853d
00000020: c5ec 83bc 4678 f53d 990b 0a3c 3c58 483a
00000030: 43f7 0fbd b4d5 8dbc 6151 79bb c7a1 a3bd
00000040: baee a03d 3033 a1bd 5fe6 853d c8ac 2cbd
00000050: c2ec d83d aac2 bb3d 4285 46bd 06e6 c03d
00000060: fc1d 30bc c3b6 a0bd a189 a03d 81c7 823d
00000070: fef5 0c3e 04aa f3bd 94de 1f3e 5c5c a93d
-0.0137689905 0.043894652 -0.11414833 0.07956681 -0.0059208833 -0.07731753 -0.13158147 0.06537682
-0.016104111 0.11985831 0.008425617 0.00076425425 -0.035147917 -0.017313816 -0.003804289 -0.07989841
0.078580335 -0.07871091 0.065380804 -0.042156965 0.10592033 0.091679886 -0.04846693 0.094188735
-0.010749336 -0.07847359 0.07838751 0.063857086 0.13765714 -0.11897662 0.1561225 0.08269569

fc3.weight f4 [1, 32]
00000000: 27a5 3a3e 1d89 843e 84b8 aebd 735e 3a3e
00000010: 436c 253e 28ba 56bd f5c5 3ebd c5a3 0d3e
00000020: 28d8 433e 4cd8 183e b308 f93d 67b9 01be
00000030: ec90 8abc b99f 90bd 3067 463e 3548 8d3d
00000040: b1d0 0bbe 32e4 b5bc deeb 0abe bb58 2abe
00000050: 2256 473e f6cc 9abd 2ddb cb3d 1113 e8bc
00000060: 920d e3be 1dc5 993b 04f7 2a3e 1580 94bc
00000070: 9646 2d3e dfcd d33d f2b2 6f3e e223 1abe
0.18227063 0.2588586 -0.08531287 0.18200092 0.1615458 -0.052423626 -0.046575505 0.13832004
0.19125426 0.1492626 0.12159862 -0.12668382 -0.016914807 -0.07061715 0.193753 0.06898538
-0.13653828 -0.022203539 -0.13566539 -0.1663541 0.19466451 -0.075586244 0.09953914 -0.028329404
-0.4434629 0.004692687 0.16695791 -0.01812748 0.16921458 0.10342001 0.23408106 -0.1505275
