results/OppositeFaces/dice/Baseline.onnx (onnx, 28326 bytes, 8 tensors)

conv1.weight f4 [4, 3, 3, 3]
00000000: 8b5c a73e 9eb2 763e 1ddc 2abb 787b ac3e
00000010: 2017 383e 306a 443e ebdf dabc 5fff ac3e
00000020: 6298 c93e d47f 17be b1cf 8b3e fc3c 1a3e
00000030: 76de 0c3d b29d 3c3d 9236 8d3e 9b01 23be
00000040: 684c b53d 8669 2a3d cfc3 82be 041c f93d
00000050: 06a0 063e 00c9 d1be ed7d 83be 7c41 bf3e
00000060: 2d89 13bf b014 e2be 37b4 32be ccf9 acbc
00000070: b680 233e 8557 3cbe 741f 933e e20e ef3d
00000080: 108b b93e 3d2a fd3d b04c 5c3e f8b5 b03e
00000090: e1de 0f3e 7f0c bc3e 4747 183e 13eb 103e
000000a0: ddfd cc3e 2203 903e 60b2 893e 8d4b e23e
000000b0: dd5c b63e 853a 0e3e 1e3c 0e3f dd6d a13e
000000c0: 4d33 ca3e 9e3c c93e c284 793e ab90 023e
000000d0: 96a0 f73d d8e5 e03e be81 29bd 818c 23be
000000e0: af04 61be 427e 843d c81f 6bbd c932 dabe
000000f0: 4155 5d3e 7b66 22be 0ea0 adbd e29f 2cbd
00000100: 1a00 4bbe 3d2e c9be 172f 563e 5cbe b4be
00000110: e3c1 cebe 03ac ea3d 5d2c 473e 9533 b23d
00000120: 73a0 173e c8b9 fabe 81cb 25bf c004 1dbe
00000130: 4a52 d3be eb04 7dbe 3ca6 933e 91a0 313e
00000140: c741 6dbd 4566 0abf f3d7 6bbe 5a37 59be
00000150: 2f62 9bbe 4b00 3dbf 1c72 bcbe 9eba e3be
00000160: e321 33bf 9296 a7be 4fd0 71be 9f7d b6be
00000170: 2ef9 07be 21af 6abe 24fb 65bf b77c 37bf
00000180: 234d bfbd ff21 31bf e495 ffbe b95e 10bf
00000190: 0eda 10bf a898 d2be 6124 11bf 8c5f 82bf
000001a0: 0f59 3cbf 97ad 27bf b10d 66bf 283a 24bf
0.32687792 0.24091575 -0.002607114 0.3368795 0.17977571 0.19181132 -0.0267181 0.33788583
0.3937407 -0.14794856 0.27306893 0.15062326 0.034391843 0.046048827 0.27580696 -0.15918581
0.08852464 0.04160454 -0.25540015 0.12163547 0.13146982 -0.40973663 -0.2568201 0.37354648
-0.5763119 -0.44156408 -0.17451559 -0.021115206 0.15967068 -0.18392761 0.28734934 0.116727605
0.3623891 0.12361572 0.21513629 0.3451383 0.14049865 0.36728284 0.1487094 0.14152174
0.40037432 0.2812739 0.26893902 0.44198266 0.35617724 0.13889511 0.5556048 0.31529132
0.39492264 0.3930406 0.2436705 0.12750499 0.12091176 0.43925357 -0.041383497 -0.15971567
-0.21974443 0.06469394 -0.057403356 -0.4261687 0.21614553 -0.15859406 -0.08477794 -0.042144664
-0.19824257 -0.3929309 0.20916401 -0.35301483 -0.403823 0.1145859 0.19450517 0.08701245
0.148073 -0.48969865 -0.6476365 -0.15333843 -0.4127372 -0.24708907 0.28837764 0.17346407
-0.05792406 -0.540623 -0.23031597 -0.21212521 -0.30348346 -0.7382857 -0.3680581 -0.44478315
-0.6997358 -0.32732064 -0.2361462 -0.35642716 -0.13278648 -0.22918369 -0.89836335 -0.71674675
-0.093408845 -0.691925 -0.49919045 -0.56394535 -0.56582725 -0.41132092 -0.56696135 -1.0185409
-0.7357339 -0.6549925 -0.8986464 -0.6415124

conv1.bias f4 [4]
00000000: 0a0d b63d 892b 803e 87ed 0f3f 0808 373f
0.08889206 0.25033215 0.5622181 0.7149663

conv2.weight f4 [8, 4, 3, 3]
00000000: ffaf f63c 316b 84bd d279 c7bc 7a36 fe3c
00000010: 37cb 613e 4c1a 75be 8eed 29be 80fe 12be
00000020: 3118 fd3c 0ba3 d8bc a101 65be 0dd4 b938
00000030: 8190 083e 44ac 49ba bff2 3e3d ab7b 283d
00000040: 4fe1 213e ffc9 03be 1f92 db3e 3e86 f93d
00000050: ba44 03bf 9561 3f3e 1ac6 a8bd c1e6 2bbe
00000060: 003b 26bb 2cf0 54be 594b 0b3e 9fe6 20bd
00000070: db40 683e a205 ccbe 217a 2d3e 0009 b0bd
00000080: 3def 59bd f60c 673d 214b 293e d42e 983e
00000090: dc18 923e 4a35 88be 0674 26bd 1c89 463d
000000a0: 5c52 923d 1806 3fbe 40f5 883e 67a1 cabd
000000b0: e76a 3b3e bde5 743e 15fe 943e 18ae 40be
000000c0: 24df 423e fc38 083e b691 30bd caa2 97be
000000d0: 2f73 603b 9820 263b 6525 a9be 3518 623e
000000e0: 05fe 9e3e ccb3 85be 35f8 06be f2c9 673e
000000f0: 16e1 743e 9b47 9d3a 9844 adbd 36db 08be
00000100: df1e aabe d680 603e 709f 583e 8f33 7abe
00000110: ad72 b33d dcf8 8f3e a336 ec3d 0d1a 3cbd
00000120: 03e8 993e 3706 143e bdd7 39bd 6dd0 243d
00000130: d562 593e 57d6 aa3e c389 33bd 6d22 02be
00000140: 8fe2 8d3e b581 613e 0dbc 013e 15aa df3d
00000150: f771 edbd 102a c3bd 2202 063e 71eb 1b3e
00000160: 981d f7be c83b 5fbe 88bb ef3d 9a32 ecbd
00000170: 0900 fdbd ea0a 683d 1034 85be 574c 75be
00000180: 9336 593d 39e1 b13e 69c2 5d3e 5b65 f53d
00000190: 0c0d 8abe b570 7fbe 1a14 a13c d81e a33e
000001a0: befc 913d 4ada a3bd 66b6 833e f22a 033c
000001b0: c8df acbd 3790 493e f7ba 03be f550 48bd
000001c0: aaca 4abe e461 023e 2722 7c3e 8718 803d
000001d0: 743d 0abe 3967 1abe dcf3 1fbe 34df 053e
000001e0: 8de4 713d 567c 453e f13e 2a3e b4a8 123e
000001f0: 17f5 1c3e 145e 86bd 313c c7bb 9983 373d
00000200: f350 e23e a623 4c3d 70e7 c43d c17f 67bd
00000210: 2872 2dbe f99c e7bd 6eab a2be 03b2 b13e
00000220: fb49 ef3d 3097 b03e cb30 333c 3450 2abe
00000230: b695 97bd ea4e b6bd 8305 62be a161 c1be
00000240: 969a 093e 0153 39be 49a5 bc3d 23e3 f23d
00000250: 61be c73d 096b 4dbe 7785 b33e e220 9fbd
00000260: 5a5b 4c3d c343 ac3e 42b9 a5bd 495c edba
00000270: c42a a73d 35fe 63be 5440 65bd f231 b1bd
00000280: 99c7 f13d 4254 073e cd96 adbb 025f 97bd
00000290: 517c c2be e06e 183c 9147 d53e d3f1 92bd
000002a0: cdb1 f3bd e5ea d43d ab0b 4a3d 3813 9fbe
000002b0: d3c9 8ebd b192 4cbd 9201 87be 614a ca3e
000002c0: 7921 e33e a194 47bd 2931 053d 58e0 bb3d
000002d0: 844d c7bc 9ffd adbd cb69 823e 6895 713c
000002e0: 4aa5 033c c6fc 8a3d c6f6 12bd 2960 b6bd
000002f0: fdfb e83d 4e42 58bd 275f dcbd 0756 37bd
00000300: c062 44be 93a2 773c d056 093d d619 e03d
00000310: efee 113e 5a8c 9b3e 59c5 773e 3703 c43d
00000320: 1a9a 10be e83b 803e 1109 9b3e c2d9 493e
00000330: ac52 a53e a24c 853e 11f4 43be c716 9c3d
00000340: 88cd 3bbd dd14 603d 2458 913e 2f36 a03e
00000350: 90e9 03be 1f14 10be 279b 34be 9e7e 96be
00000360: 6f54 1f3c a36c 073e 97ca 933e 0d51 f53c
00000370: 0ac6 36be 3b95 2ebd 664b b63e 84d0 dcbd
00000380: 5734 90bc d6f9 553d 1c6b 34be 95a0 8f3c
00000390: b577 f83d 42ec 14bd 9284 61bd d5a6 f43d
000003a0: 1be9 193d 205f c8bd ad26 9c3e b2ad 80bd
000003b0: 429f 01be 28cb 083e fb25 ab3e cd52 c63d
000003c0: d74f c2bd 013a 833e aca0 84be 05c9 0c3e
000003d0: 2721 7d3e 1d93 c93c 9777 6cbe 8517 b53e
000003e0: 1b0f 043c 242f d5be 9996 93be cde9 4d3d
000003f0: 9891 4d3e 141d 9a3e 2f28 643e c74a bdbd
0.030113218 -0.06465758 -0.02435008 0.031031836 0.22050177 -0.23935813 -0.16594526 -0.14354897
0.030895324 -0.026444932 -0.22363903 8.860985e-05 0.13336374 -0.0007693211 0.04661822 0.041133564
0.15808605 -0.12870024 0.4288492 0.12183808 -0.51276743 0.18689568 -0.0824091 -0.16787244
-0.0025364757 -0.20794743 0.13602962 -0.039282437 0.2268099 -0.39848047 0.1694112 -0.085954666
-0.05320667 0.056408845 0.16532566 0.29723227 0.2853459 -0.26603156 -0.040637992 0.0484706
0.07144615 -0.18654668 0.2674961 -0.09894066 0.18302499 0.23915763 0.291001 -0.18816411
0.19030434 0.13302988 -0.04310771 -0.29616386 0.0034248342 0.0025349017 -0.33036342 0.22079547
0.31053177 -0.26113737 -0.13180621 0.2263563 0.23913988 0.001199949 -0.08460349 -0.13364872
-0.33226678 0.21924147 0.2115457 -0.2443373 0.08762107 0.28119552 0.115338586 -0.04592328
0.30059823 0.14455496 -0.04537176 0.040237833 0.21229108 0.33366653 -0.04383255 -0.12708445
0.27711913 0.22022136 0.12669392 0.109211124 -0.11594003 -0.09529507 0.13086751 0.15226533
-0.48264766 -0.21800148 0.117056906 -0.11533089 -0.12353522 0.056651033 -0.26016283 -0.23954903
0.05303056 0.34742144 0.21656193 0.11982223 -0.2696308 -0.24945338 0.019662905 0.3185947
0.07128285 -0.0800062 0.25725096 0.008005844 -0.084411204 0.1968392 -0.1286429 -0.04890533
-0.19803873 0.12732655 0.24622403 0.06254678 -0.13500005 -0.15078439 -0.15620369 0.13073426
0.059055854 0.19285712 0.16625573 0.14322168 0.1532787 -0.06560913 -0.0060801734 0.044803236
0.44202384 0.049838684 0.09614456 -0.05651832 -0.16938078 -0.11309237 -0.31771415 0.34706125
0.116840325 0.34490347 0.010936926 -0.16632158 -0.07401602 -0.089017704 -0.22072415 -0.37769797
0.13437876 -0.1809807 0.09211213 0.11859729 0.09753109 -0.20060362 0.35062763 -0.07769944
0.049891807 0.33645448 -0.08091976 -0.0018109168 0.08162454 -0.22264941 -0.05596955 -0.086521044
0.11805648 0.13215736 -0.005297518 -0.07391168 -0.3798547 0.009303778 0.41656163 -0.071750306
-0.11899147 0.10396365 0.049327534 -0.3106935 -0.06972089 -0.049944583 -0.26368386 0.39509872
0.44361475 -0.048725728 0.032517586 0.091736495 -0.024328955 -0.0849564 0.2547134 0.014745094
0.008035013 0.06786494 -0.035879873 -0.0890506 0.11376188 -0.052797608 -0.10760336 -0.044759776
-0.19178295 0.015114444 0.033530056 0.10942428 0.14251302 0.30380517 0.24196376 0.09570926
-0.14121285 0.25045705 0.30280355 0.19711974 0.32289636 0.2603503 -0.19136073 0.07621532
-0.045850307 0.054707397 0.28387558 0.3129134 -0.12882066 -0.14070176 -0.17637311 -0.29393476
0.00972472 0.13225035 0.288655 0.029945875 -0.17848983 -0.042622786 0.356044 -0.10781959
-0.017603083 0.052240215 -0.17618984 0.017532626 0.12132207 -0.036358126 -0.05505807 0.11945883
0.037575822 -0.09783769 0.30498257 -0.0628313 -0.12658408 0.13358748 0.33427414 0.09683762
-0.094878845 0.2563019 -0.25903833 0.13748558 0.24719678 0.024606282 -0.23092495 0.35369506
0.008060242 -0.41637528 -0.28825834 0.050271798 0.20075071 0.3010031 0.22280954 -0.09242778

conv2.bias f4 [8]
00000000: 5609 fa3b 1c80 193e ec0a 603d dcba 443e
00000010: 3757 cf3b 703b 04bc 42a0 e7bd 2693 2e3d
0.0076305075 0.14990276 0.054697916 0.19211906 0.0063275355 -0.008070812 -0.113098636 0.0426208

fc1.weight f4 [16, 392]
00000000: 5153 e9bc 18ca f73c 3552 eb3d e186 7f3d
00000010: f268 a33d 6432 c13d e713 463d 2a4c 82bd
00000020: 12da 24bd c5f1 84bd 4ba9 b53d 58bd c2b9
00000030: e11c dbbc 870b 8fbd d6f0 94bc bd10 7dbe
00000040: 91a5 203d 8825 e2bc 1df7 b63d e41c 76bd
00000050: 73e7 5fbd b8ad 8dbd 2c7a 453c 7e1b 713d
00000060: 48b9 5bbd 03d3 473d 3ec7 92bc 6c48 bfba
00000070: 60f2 c5bb 776e fcbd ad96 cc3c fd53 603c
00000080: 1623 23bd c31a 0c3e 07c9 7abd 6f1f 8d3d
00000090: caf4 9ebd 9e05 b0bc dc9e cbbc aa97 dabb
000000a0: 8caa 2e3d 3227 6cbd 1a45 ed3c 7fa4 aa3b
000000b0: 3319 32be a2c8 8d3d 0ddc 023d 911c 4e3d
000000c0: 615a b1bd 8c9c 4e3d 3de4 923a bc47 85bd
000000d0: c994 d43d 1a62 583d cc38 3f3d 7e0d b8bc
000000e0: d3c6 be3b 2548 613c 65ce 83bd dbc5 07bb
000000f0: ff44 c63d 1b95 323c a3f0 633d 2856 d3bc
00000100: d942 213d 1643 f23c 8217 9dbd 8962 743a
00000110: a91a 453d ecb8 91bc f834 633d 04ec 3b3d
00000120: 77d6 e13c d4bb d43d 4f53 893c 91d0 983d
00000130: 3bd7 f2bd 9117 1a3c dab9 a63b 7dc0 2fbd
00000140: f68b 9b3d 419c a23d 8aac fabd 18b2 15bc
00000150: 1f16 a53d d362 06be 8019 f03c 6ec4 d63c
00000160: 6d5c 703c d667 a4bc e9e1 c0bb 7839 72bb
00000170: bc61 2d3c 19fa 6d3d 473d 58bc ba42 d63c
00000180: 852c 483c ff86 ac3c be0e c2bc c237 45bd
00000190: e020 c93d 9506 2f3e 7b16 a8bc c0f2 193d
000001a0: 04b5 c73c 77bf 78bc 5081 c63b ad60 b6bd
000001b0: 3747 823d 1aa2 043d 4eb2 7d3c 1692 15bd
000001c0: 1ffe 533d 5012 153d f637 60bb 80dd 80bd
000001d0: c744 a03b 128f 9abd 4850 78bc b7fd 063d
000001e0: 9e9b b43d cea4 0dbd 9751 7e3d b524 16bd
000001f0: 647c cf3d 73e4 2a3d b4f4 1b3d 8591 f5bd
00000200: 3b42 483d 18a8 e9bc c651 bdbd 006f 153b
00000210: 221e 2ebc 0faf 493d 1690 df3d 7902 46be
00000220: 90b4 813d e487 00be 3dca 1e3d 4526 20bc
00000230: 9afb 863d a84a e6bc be8e d8bd de90 b73d
00000240: f5fa 84ba bbe8 90bd b067 6ebd dde0 10bd
00000250: 3b84 913d 766e c0bc 8b49 80bd c8f4 143d
00000260: 88f6 833b 57ee 4d3d a7f8 ae3c 799f 46bd
00000270: 7fe0 90bd 2559 c1bd 4456 89be 75f9 da3c
00000280: 638b 71bd 1906 73bd b151 95bc 79e1 b53d
00000290: 927c 77be a9de 84be 76c3 d6bb c7af 093e
000002a0: 1776 6dbd 2360 29be cfdc 633c 3f89 953e
000002b0: 6431 373e 5629 eabb e0fe bf3d 6927 693d
000002c0: 9ef6 09be edf1 2bbd 729b 3e39 1212 353e
000002d0: 9022 c5bb f9f3 32bd 3abb 8c3d 0ee1 92bc
000002e0: 6aad 15be 89ed 73bb 90ed 8cbe 5eec e5bc
000002f0: 804e 0e3d 8eb9 2ebd abf3 3e3c d04c e03d
00000300: 7024 de3d b511 bd3d 7fe3 eabc 8c8b 25bc
00000310: 205e b03c ce58 45bd 94d8 8dbd afcc 7fbc
00000320: 8f65 06bd f400 2e3d 5507 543d 9d41 4f3b
00000330: 6c77 d73c c407 213e d52d f1bd a0a0 fbbc
00000340: 64ae c23c 115a 2ebd e140 213d 6e67 c73d
00000350: 0e38 033e c14c 223e 3e1a bfbd 82a0 a5bd
00000360: 81b3 99bd 9e98 863c edb2 d0bd 1dbc 993d
00000370: 4afc f5ba 27b9 ac3c b838 193d 309f d1bd
00000380: 63d5 5ebc 454b 5d3d 2c2f bfbd 0302 aebd
00000390: a78a 58bd 18c5 0dbe 6b64 afba 8898 ecbc
000003a0: 5285 c8bd f340 93bd d914 4d3e 72d2 e43c
000003b0: 8202 bdbc bae1 0dbd d417 4f3d 6078 f23b
000003c0: 17d1 0cbd 54c8 ba3c 9052 cf3c a7df 92bc
000003d0: f986 963d 1f2b 083d 882b fd3b 5de2 9dbc
000003e0: c245 1bbe fe4e a2bd f211 d3bc 9536 883d
000003f0: 1746 cf3b 526a 84bd 0423 11bd 2cec dfbd
-0.028482111 0.030247733 0.11490289 0.06238449 0.07979001 0.094334394 0.048358824 -0.063621834
-0.04024703 -0.064914264 0.08870181 -0.00037143636 -0.026747169 -0.069846205 -0.018181246 -0.24713416
0.039220396 -0.027605787 0.08933852 -0.060086146 -0.054664087 -0.069179 0.012053054 0.05886411
-0.053643495 0.04878522 -0.017917272 -0.0014593727 -0.0060408562 -0.12325757 0.024974192 0.013691899
-0.039828382 0.13682084 -0.06122687 0.06890761 -0.077615336 -0.021487053 -0.024856023 -0.006670912
0.042643115 -0.057654567 0.028963614 0.0052075977 -0.17392425 0.06923033 0.031948138 0.05032021
-0.086598165 0.050442263 0.0011206936 -0.06507823 0.10379941 0.052827932 0.046685025 -0.022467371
0.0058220415 0.013750111 -0.06435851 -0.0020717296 0.09681129 0.010899807 0.05564941 -0.025797918
0.03937039 0.029573005 -0.076704994 0.0009322544 0.04812113 -0.017788373 0.055470437 0.04587938
0.027568085 0.10387388 0.016763357 0.07461656 -0.11857458 0.009405033 0.005088073 -0.04290818
0.07595055 0.07939959 -0.122399405 -0.009136699 0.0806086 -0.13123636 0.029309034 0.026216712
0.0146704735 -0.020069044 -0.0058863056 -0.0036960524 0.010582384 0.05809984 -0.013198203 0.026154865
0.0122176455 0.021060465 -0.02368867 -0.048148878 0.098207235 0.17092355 -0.020518532 0.03758502
0.024378307 -0.0151823675 0.0060578957 -0.08905158 0.063612394 0.032381155 0.015484406 -0.03651627
0.05175602 0.036394417 -0.0034213043 -0.06292248 0.0048910114 -0.0754682 -0.015155859 0.032956805
0.08818744 -0.034580998 0.06208953 -0.0366561 0.101311475 0.041721772 0.038075164 -0.11990646
0.048891287 -0.028522536 -0.09244113 0.0022801757 -0.010627301 0.049239215 0.10916154 -0.1933688
0.06333268 -0.12551838 0.03876709 -0.009774749 0.06590958 -0.02811177 -0.10574101 0.08963178
-0.0010145592 -0.0707564 -0.058204353 -0.035370696 0.07105299 -0.023490172 -0.06264027 0.036366254
0.0040271915 0.050276127 0.021358801 -0.04849193 -0.07074069 -0.09440831 -0.26823628 0.026730279
-0.05897082 -0.059331987 -0.01822743 0.08880896 -0.24168614 -0.25951126 -0.0065540625 0.1344596
-0.057973947 -0.1654058 0.013907625 0.29206273 0.17889935 -0.007146041 0.093747854 0.05692235
-0.13472983 -0.041978765 0.0001817772 0.17682675 -0.006016083 -0.0436897 0.06871648 -0.01792958
-0.14616933 -0.003722044 -0.27524996 -0.02806681 0.034742832 -0.042657427 0.011654775 0.10952151
0.10846794 0.09231893 -0.028672932 -0.010104071 0.021529257 -0.048180394 -0.069260746 -0.015612765
-0.032811698 0.042481378 0.051764805 0.0031624802 0.026302062 0.15725619 -0.1177632 -0.03071624
0.023764797 -0.042566363 0.039368514 0.097365245 0.12814352 0.15849592 -0.09331177 -0.08087255
-0.07504941 0.016430195 -0.101903774 0.07506583 -0.0018767205 0.021084381 0.037407607 -0.10235441
-0.01360068 0.05402686 -0.09335169 -0.084964775 -0.052866604 -0.13844717 -0.0013381367 -0.028881326
-0.09791054 -0.071901225 0.20027484 0.02793238 -0.023072485 -0.034639098 0.050559834 0.0073996037
-0.03437909 0.022800602 0.025307924 -0.017928911 0.07349963 0.03324425 0.0077261366 -0.019272977
-0.15163329 -0.07925223 -0.025765393 0.06651036 0.006325494 -0.064655915 -0.035433784 -0.10933718

fc1.bias f4 [16]
00000000: efb9 703c 0fed 4abc ab1a abbb 437d 3b3d
00000010: 81b0 583d 9f1f 15bc 94bd 9fbc be8c 123d
00000020: 374e aebb 4e06 64bd c0ef 203b 729e 603c
00000030: 8da6 e33b 186b 7b3d 5f2d 263d 5038 263d
0.0146927675 -0.012385621 -0.005221685 0.045773756 0.052902702 -0.009101777 -0.019499578 0.035778753
-0.0053193825 -0.055670075 0.0024556965 0.013709651 0.0069473446 0.06138143 0.040570613 0.040581048

fc2.weight f4 [6, 16]
00000000: f136 eebe 7fb0 82be 2098 dfbd 2730 08bd
00000010: f082 ebbe 27a3 3cbe af00 5fbd 48ff 14be
00000020: d57a 09be 542b afbe 6607 8c3e 9f0a c13e
00000030: 37ee 27bf 02b7 4ebd a28d 0c3f 96ae 453e
00000040: e83d f33d b002 f9be 98e7 183f 5a3b d0bd
00000050: 7696 92be e73a f6be 049e ba3e be36 abbe
00000060: 7be4 aa3e c975 153e cf4f 313e 8f5b 6a3d
00000070: 5b6a f03d 7d6d a63e 0f3f 073c bcb5 22bf
00000080: 7a45 0fbe 275f f03d ad93 f93e 7b38 e5be
00000090: f99a ccbe e381 bfbd a573 f73e e3d4 8a3e
000000a0: d6b7 fa3c 541c 8fbe fd69 ae3e 8264 33be
000000b0: 4bd6 223e 442f 423e e2da 18bf bd25 043f
000000c0: 1a4a a33d 67a4 b0bd ab09 d6be 5e8a 133f
000000d0: 904d 853e 4a05 073d c311 f4be e2c0 8fbe
000000e0: 1048 4f3e 51a4 a73e 85df d2be b09f c53d
000000f0: a1cf 81bd a6c9 d8be b66c 2b3f 3bdb d7be
00000100: 2f29 81be 8008 f43e 2f67 b4be b64e e13d
00000110: b47d ea3e 5895 0a3f 8740 78be 6709 b43e
00000120: 10a2 b9bd d7d2 8fbe e6b7 7cbe 4e72 d9bd
00000130: 6d71 61be 8648 0abf 0d7c 6f3d ab78 f93e
00000140: c8f3 193f 74d8 943e 3188 e83d 23f6 ca3d
00000150: 5d46 a23e a256 893e 3a1d 583e f758 aa3c
00000160: d7d3 dbbd 186b aa3e 4c4c a4be 3eff 9cbe
00000170: 34c4 143f a9d0 423e eb68 2bbf e64b 1dbe
-0.46526292 -0.2552528 -0.109176874 -0.033249047 -0.45998335 -0.18421613 -0.05444401 -0.14550507
-0.13425763 -0.34212744 0.27349395 0.37703416 -0.6559786 -0.0504675 0.54903615 0.1930488
0.11877042 -0.48634863 0.59728384 -0.101675704 -0.28630418 -0.48091814 0.3644868 -0.33440202
0.33377442 0.14595713 0.17315601 0.057216223 0.11739036 0.32505408 0.00825478 -0.63558555
-0.13991347 0.11736899 0.4874548 -0.44769654 -0.39961985 -0.09350946 0.48330417 0.27115545
0.030605238 -0.279513 0.34065238 -0.1751881 0.15902059 0.18963343 -0.5970899 0.51620084
0.07973118 -0.08625107 -0.4180425 0.57633007 0.26035738 0.03296403 -0.476698 -0.28076845
0.20242333 0.3274255 -0.41186157 0.096495986 -0.0633843 -0.42341346 0.66962755 -0.42159447
-0.25226733 0.47662735 -0.35234973 0.11001341 0.4579903 0.5413413 -0.24243365 0.35163423
-0.09064114 -0.28090546 -0.24679527 -0.10617505 -0.22015925 -0.5401691 0.058467913 0.48724875
0.60137606 0.2907139 0.113541014 0.09910228 0.31694308 0.26823908 0.21104899 0.020794375
-0.107337646 0.3328483 -0.3208946 -0.30663484 0.5811188 0.1902491 -0.6695697 -0.15360984

fc2.bias f4 [6]
00000000: 514b c2bd d778 4ebe 352d cbbd 6890 103d
00000010: ba27 083e bed1 83be
-0.09487022 -0.20163284 -0.09920732 0.035293967 0.13296404 -0.25745958
