results/OppositeFaces/dice/DL2.onnx (onnx, 28326 bytes, 8 tensors)

conv1.weight f4 [4, 3, 3, 3]
00000000: c933 9d3e 99d9 353e 7592 8fbc 1e85 983e
00000010: 8a87 f13d 0f06 2d3e a24e 41bb 1c76 b83e
00000020: 70bf d53e 5f43 e4bd c8ea 993e 2d0b 353e
00000030: 8c98 d13b 3d64 713d 3960 903e 92b4 47be
00000040: 30de 523d ad36 113d c217 2bbe 4600 623e
00000050: d7a7 533e 183b b4be 50dd 4fbe c7dd d23e
00000060: b095 19bf b086 e9be 6d90 29be 4ac0 2b3a
00000070: d0bf 163e 0523 33be 2774 8e3e 89ef ad3d
00000080: 5f13 b53e 928b df3d adf7 6f3e 1b28 bd3e
00000090: b18c 243e 8d3a af3e 9aba 053e 349d 283e
000000a0: 0ef5 b23e 60fd 803e 3541 873e 0f93 de3e
000000b0: f8cf b33e b802 2e3e 6878 093f ae57 913e
000000c0: 0fc8 c93e 547a b53e 298a 503e d49c 0b3e
000000d0: f74e 073e 3178 e43e 4b42 76bd 7804 3fbe
000000e0: a504 6fbe dcfe 053d 7293 cabd c4f7 e4be
000000f0: 7ee4 413e d0dc 25be 246e b5bd 358e 7dbb
00000100: a745 5cbe 5c64 d5be 9092 753e b55f bcbe
00000110: e49a e8be d648 1b3e 6f74 2b3e a5f6 283d
00000120: 3bba 303e e2b3 f8be 3151 28bf 42fe b2bd
00000130: 815e d8be 4cd6 9abe a801 9e3e 5506 0c3e
00000140: 3337 e6bd b9fb 04bf f48b 62be b8f4 81be
00000150: 93ae b0be 600d 3abf 1d37 c9be 3f71 e0be
00000160: 6a9a 31bf 5f58 9cbe 529c 8cbe 9871 babe
00000170: 7b05 29be 0e45 8fbe 70a4 60bf 77cf 3fbf
00000180: f054 eebd 9f66 30bf c1e7 09bf 5dca 0ebf
00000190: 39c4 03bf e18a babe a373 0fbf 525d 73bf
000001a0: 282b 38bf 98c5 1ebf 7dd7 5cbf e02b 28bf
0.3070357 0.17758788 -0.01752589 0.2978906 0.1179343 0.16896842 -0.0029496332 0.3602761
0.41747618 -0.111456625 0.30061936 0.17680044 0.006396359 0.058933485 0.28198412 -0.19502476
0.051481426 0.035452534 -0.16708282 0.22070417 0.20669495 -0.35201335 -0.20299268 0.41184828
-0.5999403 -0.4561057 -0.16559 0.00065517856 0.14721608 -0.17493828 0.27822992 0.08492953
0.3536634 0.10915293 0.23434325 0.3694466 0.16069295 0.34224358 0.13059464 0.16466218
0.34952587 0.2519331 0.26416937 0.43471572 0.35119605 0.16993225 0.5369935 0.28387207
0.39410445 0.3544489 0.20365204 0.13634044 0.13213716 0.4462295 -0.060121816 -0.18654048
-0.23341615 0.032713756 -0.09891404 -0.4472028 0.18934819 -0.16197515 -0.08858898 -0.0038689498
-0.21510945 -0.4167813 0.2398169 -0.3679177 -0.45430672 0.15164503 0.16743635 0.041250844
0.17258541 -0.4857474 -0.6574889 -0.08739902 -0.422596 -0.3024162 0.3086064 0.1367429
-0.11240997 -0.519466 -0.221237 -0.25382018 -0.3450819 -0.7267666 -0.3929986 -0.438364
-0.6937624 -0.30536172 -0.27463013 -0.3641479 -0.16505997 -0.27982372 -0.8775091 -0.7492594
-0.11637294 -0.6890659 -0.53869253 -0.5577753 -0.51471287 -0.3643408 -0.5603582 -0.9506427
-0.7194085 -0.62020254 -0.8626631 -0.6569195

conv1.bias f4 [4]
00000000: 55a7 863d e8be 7a3e a69c 0e3f 3127 313f
0.06574885 0.24486887 0.55707777 0.69200426

conv2.weight f4 [8, 4, 3, 3]
00000000: 2152 a83c c87c f2bd dcf8 b03c c9cd 383c
00000010: 4f0d 743e 8a2a 5ebe 9b1b 3cbe 7848 dabd
00000020: 578d 893d aa93 e7bb c4d7 49be 2189 45bc
00000030: 6166 d43d 1555 40bd 673c df3c 3f6a 7d3d
00000040: 1a7a 253e f551 ebbd b339 c63e 5c3d db3d
00000050: 76a8 02bf c8dc 663e 6069 87bd 0e4a 41be
00000060: 6183 923d c9ed 21be 5777 f93d 8215 4abd
00000070: e99d 5b3e eff8 d1be 7386 4b3e ec88 66bd
00000080: f7c2 a5bd 438a a23d ddad 323e d733 863e
00000090: e85d 9a3e 173d 79be 3412 18bd 2730 153d
000000a0: 34d5 0b3e 11a1 33be 815b 3f3e 324b 01be
000000b0: 61b9 143e 387e 793e 8a9d 943e 14da 2bbe
000000c0: 33a5 223e bace f43d a983 f5bc 9362 8fbe
000000d0: c734 043c 622a e13b 4dfd a5be dcb9 563e
000000e0: 15f1 9a3e b7b5 5cbe 77af 22be af86 273e
000000f0: dcc2 8e3e dcd4 9e3b 987a ebbd c366 12be
00000100: 2966 9fbe 2f9f 493e db3d 6d3e b6eb 54be
00000110: 7b1e 683d 9120 843e 48ee 013e 460c 87bd
00000120: 5499 973e 18df 113e 584d 32bd 0a5e 0f3c
00000130: 30d5 673e 56b8 a73e b3f5 bbbd 8c14 0fbe
00000140: ec9b 653e cff0 593e db88 173e d549 fc3d
00000150: 844e 25be 175a 09be 0af7 fd3d 87fc 293e
00000160: 0c29 e5be 84e4 39be 2858 113e 429d a2bd
00000170: c2bb e1bd 98cb a23d d77d 6ebe 9215 81be
00000180: 125b 803d 89c5 a93e f059 2a3e 34c5 263e
00000190: 82fa 74be dd58 73be e090 193d 9a3e 953e
000001a0: 689f 5f3d 1093 9fbd dede 8b3e 661f b83b
000001b0: 3d75 b2bd 27b1 6e3e aa53 e4bd 6f0d 4abd
000001c0: dc6d 70be 9286 303e 2c05 8b3e db3d 623d
000001d0: e935 edbd 2e5e ffbd bb6e 1bbe bbf5 043e
000001e0: d11d 5c3d 7729 343e 8ed9 1e3e abfd fb3d
000001f0: fa04 0c3e e528 86bd 3283 383c b4c5 183c
00000200: 66a6 d53e a9f9 293d 2163 f93d ad76 bbbd
00000210: 021b 61be c3df f6bd c164 a2be 9879 b93e
00000220: 8d92 cd3d a6c5 a83e d070 513c 71dd 0abe
00000230: fb97 31bd d64c d4bd bf2d 51be 9e2c acbe
00000240: 259c 0b3e f991 78be 57d7 aa3d 85cf bb3d
00000250: 7c76 993d d416 08be 847e ae3e 89b8 0dbd
00000260: 7d31 d5bb 4f94 b23e 8d7d babd eef6 863a
00000270: bde3 9f3d 0000 75be 2ecf 33bd 2483 97bd
00000280: 916c c83d 49d3 f03d bdee cb3c 92b0 b53c
00000290: f81f afbe 2dee 88bc b6b2 de3e de39 dfbd
000002a0: 2471 eebd 26a1 213e 9b81 bd3d f320 c1be
000002b0: 974a e7bc fa23 b2bd 6336 95be 810f c63e
000002c0: 1561 dd3e c46e f3bd f142 c03d a4a7 f63d
000002d0: 8bf4 7e3c 67cb 88bd 16d3 833e 1f6d 733c
000002e0: b47f d7bb 6cca 5a3d 1e6a 60bd 09ff aebd
000002f0: 855b 093e 8727 3bbd 0442 dfbd 3cdd 61bd
00000300: 5ffa 45be 7d11 aa3c 2071 1d3c 2fe9 d93d
00000310: 00be 2c3e f543 8e3e f9d7 6a3e 336a d53d
00000320: 2320 37be 27a0 843e 7aef 9f3e 51f4 443e
00000330: 09ba 943e c100 6b3e 3686 47be 009a 7c3d
00000340: f9a1 2ebd 23a2 813d ac6e 943e c388 9a3e
00000350: eaa3 debd 7ca8 0fbe ed60 25be f5c7 8bbe
00000360: 55d6 32bd 8274 ee3d 477c 843e f5af ebbc
00000370: 799f 5abe c756 10bd 5af5 a53e 80be 59bd
00000380: 953c 9f3b ff85 683d 7ba3 3abe e487 e93c
00000390: 7e20 ea3d 38e1 79bd 118e 41bc f42b d03d
000003a0: 0932 413d 7bb2 bbbd b3e1 a13e d40e f7bc
000003b0: d10d 07be 66a3 0b3e 7341 a53e 44ad 4c3d
000003c0: 7bf2 09be ab75 7d3e 965c 82be 6bc8 0a3e
000003d0: 7c53 733e 190e c93c b0e3 72be 5873 9e3e
000003e0: 4e25 76bc 3e87 c9be b4c4 7ebe ab2a 873d
000003f0: 3518 4b3e e21f 413e f73f e43d ed07 d7bd
0.020546975 -0.118402064 0.02160304 0.011279532 0.23833202 -0.21695915 -0.18369906 -0.106583536
0.067164116 -0.0070671635 -0.19711214 -0.01205662 0.1037109 -0.04695614 0.027250482 0.061868902
0.1615986 -0.114902414 0.38715896 0.10705063 -0.510383 0.22545159 -0.066118956 -0.18875906
0.07153965 -0.15813364 0.121809654 -0.049336918 0.21446957 -0.41010234 0.19875507 -0.056282923
-0.08093827 0.079365276 0.17449136 0.26211426 0.3014977 -0.2433971 -0.037126735 0.036422875
0.1365555 -0.1754191 0.1868725 -0.12626341 0.14523841 0.24364555 0.29026443 -0.16782409
0.15883331 0.119534925 -0.029970007 -0.28004894 0.008069224 0.0068715075 -0.32419816 0.20969337
0.30262056 -0.21553694 -0.15887247 0.16359971 0.2788304 0.004847152 -0.11497992 -0.14297013
-0.3113263 0.1968963 0.23168127 -0.20793042 0.056669693 0.25806096 0.12688553 -0.06594138
0.29609168 0.1424526 -0.043530792 0.008750448 0.22639918 0.32757825 -0.09177723 -0.13972682
0.2242276 0.21283267 0.147983 0.1231877 -0.16143233 -0.13413273 0.124006346 0.16600238
-0.4475788 -0.18153578 0.14193785 -0.07940151 -0.1102214 0.07948989 -0.23290192 -0.2521177
0.0626737 0.3315852 0.16635871 0.16286165 -0.23923686 -0.23764367 0.03749168 0.29149324
0.05459538 -0.07791722 0.27318472 0.0056189774 -0.08713768 0.23309766 -0.1114877 -0.049329218
-0.23479408 0.17238835 0.27152383 0.05523477 -0.11582548 -0.12469135 -0.15178959 0.12984364
0.053739373 0.17593943 0.15512678 0.12304243 0.13673773 -0.06550769 0.011261748 0.00932448
0.41728514 0.04149786 0.121771105 -0.09153495 -0.21982959 -0.12054398 -0.31717494 0.3622558
0.10037718 0.32963294 0.012783244 -0.13561036 -0.04335783 -0.10366218 -0.20427607 -0.3362779
0.13633783 -0.24274434 0.08341854 0.091704406 0.07493302 -0.13289958 0.340809 -0.034599815
-0.0065061436 0.34878775 -0.09105978 0.001029698 0.078071095 -0.23925781 -0.043898754 -0.0739806
0.097863324 0.117590494 0.024894113 0.022178922 -0.34204078 -0.016715134 0.4349572 -0.10899709
-0.116426736 0.1578413 0.09253236 -0.3772045 -0.02823381 -0.08698268 -0.29143056 0.38683704
0.4323813 -0.11886361 0.09387768 0.12043694 0.015561233 -0.06679421 0.25746983 0.014857559
-0.0065765027 0.0534157 -0.0547887 -0.08544738 0.13413818 -0.045691993 -0.10901263 -0.055142626
-0.1933379 0.020760292 0.009609491 0.10640179 0.16869354 0.27786222 0.2293395 0.104206465
-0.17883353 0.25903437 0.31237394 0.19233824 0.29048184 0.22949506 -0.19484791 0.061670303
-0.042634938 0.06329753 0.28990686 0.30182466 -0.10871108 -0.14029115 -0.16150256 -0.27300993
-0.043661434 0.11643316 0.25876066 -0.028770426 -0.21349896 -0.035239007 0.3241375 -0.05316019
0.004859517 0.056768414 -0.18226425 0.02850718 0.11431979 -0.0610058 -0.011813656 0.101646334
0.047166858 -0.09164902 0.31617507 -0.030158438 -0.13188864 0.1363655 0.32276496 0.049969926
-0.13471405 0.24751918 -0.25461262 0.13553016 0.23762316 0.024542855 -0.23719668 0.30947375
-0.015023543 -0.39360994 -0.24879724 0.06599935 0.19833453 0.18859819 0.11145013 -0.104995586

conv2.bias f4 [8]
00000000: c2f6 ec3b 550f 203e b737 623d 12af 413e
00000010: 2d34 d93c f0c7 c9bc eb66 cdbd 828f 303d
0.0072315643 0.15630849 0.055228915 0.1891444 0.026514137 -0.02463147 -0.10029396 0.04310561

fc1.weight f4 [16, 392]
00000000: 971a 85bd 687d 9e3b c3ab 8a3d d205 e739
00000010: 2baa 873d c847 8d3d bc2d 373d a3b3 08bd
00000020: 8c00 94bd 8b7c 93bd 6ca5 eb3d 7de4 783d
00000030: 3250 ffbc a665 58bd fdd4 3fbd dc47 42be
00000040: 06ec e63c 6bcf 64bd 2887 8b3d b14b 5fbd
00000050: f169 85bd db03 f9bb 95c1 75bc 1cba ac3d
00000060: 2b60 03bd 7bb7 5c3d af1e 2c3c 5a45 4dbc
00000070: 9fba 88bc af5e 95bd 895a 6b3c 0c7d 843b
00000080: 6148 e0bc 6aad 123e 9abf a5bd acdf 333d
00000090: 8a80 e1bc 0b1c 0dbd be9e 4fbc ccdc c738
000000a0: f845 613d 09dd b7bd 6b10 ab3c 80a6 74bd
000000b0: 94aa 5ebe 3985 8d3d 36d7 bd3c f24d 403d
000000c0: faa3 adbd 19f8 7c3d 899b ffba 996e 86bd
000000d0: 8e1f 853d 58c0 873c ce6f 7b3d c47b 47bc
000000e0: 1d05 963b 5c3b e53b 8c76 babd 93a4 9a3c
000000f0: c5fb 013e 3dfa f53c 1e35 863d ec3a 64bc
00000100: f089 4d3d de80 2a3d 4fd1 99bd 59b8 84bc
00000110: a4fe d23c c831 24bd 46e2 023d bf3b 893d
00000120: a6c4 7b3d d91d 8a3d 07de 533d 51c1 a53d
00000130: cbdb ddbd b0d2 2a3d 0a08 a33b ae79 1bbd
00000140: 04f7 823d 0a3a 373d 1e72 21be c93a 92bd
00000150: 14d8 8c3d fc4b e6bd eb39 acbc 6fab 0c3b
00000160: f2a0 743d bc9e 13bc e7c6 3f3d 4a13 76bc
00000170: d361 a23c 17b3 603d 64c9 87bd baa2 df3c
00000180: 6779 063d 0c57 d7bc 22e7 66bd 5598 b8bd
00000190: 65d0 483d 333c 9a3d 8341 1cbb e6ab 593d
000001a0: ce23 09bd daa1 e8bc a261 d6b9 2720 42bd
000001b0: 0709 dd3d 9ade 043d 4cef af3c 220d 843b
000001c0: 106d 113d 1603 8f3d 410e 22bc b6cb 9dbd
000001d0: 0071 0bbd 99f0 99bd 4522 e83b fcae dd3c
000001e0: 65fa 2e3d cefb 2bb9 ba07 743d b6ee 41bd
000001f0: de1b e63d 3abf 2b3d 5b71 023d ce58 65bd
00000200: bfea c5bc 25cc 06bd 250a 6fbd 9d38 703c
00000210: c8fe ffbc cb09 e13c ba56 9e3d 9515 0fbe
00000220: 9879 9f3d 0b80 e4bd 8a8b 883d 9817 0a3c
00000230: 6c6f 343d fc03 0cbd 932c c5bd da93 b03d
00000240: e9be 7a3c 383d f3bd ce6a 1dbd 1728 2bbd
00000250: 3863 a23d 87da 2abc 2add 70bc 079d 4b3d
00000260: 5d0b b43b 0b51 6f3d 905a 1e3d de95 32bd
00000270: f132 adbd d050 8fbd 1103 93be 64d8 7e3b
00000280: 7c6a 97bd 650a 56bd 0e45 e5bc 0fad ce3c
00000290: e72e 85be b660 18be c900 9e3d 2d6c 4b3e
000002a0: 0e48 9cbd 48ea 06be 1246 dc3c d61b 473e
000002b0: 6934 023e b37c 71bc fb27 5b3d c2ce 923d
000002c0: 5bb4 35be 891a 703d e238 423d 4caf 2a3e
000002d0: cb01 02bd 2dad 3ebc b7c4 cd3d d6f2 31bd
000002e0: 7d14 3cbe 9a74 8ebd 8d3c 9abe 5282 a6bc
000002f0: 4e15 a43a d342 d5bc d8a4 ac3c e652 d03d
00000300: 3481 133e 66a3 b13d fe1f ccbc 0eaf 0f3b
00000310: 9d72 7d3c faef 18bd 58b8 9ebd a8dd b2bc
00000320: 19ad 70bd 5e03 963d cb5e 0f3d c588 e13b
00000330: 41b0 2d3c ae64 343e c6fb 5dbd d03e 7cbd
00000340: cee4 bf3b 691b 4fbd f310 bcbb 765f c63d
00000350: f4d4 dc3d 5873 463e 675e c5bd c331 a1bd
00000360: 2c4b 72bd a033 a4bb b636 05bd 91d0 bb3c
00000370: 7f50 7d3d 39a5 ec3b edb2 4e3b 33b4 abbd
00000380: 6db9 12ba 736f f43c 47f8 e0bd fd40 89bd
00000390: 931b 88bd 8ee4 14be 3f37 183d cf60 59bd
000003a0: a51d 9bbd 62ae 95bd 8f62 663e 9bfc 08bb
000003b0: 0cfe 0d3d ea6d d83c ca3f 013d acf4 98bb
000003c0: 7b3c 48bd 6aa3 923c a664 9cbb be3b 6c3c
000003d0: 5b38 3e3c b700 3a3d e7fd 553c 60bd e5bb
000003e0: 6a94 d4bd 7f1d b8bd e456 5abc 6092 683d
000003f0: 922c b53c ce42 a6bd 88eb 603d 36b0 1cbe
-0.06499212 0.004836727 0.06771042 0.0004406409 0.06624254 0.06898457 0.04472135 -0.03337444
-0.07226667 -0.07201489 0.11506161 0.06076478 -0.03116617 -0.052831315 -0.04683398 -0.18972725
0.028188717 -0.05586187 0.068128884 -0.054515544 -0.06514347 -0.0075993366 -0.014999767 0.08433935
-0.032074135 0.053885918 0.010505362 -0.012528742 -0.01669055 -0.0729345 0.014364847 0.004043227
-0.027378263 0.14323965 -0.08093186 0.043914482 -0.027527113 -0.034450572 -0.012672124 9.530186e-05
0.054998368 -0.08977706 0.020881852 -0.0597291 -0.21744758 0.06910176 0.02317391 0.046949334
-0.08478542 0.061760042 -0.0019501309 -0.065640636 0.06500159 0.016571209 0.061385922 -0.012175504
0.0045782463 0.0069956016 -0.09104642 0.018877303 0.12693699 0.03002655 0.065531 -0.013930064
0.050180376 0.041626804 -0.075106256 -0.016201185 0.025756188 -0.040086538 0.031954072 0.06700849
0.061466835 0.06743974 0.051725414 0.08093513 -0.10832938 0.041704834 0.0049753236 -0.03795784
0.06394771 0.044733085 -0.15766189 -0.07140119 0.06877151 -0.112449616 -0.021023711 0.0021464487
0.059723802 -0.009010013 0.046820547 -0.015019247 0.019822037 0.054858293 -0.06630209 0.027299274
0.032830622 -0.026286624 -0.05637277 -0.0901343 0.049026866 0.07531013 -0.002384276 0.05314245
-0.03348141 -0.02839749 -0.00040890003 -0.047393944 0.107927375 0.032438852 0.02147641 0.004029886
0.0355044 0.069830105 -0.009891094 -0.077048704 -0.034043312 -0.075165935 0.0070841634 0.027060978
0.042719264 -0.00016401635 0.05957768 -0.047346793 0.11235784 0.041930415 0.031846385 -0.055992894
-0.024159787 -0.03290953 -0.058359284 0.014661935 -0.031249419 0.02747049 0.077313855 -0.13973077
0.07786864 -0.11157235 0.0666724 0.008428477 0.044051573 -0.034183487 -0.096276425 0.086219504
0.015304306 -0.11876911 -0.038431935 -0.04178628 0.07929081 -0.010428078 -0.014701167 0.0497103
0.0054945187 0.058426898 0.038660586 -0.043599956 -0.08456982 -0.06997836 -0.28713277 0.0038886303
-0.07393357 -0.052256007 -0.02798703 0.025229005 -0.26012346 -0.14880642 0.077149935 0.19865485
-0.07630931 -0.13175309 0.02688888 0.19444212 0.12715305 -0.014739203 0.053504925 0.07168342
-0.17744581 0.058619056 0.04741753 0.16668433 -0.03173999 -0.011637968 0.10047286 -0.043444477
-0.1836719 -0.06955834 -0.30124322 -0.020325813 0.0012518556 -0.02603284 0.021074697 0.101720616
0.14404756 0.08673744 -0.024917599 0.002192441 0.0154692205 -0.037338234 -0.077500045 -0.02183421
-0.05875883 0.07324861 0.03500251 0.0068827593 0.010601104 0.17616531 -0.054195188 -0.06158334
0.005856133 -0.05056325 -0.005739325 0.096861765 0.10782805 0.19379938 -0.096371464 -0.078708194
-0.05915372 -0.005011037 -0.03252288 0.0229266 0.061844345 0.0072218445 0.0031539754 -0.0838398
-0.00055970886 0.0298383 -0.10984855 -0.06701849 -0.06645884 -0.14540312 0.03716206 -0.05307084
-0.075740136 -0.073086515 0.22498535 -0.0020902518 0.034666106 0.026419599 0.031554975 -0.004667839
-0.048885804 0.017900188 -0.0047727404 0.0144185405 0.011610116 0.045410838 0.013061023 -0.0070111006
-0.1037987 -0.08990001 -0.01332638 0.05678022 0.02211598 -0.08118211 0.05491212 -0.15301594

fc1.bias f4 [16]
00000000: 5072 8f3c 1e2a babb b171 573a 8b8a 193d
00000010: 6b9a 543d 9a06 5cbc e71a 8bbb e6ec 023d
00000020: 886e 68bb bcf4 54bd b438 563c 8295 ef3b
00000030: 3ac0 433c f4b1 883d 47e9 773d 043e 533d
0.017510563 -0.0056812903 0.00082185405 0.03748564 0.051905077 -0.013429308 -0.0042451504 0.031964205
-0.0035466272 -0.05199121 0.0130750425 0.007311524 0.011947686 0.06674567 0.060525205 0.051572815

fc2.weight f4 [6, 16]
00000000: 4982 ebbe be3d a4be a205 f8bd 560c 2f3e
00000010: 10c3 d9be ab4b f7bd 4d0a d3bd f80e 9bbe
00000020: f6a0 86bd 53d7 83be f7db 8d3e b1b6 a33e
00000030: 77c0 19bf cbcf ddbb cd73 413f c515 1e3e
00000040: 1eac c33d 2443 e4be eea7 e33e 0a6f c1bd
00000050: 79e0 abbe 769b f0be c553 b33e 0db1 5fbe
00000060: 07b5 933e c5ae 273e d197 353e 3e22 ff3d
00000070: 59bc 843d 2fe6 9b3e ba0a 8cbe b6a9 1abf
00000080: 8fb4 40be cd82 023e c177 df3e 8ad9 00bf
00000090: 13f3 c8be da15 ccbd 87bd ed3e df4e 3f3e
000000a0: 2e2e 963d 9779 85be 787c bd3e d91d 53be
000000b0: 2d85 4f3e 605f 043e d54b 1cbe 9c01 e43e
000000c0: d780 153e 64f9 eabd 7abf c9be 577e 133f
000000d0: 5d45 a93e 5389 ba3d 4441 f5be a263 97be
000000e0: 9a49 243e 1e23 9b3e 1e0c cdbe 50c5 db3d
000000f0: d602 76bd ca4b afbe 1abc 573e 640d cabe
00000100: 10a3 36be 7770 cf3e 2a4b 94be 1765 d63d
00000110: 4929 c53e f37e f63e dfda 89be 56d8 8a3e
00000120: 25bb afbd 08ec 7fbe e7a9 7fbe 6ba3 2cbe
00000130: 67af 1abe 7682 e6be a7ee 983e 2255 003f
00000140: c249 163f ef24 b43e ec4e d93d 221d 55be
00000150: 32ee b03e e98b 4d3e a47c 623e 1c04 903e
00000160: 21da 08be 0d0b 883e 3f6f 9abe 57c5 8cbe
00000170: 5a34 0a3f a351 013e 0f49 53bf 4cea 04be
-0.45997837 -0.32078356 -0.121104494 0.1709455 -0.42531633 -0.120749794 -0.10304699 -0.30284858
-0.065736696 -0.25750217 0.27706882 0.3197532 -0.60059303 -0.0067691556 0.7556732 0.15437992
0.09554313 -0.44582474 0.44464058 -0.09445007 -0.33569697 -0.46993607 0.3502485 -0.21844883
0.2884905 0.16375263 0.17733695 0.12457703 0.06481237 0.30449054 -0.27351934 -0.6041521
-0.18818878 0.12745209 0.43646052 -0.5033194 -0.3924795 -0.09965105 0.4643366 0.1868243
0.07333027 -0.26069328 0.37009025 -0.20616855 0.20265646 0.12927008 -0.15263303 0.44532478
0.1459993 -0.11473349 -0.39403898 0.57614654 0.33060732 0.09108224 -0.47901356 -0.295682
0.16043702 0.3030023 -0.40048307 0.10730994 -0.0600613 -0.3423751 0.21067849 -0.3946334
-0.17835641 0.4051549 -0.28963596 0.104685 0.3850806 0.4814373 -0.26924798 0.27118176
-0.08580617 -0.24992383 -0.24967156 -0.16859214 -0.15105973 -0.4502141 0.29869577 0.501299
0.58706295 0.35184428 0.10610756 -0.20811895 0.3455673 0.20072903 0.22117859 0.28128135
-0.1336446 0.2657093 -0.30163 -0.27494308 0.5398613 0.12628798 -0.82533354 -0.12980002

fc2.bias f4 [6]
00000000: f47d cfbd 3e33 4abe bff4 c0bd 696a 1f3d
00000010: 2c4a d53d b085 78be
-0.101314455 -0.1974611 -0.094216816 0.03891984 0.10414538 -0.24269748
