results/OppositeFaces/dice/LL.onnx (onnx, 28326 bytes, 8 tensors)

conv1.weight f4 [4, 3, 3, 3]
0.40015554 0.3563958 0.20049128 0.54243046 0.29364184 0.24491408 0.18418084 0.352973
0.30796388 -0.17283589 0.12892935 -0.0644141 -0.13299996 -0.18877073 -0.0298426 -0.15132028
0.09308339 0.06455883 -0.3485017 -0.13734378 -0.17678863 -0.64150786 -0.6754969 -0.115370706
-0.52278554 -0.42396325 -0.18931022 -0.25477436 -0.20116195 -0.44423565 0.0786568 -0.21598028
0.102096096 0.14909542 0.21115774 0.4772263 -0.22083817 -0.18533115 -0.31520876 -0.19377697
-0.091731556 -0.17586987 0.17003563 0.38890803 0.39280996 -0.2800837 -0.15691338 -0.21882342
0.007197542 -0.18545061 -0.22659709 0.101932414 0.092000484 0.46843082 -0.07903125 -0.299629
-0.29195297 0.04090265 -0.18086627 -0.5647851 0.1792421 -0.19430827 -0.2449156 -0.069136105
-0.3200027 -0.46207017 0.108749405 -0.4318592 -0.5357884 0.11076287 0.19995774 -0.021291252
0.13827656 -0.5273844 -0.698182 -0.17901897 -0.48233995 -0.37613523 0.24941769 0.15751989
-0.16943483 -0.512588 -0.25993773 -0.1123624 -0.36378318 -0.7471877 -0.4169381 -0.61964846
-0.8210138 -0.53318524 -0.18938205 -0.2921696 0.080022044 -0.24683544 -0.78204995 -0.5923446
-0.15421177 -0.6465094 -0.5158845 -0.42299485 -0.4083693 -0.15215416 -0.4954982 -0.8687111
-0.6386768 -0.56433654 -0.77277285 -0.65540564
00000000: 30e1 cc3e 8379 b63e 964d 4d3e b9dc 0a3f
00000010: 3958 963e c2ca 7a3e e799 3c3e e1b8 b43e
00000020: 71ad 9d3e e4fb 30be 0e06 043e 8aeb 83bd
00000030: 2431 08be 1d4d 41be 7878 f4bc b4f3 1abe
00000040: 81a2 be3d 6b37 843d d16e b2be d9a3 0cbe
00000050: 1408 35be dc39 24bf 5ded 2cbf 7a47 ecbd
00000060: 46d5 05bf b611 d9be 8ada 41be c971 82be
00000070: 66fd 4dbe db72 e3be d116 a13d ef29 5dbe
00000080: c217 d13d 78ac 183e bc39 583e 0157 f43e
00000090: 6723 62be 73c7 3dbe 0b63 a1be 786d 46be
000000a0: c1dd bbbd 3b17 34be d21d 2e3e f41e c73e
000000b0: 631e c93e 2167 8fbe e7ad 20be 3f13 60be
000000c0: 5cd9 eb3b c4e6 3dbe 1109 68be f1c1 d03d
000000d0: c06a bc3d 2ad6 ef3e 23db a1bd f968 99be
000000e0: dc7a 95be 8a89 273d 0235 39be c295 10bf
000000f0: 3e8b 373e bff8 46be 28cb 7abe 3b97 8dbd
00000100: 65d7 a3be 7694 ecbe 02b8 de3d a61c ddbe
00000110: 6e29 09bf a5d7 e23d b9c1 4c3e fe6a aebc
00000120: 5f98 0d3e aa02 07bf 0ebc 32bf c050 37be
00000130: 43f5 f6be cc94 c0be 5a67 7f3e e54c 213e
00000140: 5380 2dbe f838 03bf 8f16 85be 421e e6bd
00000150: ca41 babe b147 3fbf e978 d5be 48a1 1ebf
00000160: f62d 52bf d47e 08bf 5eed 41be 4197 95be
00000170: 99e2 a33d 6ec2 7cbe 6d34 48bf e5a3 17bf
00000180: b1e9 1dbe a481 25bf 0211 04bf c892 d8be
00000190: c815 d1be 4dce 1bbe f1b1 fdbe da63 5ebf
000001a0: 5380 23bf 5c78 10bf 71d4 45bf aac8 27bf

conv1.bias f4 [4]
-0.15904582 0.22691134 0.6149211 0.6270193
00000000: e8dc 22be 725b 683e 786b 1d3f 5684 203f

conv2.weight f4 [8, 4, 3, 3]
0.109023035 -0.005692098 -0.51426876 0.0077620093 0.1546203 -0.26867792 0.061697815 0.15592934
0.16796638 -0.17275766 0.117419176 -0.21216232 0.107236296 0.09004141 -0.31466866 0.07016527
0.106715426 -0.23612997 0.47223994 0.07967832 -0.5175117 0.27005374 -0.08878488 -0.17709218
-0.019227527 -0.27225596 0.25219208 0.08927421 0.23552953 -0.44110227 0.15301964 -0.07745389
-0.09650715 0.056958005 0.13476737 0.31108654 0.283281 -0.3195423 -0.045001544 -0.01827502
0.094305515 -0.15242699 0.3160062 0.10371108 0.20275103 0.27064568 0.30153278 -0.0352205
-0.08649209 -0.078191586 0.13774511 -0.27318788 0.011281248 0.21503945 -0.22445208 0.17785132
0.23920839 -0.20866604 -0.12757479 0.1653523 0.21056455 0.05837457 -0.09890878 -0.09500305
-0.32803705 0.16767555 0.1925479 -0.22765662 0.07012724 0.23859997 0.1753911 -0.06645072
0.21919776 -0.15439847 -0.17959192 0.11340946 0.13536097 0.14872451 -0.08076113 0.1581597
0.4028824 0.036643814 -0.10335991 -0.15310721 -0.10110541 -0.34693062 -0.31881443 -0.04521862
-0.15665245 0.014305321 0.11844068 -0.04351187 -0.072218455 0.024965014 -0.2020122 -0.1989936
0.046048753 0.2865771 0.24642383 0.16200578 -0.25420487 -0.24008119 0.025132697 0.30094635
0.04754049 -0.052399848 0.31308687 0.039392676 -0.04897097 0.16775703 -0.07895621 -0.015096466
-0.1954589 0.007815566 0.12928653 -0.078246415 -0.20944898 -0.1774019 -0.039205346 0.5815892
0.46545687 0.35633445 0.28838244 -0.0050424733 -0.19196048 -0.15450624 -0.071349815 -0.004180511
0.44681665 0.11955478 0.17510204 -0.021200456 -0.1859572 -0.15287603 -0.3847576 0.30016217
0.037304122 0.36680755 0.08239407 -0.03167402 -0.07553421 -0.12278561 -0.2477959 -0.41592443
-0.009144648 -0.15576725 -0.010641343 -0.08791319 0.052130826 -0.10678191 0.2781052 -0.069521084
0.07835127 0.41593733 -0.018539758 -0.13976522 0.09042201 -0.11616087 0.07504709 -0.05706074
0.43142456 0.47737566 0.24222997 -0.025559839 -0.27440208 0.02091659 0.29571423 -0.10189691
-0.06772593 0.043037947 0.09753123 -0.17654105 -0.033844437 -0.126191 -0.28066647 0.31399336
0.3333108 -0.08839701 -0.040616058 0.037320457 -0.16166191 -0.10825352 0.12713113 -0.030120881
0.00845109 0.083848484 -0.08339972 -0.10588629 0.10647462 0.044316277 -0.0716757 -0.075207025
-0.09191849 0.29459196 0.111588255 0.4789773 0.17013338 -0.051474113 0.23640494 0.05821584
-0.24829361 0.15396757 0.27134967 0.10117962 0.22707556 0.24842614 -0.10397412 0.041979767
-0.08830787 -0.055167366 0.21726583 0.26849315 -0.11732884 -0.18853776 -0.14834443 -0.16696385
-0.0008901602 0.1821633 0.3124157 -0.03603764 0.016282136 0.09698269 0.070101954 -0.20051889
0.031022178 0.30651963 -0.12952252 -0.1340252 0.32610315 0.13465346 0.24627925 -0.40142098
-0.10990001 -0.48203477 0.32778594 -0.03193993 -0.09863402 0.080539465 0.29060352 0.13080777
-0.18812792 0.19751127 -0.28783694 0.1649323 0.20833297 0.023329727 -0.2727155 0.27081034
-0.03850235 -0.31605533 -0.24381481 0.055504266 0.15996303 0.47478747 0.20729147 -0.008918905
00000000: 7847 df3d c784 babb 1ea7 03bf 7458 fe3b
00000010: c954 1e3e 2790 89be d9b6 7c3d f1ab 1f3e
00000020: 61ff 2b3e 62e7 30be 7779 f03d 1441 59be
00000030: b49e db3d a167 b83d 401c a1be cfb2 8f3d
00000040: 9e8d da3d 0ecc 71be 6fc9 f13e 632e a33d
00000050: a67b 04bf 7c44 8a3e d9d4 b5bd a757 35be
00000060: 0c83 9dbc 2265 8bbe 521f 813e 66d5 b63d
00000070: a72e 713e 28d8 e1be 2eb1 1c3e 25a0 9ebd
00000080: 8aa5 c5bd cc4c 693d 7500 0a3e bc46 9f3e
00000090: 350a 913e 0c9b a3be 8a53 38bd 7fb5 95bc
000000a0: 4023 c13d d215 1cbe 91cb a13e 7a66 d43d
000000b0: f79d 4f3e 1292 8a3e 8162 9a3e 5f43 10bd
000000c0: c422 b1bd e922 a0bd 0e0d 0d3e 48df 8bbe
000000d0: fcd4 383c 4d33 5c3e c4d6 65be a81e 363e
000000e0: 0bf3 743e 8dac 55be f7a2 02be 1d52 293e
000000f0: 3c9e 573e 2c1a 6f3d b090 cabd f690 c2bd
00000100: 79f4 a7be 24b3 2b3e 472b 453e d11e 69be
00000110: df9e 8f3d 8d53 743e b999 333e 5117 88bd
00000120: 6175 603e a21a 1ebe f2e6 37be 3843 e83d
00000130: 119c 0a3e 3d4b 183e 1766 a5bd 9ef4 213e
00000140: 9a46 ce3e d317 163d 5cae d3bd 23c8 1cbe
00000150: 5a10 cfbd e4a0 b1be a53b a3be 2937 39bd
00000160: 8069 20be dd60 6a3c 0791 f23d 8139 32bd
00000170: 45e7 93bd 6e83 cc3c 49dc 4ebe fac4 4bbe
00000180: 9e9d 3c3d 3cba 923e 8756 7c3e d8e4 253e
00000190: 2427 82be d8d7 75be 16e3 cd3c a415 9a3e
000001a0: d1b9 423d 39a1 56bd ec4c a03e 375a 213d
000001b0: c995 48bd 80c8 2b3e cbb3 a1bd 2b57 77bc
000001c0: 6126 48be dc0c 003c b063 043e a83f a0bd
000001d0: cb79 56be d8a8 35be c995 20bd 08e3 143f
000001e0: 5d50 ee3e 7871 b63e dda6 933e 553b a5bb
000001f0: 4a91 44be e236 1ebe da1f 92bd abfc 88bb
00000200: 27c5 e43e 23d9 f43d f34d 333e 94ac adbc
00000210: 906b 3ebe 898b 1cbe f3fe c4be dbae 993e
00000220: 35cc 183d 33ce bb3e 39be a83d 9ebc 01bd
00000230: aeb1 9abd 0677 fbbd 35be 7dbe 0cf4 d4be
00000240: 6fd3 15bc 7381 1fbe 0759 2ebc d50b b4bd
00000250: 2287 553d 79b0 dabd ce63 8e3e 1261 8ebd
00000260: a176 a03d bdf5 d43e b1e0 97bc 9d1e 0fbe
00000270: 2d2f b93d c0e5 edbd 4ab2 993d 86b8 69bd
00000280: aee3 dc3e 956a f43e 220b 783e de62 d1bc
00000290: 6e7e 8cbe 4559 ab3c db67 973e 54af d0bd
000002a0: e4b3 8abd 8f48 303d 74be c73d 2dc7 34be
000002b0: 77a0 0abd 3738 01be 84b3 8fbe bdc3 a03e
000002c0: b7a7 aa3e 7e09 b5bd 065d 26bd 56dd 183d
000002d0: b38a 25be 06b4 ddbd aa2e 023e 11c0 f6bc
000002e0: 7176 0a3c c1b8 ab3d 79cd aabd e9da d8bd
000002f0: 5e0f da3d fc84 353d b6ca 92bd 2406 9abd
00000300: c33f bcbd c2d4 963e 6288 e43d 833c f53e
00000310: 7237 2e3e 85d6 52bd 2314 723e bc73 6e3d
00000320: ae40 7ebe ada9 1d3e 58ee 8a3e 4337 cf3d
00000330: 7f86 683e 6c63 7e3e 62f0 d4bd faf2 2b3d
00000340: c2da b4bd 2df7 61bd ef7a 5e3e ef77 893e
00000350: 1a4a f0bd 0b10 41be 9ae7 17be 92f8 2abe
00000360: a459 69ba 0489 3a3e f3f4 9f3e 349c 13bd
00000370: 1d62 853c dc9e c63d 9d91 8f3d d354 4dbe
00000380: 3922 fe3c 24f0 9c3e 8da1 04be e73d 09be
00000390: fef6 a63e 99e2 093e a130 7c3e 0d87 cdbe
000003a0: 4213 e1bd 43cd f6be 8fd3 a73e 72d3 02bd
000003b0: a200 cabd e0f1 a43d fcc9 943e 79f2 053e
000003c0: 9ba4 40be 6540 4a3e 5d5f 93be 03e4 283e
000003d0: 3d55 553e fc1d bf3c 5ea1 8bbe a7a7 8a3e
000003e0: a4b4 1dbd 01d2 a1be 97aa 79be 7158 633d
000003f0: 59cd 233e 5817 f33e 3744 543e 9920 12bc

conv2.bias f4 [8]
0.23622522 0.20331769 0.19492671 0.22708127 0.14618446 0.0031551537 -0.08094949 0.023272673
00000000: 06e5 713e 8332 503e de9a 473e fe87 683e
00000010: 61b1 153e b2c6 4e3b d9c8 a5bd 55a6 be3c

fc1.weight f4 [16, 392]
0.03431776 -0.01925907 0.14514236 -0.0030516037 0.05331434 0.022129321 0.030671502 -0.0038485033
-0.056110978 0.0010100945 0.08552778 0.015017913 -0.033266254 -0.019321429 -0.057818014 -0.18795854
0.067772105 -0.1497437 0.06269018 -0.026862256 -0.0067657703 -0.07082797 -0.16449463 -0.03584734
-0.053855143 0.043997068 -0.035751816 0.024694564 -0.27479753 -0.29258984 -0.0004422044 0.029029686
0.030276446 0.04701303 -0.071379825 -0.012928445 0.06704919 -0.14522167 -0.094611846 -0.09032385
0.031645928 -0.08464389 -0.009163987 -0.31574652 -0.1931142 0.093788646 0.20699199 0.042327326
-0.049250785 0.06195867 0.009478213 -0.0963803 0.05682349 0.010931929 -0.007510174 -0.025580812
0.029417228 -0.015183203 -0.041443292 0.09718006 0.13706112 -0.016895348 0.059516136 0.019159164
0.04979663 0.06352116 -0.062377185 0.046606813 0.060743004 0.0025294977 0.008206778 0.063980825
0.06692602 0.08830063 0.04830201 0.055900406 -0.0010522304 -0.018376874 0.079534546 -0.055610362
-0.016031686 0.1283337 -0.13173549 -0.0023397964 0.005276354 -0.065627046 0.040082023 -0.03340292
-0.009323869 -0.04469926 0.06448662 -0.01644734 0.009715051 0.0118008 0.073502295 0.030687803
-0.068875946 0.018169194 -0.08329635 -0.09000419 0.048185803 0.030903198 -0.017028553 0.018137453
-0.026970891 -0.04065653 0.0042066877 -0.090584464 0.090511605 -0.0013794849 0.03984734 -0.26759017
0.1130195 0.0061165355 -0.017895408 -0.07050904 0.0868266 -0.05026953 -0.013237136 0.21806976
0.0032425444 -0.018602468 0.13402252 -0.07575364 0.10072423 0.053076506 -0.16476087 -0.17720193
0.0586758 -0.047095217 0.018908663 0.03532017 -0.016035426 6.598961e-05 0.094658226 -0.14481622
0.06660337 -0.18092886 0.10842207 0.018407049 -0.036151562 -0.19697016 -0.039122917 0.054608
0.017164698 -0.122131616 0.004270227 -0.017143626 0.019301187 -0.052752364 -0.04504656 0.008524664
0.009823516 0.041896127 0.024381537 -0.05563746 -0.25628462 -0.16409329 -0.20601755 0.22386467
-0.07836465 -0.17940477 0.003539824 0.10959305 -0.3117289 0.056752246 0.055336215 0.40195292
-0.1597199 -0.2144097 0.07042912 0.19016683 0.16416647 0.018986002 0.06718752 0.0859872
-0.2614529 0.10932926 -0.054189697 0.20757292 -0.09164932 -0.07581304 0.110845715 -0.14478578
-0.09443971 -0.10770783 -0.11733513 0.10096089 0.04111213 -0.0034205017 0.061534554 0.029126454
0.08761445 0.09779468 -0.028299399 -0.050487503 0.002159935 -0.047601122 -0.040710807 -0.083281666
-0.10276611 -0.038173005 0.037073467 -0.042141665 0.041548576 0.25979596 -0.11408365 0.022715833
0.07160497 0.007446505 -0.069101036 0.18884271 0.20277502 0.15068394 -0.029843738 0.00691676
-0.089314446 -0.031472914 -0.091387935 0.036669414 0.117283255 0.03564518 0.05723136 -0.07377868
-0.12099857 0.014753677 -0.10180082 -0.026043553 0.030056464 -0.1265804 0.013054225 -0.041165005
-0.14660305 -0.08291975 0.28472385 -0.12854376 -0.007897231 -0.021320019 -0.04305338 0.023929318
-0.037451074 0.032796938 0.14721425 0.04916819 0.07922946 0.051933356 0.022212187 -0.010909831
-0.13278726 -0.018079689 0.07474453 0.052635573 0.034379207 -0.12945518 0.01541088 -0.070013195
00000000: c890 0c3d 32c5 9dbc 33a0 143e 6afd 47bb
00000010: 2360 5a3d 8d48 b53c cd42 fb3c 2c37 7cbb
00000020: a0d4 65bd 2665 843a 3029 af3d b10d 763c
00000030: 3242 08bd f947 9ebc 95d2 6cbd 3478 40be
00000040: 1acc 8a3d 6a56 19be b663 803d 3c0e dcbc
00000050: 65b3 ddbb 410e 91bd 4871 28be a9d4 12bd
00000060: 3697 5cbd 4536 343d 7f70 12bd 414c ca3c
00000070: 43b2 8cbe 56ce 95be abd7 e7b9 aacf ed3c
00000080: 4f06 f83c bc90 403d 962f 92bd d4d1 53bc
00000090: 1651 893d fdb4 14be dbc3 c1bd b6fb b8bd
000000a0: 299f 013d c759 adbd 8c24 16bc 87a9 a1be
000000b0: bbbf 45be 4314 c03d b5f5 533e 6b5f 2d3d
000000c0: 31bb 49bd 60c8 7d3d 824a 1b3c 0963 c5bd
000000d0: bfbf 683d d51b 333c e817 f6bb da8e d1bc
000000e0: 66fc f03c f8c2 78bc 71c0 29bd 5706 c73d
000000f0: c059 0c3e 1d68 8abc 31c7 733d aef3 9c3c
00000100: 8df7 4b3d 6217 823d 387f 7fbd c9e6 3e3d
00000110: a8cd 783d eec5 253b b975 063c 6108 833d
00000120: 8210 893d f6d6 b43d 54d8 453d d3f7 643d
00000130: feea 89ba 198b 96bc 02e3 a23d b1c7 63bd
00000140: e254 83bc e969 033e abe5 06be 4557 19bb
00000150: 44e5 ac3b 7967 86bd 0c2d 243d 80d1 08bd
00000160: 24c3 18bc 9216 37bd 9011 843d 92bc 86bc
00000170: e12b 1f3c 2558 413c 5f88 963d fd64 fb3c
00000180: d50e 8dbd 90d7 943c 4797 aabd 1e54 b8bd
00000190: 7a5e 453d b428 fd3c 777f 8bbc ff94 943c
000001a0: 0ff2 dcbc 7687 26bd 41d8 893b 5984 b9bd
000001b0: 265e b93d d5cf b4ba f736 233d 9401 89be
000001c0: c576 e73d 386d c83b 6499 92bc 0b67 90bd
000001d0: 25d2 b13d 6ce7 4dbd 93e0 58bc ae4d 5f3e
000001e0: de80 543b 3464 98bc 333d 093e b924 9bbd
000001f0: 8148 ce3d c066 593d 13b7 28be 6c74 35be
00000200: 0956 703d eae6 40bd 57e6 9a3c e2ab 103d
00000210: ba5c 83bc e763 8a38 2cdc c13d b44a 14be
00000220: 5967 883d 6a45 39be 640c de3d 61ca 963c
00000230: a913 14bd 8cb2 49be 5a3f 20bd a3ac 5f3d
00000240: fb9c 8c3c 2420 fabd 43ed 8b3b ca70 8cbc
00000250: 861d 9e3c dd12 58bd be82 38bd 08ab 0b3c
00000260: d0f2 203c 469b 2b3d cabb c73c 1be4 63bd
00000270: bd37 83be 1208 28be 44f6 52be c83c 653e
00000280: a57d a0bd e2b5 37be 64fc 673b 5272 e03d
00000290: ee9a 9fbe 0b75 683d 3aa8 623d c6cc cd3e
000002a0: 9d8d 23be 378e 5bbe 243d 903d 18bb 423e
000002b0: 411b 283e 8888 9b3c 9c99 893d 0f1a b03d
000002c0: 28dd 85be 05e8 df3d 04f6 5dbd ff8d 543e
000002d0: a4b2 bbbd de43 9bbd 1403 e33d b942 14be
000002e0: 9b69 c1bd ec95 dcbd 674d f0bd 95c4 ce3d
000002f0: 3165 283d 7f2a 60bb a80b 7c3d 9a9a ee3c
00000300: 346f b33d 9448 c83d 24d4 e7bc fccb 4ebd
00000310: b28d 0d3b 65f9 42bd 60c0 26bd 948f aabd
00000320: 0a77 d2bd 4c5b 1cbd 59da 173d bd9c 2cbd
00000330: d72e 2a3d fa03 853e b0a4 e9bd 8e16 ba3c
00000340: a0a5 923d d001 f43b d884 8dbd fc5f 413e
00000350: 41a4 4f3e e44c 1a3e db7a f4bc fda5 e23b
00000360: 7eea b6bd bee9 00bd 9929 bbbd ab32 163d
00000370: 3432 f03d ae00 123d 6e6b 6a3d 4719 97bd
00000380: 19ce f7bd 68b9 713c f37c d0bd 4a59 d5bc
00000390: f938 f63c 4b9e 01be 63e1 553c a39c 28bd
000003a0: 1c1f 16be d4d1 a9bd 53c7 913e faa0 03be
000003b0: 6363 01bc 52a7 aebc be58 30bd 6b07 c43c
000003c0: 4c66 19bd 1556 063d 55bf 163e 9664 493d
000003d0: 0e43 a23d 12b8 543d 55f6 b53c 26bf 32bc
000003e0: 62f9 07be db1b 94bc a913 993d 6698 573d
000003f0: 36d1 0c3d e68f 04be ea7d 7c3c 1463 8fbd

fc1.bias f4 [16]
0.025445232 0.016274307 -0.044483844 0.0016337365 0.030332519 -0.004484995 -0.05388683 0.052029923
-0.03013546 -0.035645746 0.016405208 0.029598873 -0.008161867 0.076939166 0.029654786 0.06520211
00000000: 8572 d03c b251 853c b134 36bd 1a23 d63a
00000010: e77b f83c ddf6 92bb 70b8 5cbd 541d 553d
00000020: a4de f6bc 4601 12bd 3764 863c 5679 f23c
00000030: 5ab9 05bc 4892 9d3d 98ee f23c af88 853d

fc2.weight f4 [6, 16]
-0.53824526 -0.4729829 0.14958914 0.006133845 -0.40919033 -0.13347623 0.11972546 -0.36494458
-0.057220735 0.118060276 0.27758393 0.34844714 -0.54333246 -0.09332815 0.61017454 0.16534454
0.22512527 -0.34853154 0.23733944 0.04657181 -0.1914838 -0.54333675 0.15789375 0.06542471
0.1569894 0.27972433 0.34796757 0.15997656 0.23850955 0.5273638 -0.366246 -0.44514745
-0.26794916 0.14532895 0.1961457 0.038877893 -0.37824097 -0.11723207 0.23962173 0.3607375
0.17724715 -0.6813299 0.3865425 -0.12396516 0.23177037 0.34831393 -0.3968248 0.58225805
0.20826916 -0.17835703 -0.027540693 0.16460304 0.35837096 0.11155289 -0.17092955 -0.4371212
0.12826155 0.6482906 -0.3649502 0.08994693 -0.09381921 -0.3627904 0.38670424 -0.56175804
-0.2872508 0.33158314 0.07980732 0.04650334 0.24546391 0.55823123 -0.03469004 -0.06831133
0.052359585 -0.29801753 -0.35267285 -0.1964264 -0.2423877 -0.5771717 0.37294167 0.45403713
0.57425314 0.46526903 0.09393459 0.0560586 0.38270724 0.15033883 0.17312638 0.3778304
-0.08244083 -0.12937835 -0.28865257 -0.3860571 0.54981434 0.091958165 -0.6462037 -0.18099338
00000000: 71ca 09bf d12a f2be e52d 193e 6cfe c83b
00000010: 6581 d1be fead 08be 9f32 f53d 04da babe
00000020: 4a60 6abd 96c9 f13d 7b1f 8e3e aa67 b23e
00000030: d617 0bbf d422 bfbd 6634 1c3f 1450 293e
00000040: 3d87 663e ba72 b2be 1c09 733e 15c2 3e3d
00000050: 5414 44be 1e18 0bbf e6ae 213e 64fd 853d
00000060: d4c1 203e 0738 8f3e ce28 b23e e5d0 233e
00000070: d93b 743e 5001 073f 9984 bbbe 5eea e3be
00000080: a230 89be 1dd1 143e 6bda 483e 6d3e 1f3d
00000090: cda8 c1be 5e17 f0bd 665f 753e 96b2 b83e
000000a0: 4780 353e a36b 2ebf e6e8 c53e 72e1 fdbd
000000b0: 3655 6d3e 3456 b23e 9f2c cbbe dd0e 153f
000000c0: 8344 553e 3aa3 36be 059d e1bc b38d 283e
000000d0: 667c b73e d775 e43d 2808 2fbe 5ace dfbe
000000e0: ff56 033e 5ff6 253f c1da babe 1936 b83d
000000f0: 4924 c0bd aabf b9be 19fe c53e 60cf 0fbf
00000100: 8912 93be 44c5 a93e 0572 a33d 497a 3e3d
00000110: e45a 7b3e 3ee8 0e3f 2517 0ebd d0e6 8bbd
00000120: 0177 563d c195 98be 8991 b4be 0124 49be
00000130: 7b34 78be 86c1 13bf 36f2 be3e 8e77 e83e
00000140: 4102 133f be37 ee3e c760 c03d b49d 653d
00000150: 34f2 c33e 6cf2 193e 0b48 313e fc72 c13e
00000160: bdd6 a8bd c27b 04be 45ca 93be 47a9 c5be
00000170: a2c0 0c3f 9054 bc3d 9b6d 25bf 5456 39be

fc2.bias f4 [6]
-0.15271057 -0.2695104 -0.2190103 -0.010232996 0.052496023 -0.26068845
00000000: 2960 1cbe 44fd 89be 3c44 60be 4ca8 27bc
00000010: 1206 573d f578 85be
